py/model/autoencoder/res/25-09-2021_201528/epoch_33.model (torch, 3791 bytes, 18 tensors)

encoder.lstm.weight_ih_l0 f4 [4, 2]
-0.013337751 -0.9833604 -0.2575606 -0.21110904 0.5311831 0.03369322 -0.42604464 -0.30848253
00000000: 9586 5abc 82bd 7bbf fcde 83be f82c 58be
00000010: 9efb 073f e701 0a3d 8622 dabe 6cf1 9dbe

encoder.lstm.weight_hh_l0 f4 [4, 1]
0.49866545 -0.99465704 0.98462176 -0.6291394
00000000: 1451 ff3e d8a1 7ebf 2c10 7c3f 480f 21bf

encoder.lstm.bias_ih_l0 f4 [4]
0.6179588 -0.42889595 -0.48906243 -0.59786856
00000000: 8c32 1e3f 4098 dbbe 6466 fabe ea0d 19bf

encoder.lstm.bias_hh_l0 f4 [4]
-0.61577 0.22304273 0.099851966 -0.14858337
00000000: 1aa3 1dbf 5065 643e 307f cc3d 3d26 18be

encoder.lstm.weight_ih_l1 f4 [4, 1]
0.017267002 -0.42503437 0.26036274 0.2750468
00000000: 8773 8d3c 1b9e d9be 444e 853e efd2 8c3e

encoder.lstm.weight_hh_l1 f4 [4, 1]
-0.064145446 -0.81302315 -0.5806826 0.18121265
00000000: b05e 83bd 4922 50bf 9da7 14bf cf8f 393e

encoder.lstm.bias_ih_l1 f4 [4]
-0.6610082 -0.73351496 -0.9666432 0.17296363
00000000: d537 29bf a3c7 3bbf ee75 77bf 611d 313e

encoder.lstm.bias_hh_l1 f4 [4]
-0.2504799 0.72176915 -0.63703084 0.24569525
00000000: e73e 80be ddc5 383f 7414 23bf 8997 7b3e

decoder.lstm.weight_ih_l0 f4 [8, 1]
-0.36181816 -0.23567432 -0.4050769 0.23859449 -0.4078107 -0.64539003 -0.5745503 -0.040966917
00000000: 3b40 b9be 9c54 71be 3d66 cfbe 1d52 743e
00000010: 90cc d0be 4838 25bf ba15 13bf edcc 27bd

decoder.lstm.weight_hh_l0 f4 [8, 2]
-0.09284963 -0.5922463 -0.1231547 -0.14058568 0.4216453 0.18670325 -0.5396778 -0.057635393
0.52441657 0.5645241 0.17927209 -0.12868549 0.61381584 0.20838074 0.10308689 0.087217085
00000000: f227 bebd 749d 17bf 8838 fcbd b1f5 0fbe
00000010: e5e1 d73e 232f 3f3e 5328 0abf 1713 6cbd
00000020: 2a40 063f a784 103f 1a93 373e 21c6 03be
00000030: 0923 1d3f c361 553e 381f d33d df9e b23d

decoder.lstm.bias_ih_l0 f4 [8]
-0.4317661 -0.20126629 0.10166803 -0.18665944 -0.36823648 -0.2013646 0.33223063 -0.22031522
00000000: 7210 ddbe c018 4ebe 5437 d03d a723 3fbe
00000010: 7e89 bcbe 8632 4ebe 221a aa3e 509a 61be

decoder.lstm.bias_hh_l0 f4 [8]
-0.6865281 -0.44871697 -0.22083375 0.49516937 -0.3837359 -0.27060202 0.06334312 0.2390362
00000000: 4ec0 2fbf 3bbe e5be 3e22 62be d786 fd3e
00000010: 0879 c4be 598c 8abe 0aba 813d e8c5 743e

decoder.lstm.weight_ih_l1 f4 [8, 2]
-0.32497033 0.67463195 -0.030983506 -0.64195263 0.06884074 0.18072279 -0.41321483 0.008766989
-0.23007429 -0.57627445 -0.4710892 0.24868055 0.6200971 0.6583785 0.08004158 -0.3261782
00000000: 8362 a6be aeb4 2c3f 1fd1 fdbc 0257 24bf
00000010: 60fc 8c3d 650f 393e e590 d3be 6ba3 0f3c
00000020: 9898 6bbe b986 13bf 9b32 f1be 1da6 7e3e
00000030: afbe 1e3f 7e8b 283f d7ec a33d d400 a7be

decoder.lstm.weight_hh_l1 f4 [8, 2]
-0.19165348 -0.43477228 0.027725613 0.30019078 0.13627996 -0.19447093 0.57746637 0.05573568
0.3832116 0.32782486 -0.2890816 0.10681088 -0.3567326 -0.661816 -0.2830024 0.27762747
00000000: cf40 44be 799a debe d320 e33c 9bb2 993e
00000010: f98c 0b3e 6323 47be d6d4 133f 194b 643d
00000020: 5034 c43e a9d8 a73e 8102 94be aabf da3d
00000030: a8a5 b6be c66c 29bf b1e5 90be 3025 8e3e

decoder.lstm.bias_ih_l1 f4 [8]
-0.55707926 0.35421246 -0.11681593 -0.10962882 0.04157223 -0.26064655 -0.575654 -0.58744234
00000000: bf9c 0ebf 565b b53e 313d efbd 1385 e0bd
00000010: a547 2a3d 7773 85be 0f5e 13bf 9f62 16bf

decoder.lstm.bias_hh_l1 f4 [8]
-0.45818645 -0.50995296 0.6086144 0.12666053 0.560057 0.041749947 -0.6018096 -0.25237426
00000000: 6a97 eabe 478c 02bf 27ce 1b3f 4cb3 013e
00000010: e55f 0f3f fe01 2b3d 3210 1abf 3337 81be

decoder.fc.weight f4 [2, 2]
-0.3014034 -0.6071369 -0.3762402 0.1406239
00000000: 8c51 9abe 536d 1bbf 8ea2 c0be b6ff 0f3e

decoder.fc.bias f4 [2]
-0.498663 -0.08167865
00000000: c250 ffbe 2347 a7bd
