py/model/autoencoder/res/25-09-2021_201528/epoch_56.model (torch, 3791 bytes, 18 tensors)

encoder.lstm.weight_ih_l0 f4 [4, 2]
000000 b4 bf 64 bc 82 bd 7b bf fc de 83 be f8 2c 58 be
       -0.013961721 -0.9833604 -0.2575606 -0.21110904
000010 9e fb 07 3f 08 96 09 3d 4d 2d da be 6c f1 9d be
       0.5311831 0.033590347 -0.42612687 -0.30848253

encoder.lstm.weight_hh_l0 f4 [4, 1]
000000 14 51 ff 3e d8 a1 7e bf 2c 10 7c 3f 48 0f 21 bf
       0.49866545 -0.99465704 0.98462176 -0.6291394

encoder.lstm.bias_ih_l0 f4 [4]
000000 8c 32 1e 3f 40 98 db be 5a 64 fa be ea 0d 19 bf
       0.6179588 -0.42889595 -0.48904687 -0.59786856

encoder.lstm.bias_hh_l0 f4 [4]
000000 1a a3 1d bf 86 69 64 3e a0 49 ce 3d 44 62 17 be
       -0.61577 0.22305879 0.100726366 -0.14783579

encoder.lstm.weight_ih_l1 f4 [4, 1]
000000 86 84 11 3b 9a fb df be de e6 86 3e a4 55 85 3e
       0.0022204234 -0.43746644 0.26348013 0.260419

encoder.lstm.weight_hh_l1 f4 [4, 1]
000000 ff c1 83 bd af 3f 50 bf 9d ac 14 bf 8d 17 38 3e
       -0.06433486 -0.81347173 -0.58075887 0.17977734

encoder.lstm.bias_ih_l1 f4 [4]
000000 ea 55 29 bf df 93 3b bf df e3 76 bf cc c1 34 3e
       -0.6614672 -0.7327251 -0.96441454 0.17652053

encoder.lstm.bias_hh_l1 f4 [4]
000000 4d 7b 80 be a1 f9 38 3f 65 82 22 bf f4 3b 7f 3e
       -0.2509407 0.72255903 -0.63480216 0.24925214

decoder.lstm.weight_ih_l0 f4 [8, 1]
000000 6b e9 b9 be 2d 28 71 be 0f d8 cf be b9 97 74 3e
       -0.36310896 -0.23550482 -0.40594527 0.23886003
000010 94 c8 cf be ab 0c 26 bf 49 4a 13 bf 63 e5 26 bd
       -0.40582716 -0.6486308 -0.57535225 -0.040746104

decoder.lstm.weight_hh_l0 f4 [8, 2]
000000 e0 65 be bd 27 85 17 bf dd bc fc bd a8 36 10 be
       -0.09296775 -0.5918755 -0.1234071 -0.1408335
000010 6e db d7 3e f5 3d 3f 3e c7 28 0a bf 31 e3 6c bd
       0.421596 0.18675978 -0.5396847 -0.057833854
000020 3c 56 06 3f 53 6a 10 3f df 47 37 3e 15 55 03 be
       0.52475333 0.5641224 0.1789851 -0.12825425
000030 53 35 1d 3f 90 8c 55 3e 80 a8 d2 3d c9 1f b2 3d
       0.6140949 0.20854402 0.10286045 0.08697469

decoder.lstm.bias_ih_l0 f4 [8]
000000 5f e5 dc be 93 bd 4c be 6a 35 d1 3d 6c 3a 3e be
       -0.43143746 -0.19994192 0.10215266 -0.18576974
000010 da 87 bd be 55 78 4d be 2c 15 aa 3e a7 6e 60 be
       -0.3701771 -0.20065434 0.33219278 -0.2191721

decoder.lstm.bias_hh_l0 f4 [8]
000000 d1 a3 2f bf 47 11 e5 be 99 a8 61 be 2f 00 fe 3e
       -0.6860934 -0.44739744 -0.22036971 0.49609515
000010 64 77 c5 be 4f 34 8a be 04 b8 81 3d 91 f1 75 3e
       -0.3856765 -0.26993033 0.06333926 0.24017932

decoder.lstm.weight_ih_l1 f4 [8, 2]
000000 e2 77 a6 be 76 d0 2c 3f 8b 88 fe bc 2c 7a 24 bf
       -0.32513338 0.67505586 -0.031070968 -0.6424892
000010 9c d9 8c 3d e9 6d 39 3e 37 9f d3 be 67 e5 06 3c
       0.06877443 0.18108334 -0.4133241 0.008233405
000020 96 d8 6b be da 63 13 bf c2 b8 f1 be 68 d5 81 3e
       -0.2303184 -0.57574236 -0.47211272 0.2535813
000030 2c b6 1e 3f df b0 28 3f 48 a6 a3 3d b3 71 a7 be
       0.6199672 0.65894884 0.079907 -0.32703933

decoder.lstm.weight_hh_l1 f4 [8, 2]
000000 cb 37 44 be ff 92 de be 37 a1 e3 3c a4 91 99 3e
       -0.19161908 -0.43471524 0.027786834 0.29993927
000010 13 89 0b 3e db 13 47 be b8 ee 13 3f d0 f9 63 3d
       0.13626508 -0.19441168 0.5778613 0.05565816
000020 ec 39 c4 3e 8b d9 a7 3e 73 fc 93 be 2c c1 db 3d
       0.3832544 0.3278316 -0.2890354 0.10730204
000030 9f a8 b6 be 35 79 29 bf 56 d5 90 be 85 15 8e 3e
       -0.35675523 -0.6620057 -0.28287762 0.27750793

decoder.lstm.bias_ih_l1 f4 [8]
000000 1c 9a 0e bf a8 d3 b5 3e fc 5c ef bd b1 05 df bd
       -0.557039 0.35513043 -0.11687657 -0.108897574
000010 9d 55 2d 3d 47 e0 85 be d2 5c 13 bf 6b 0b 16 bf
       0.042317975 -0.26147673 -0.5756351 -0.5861117

decoder.lstm.bias_hh_l1 f4 [8]
000000 fb 93 ea be 98 56 02 bf 5a cc 1b 3f dc 70 02 3e
       -0.45816025 -0.5091338 0.6085869 0.12738365
000010 e0 91 0f 3f 76 a6 27 3d f5 0e 1a bf 22 75 80 be
       0.5608196 0.040930234 -0.6017907 -0.25089365

decoder.fc.weight f4 [2, 2]
000000 55 ef 9a be 50 5b 1c bf 49 5d c0 be 63 de 0f 3e
       -0.3026072 -0.6107683 -0.3757117 0.14049678

decoder.fc.bias f4 [2]
000000 c9 7f ff be 75 19 a7 bd
       -0.4990218 -0.081591524
