py/model/autoencoder/res/25-09-2021_201528/epoch_28.model (torch, 3791 bytes, 18 tensors)

encoder.lstm.weight_ih_l0 f4 [4, 2]
00000000: 2dc0 58bc 82bd 7bbf fcde 83be f82c 58be
00000010: 9efb 073f a30f 0a3d 7022 dabe 6cf1 9dbe
-0.013229412 -0.9833604 -0.2575606 -0.21110904 0.5311831 0.03370632 -0.426044 -0.30848253

encoder.lstm.weight_hh_l0 f4 [4, 1]
00000000: 1451 ff3e d8a1 7ebf 2c10 7c3f 480f 21bf
0.49866545 -0.99465704 0.98462176 -0.6291394

encoder.lstm.bias_ih_l0 f4 [4]
00000000: 8c32 1e3f 4098 dbbe 6466 fabe ea0d 19bf
0.6179588 -0.42889595 -0.48906243 -0.59786856

encoder.lstm.bias_hh_l0 f4 [4]
00000000: 1aa3 1dbf 5065 643e c529 cc3d 3e3d 18be
-0.61577 0.22304273 0.099689044 -0.14867112

encoder.lstm.weight_ih_l1 f4 [4, 1]
00000000: 5d9f a73c af43 d8be 81fc 843e 386b 8e3e
0.020461733 -0.42239138 0.25973895 0.27816176

encoder.lstm.weight_hh_l1 f4 [4, 1]
00000000: fd52 83bd 111c 50bf b9a6 14bf e5da 393e
-0.06412313 -0.81292826 -0.580669 0.18149908

encoder.lstm.bias_ih_l1 f4 [4]
00000000: 632f 29bf ded1 3bbf f994 77bf d65d 303e
-0.6608793 -0.73367107 -0.9671169 0.17223296

encoder.lstm.bias_hh_l1 f4 [4]
00000000: ac2f 80be a2bb 383f 7f33 23bf fed7 7a3e
-0.2503637 0.72161305 -0.6375045 0.24496457

decoder.lstm.weight_ih_l0 f4 [8, 1]
00000000: 4921 b9be c35c 71be 2a51 cfbe 1c45 743e
00000010: 44fc d0be 9e11 25bf 590c 13bf 2df8 27bd
-0.36158207 -0.23570542 -0.4049161 0.23854488 -0.40817463 -0.64480007 -0.57440716 -0.041008163

decoder.lstm.weight_hh_l0 f4 [8, 2]
00000000: 6a1c bebd 78a2 17bf ca20 fcbd b1e9 0fbe
00000010: cde2 d73e 5c2c 3f3e dd28 0abf b8ec 6bbd
00000020: 3c3c 063f 8f8a 103f 4da0 373e afda 03be
00000030: 0d1f 1d3f 6459 553e 5034 d33d b1b6 b23d
-0.09282763 -0.5923228 -0.123109415 -0.1405399 0.42165223 0.18669266 -0.539686 -0.0575988
0.5243566 0.56461424 0.17932244 -0.1287639 0.61375505 0.20834881 0.10312712 0.08726252

decoder.lstm.bias_ih_l0 f4 [8]
00000000: 5c18 ddbe 6e58 4ebe 4308 d03d 2c4e 3fbe
00000010: b659 bcbe 5854 4ebe 2c1b aa3e e5d0 61be
-0.43182647 -0.20150921 0.10157826 -0.18682164 -0.36787194 -0.20149362 0.33223855 -0.22052343

decoder.lstm.bias_hh_l0 f4 [8]
00000000: 42c5 2fbf 84dd e5be 2638 62be 1c70 fd3e
00000010: 4049 c4be 3e9d 8abe 8eba 813d 538f 743e
-0.68660367 -0.44895566 -0.22091731 0.49499595 -0.38337135 -0.2707309 0.063344106 0.23882799

decoder.lstm.weight_ih_l1 f4 [8, 2]
00000000: 645e a6be 71af 2c3f 7aaf fdbc a750 24bf
00000010: 5c01 8d3d 7cfd 383e 3f8e d3be cd3c 113c
00000020: ab8d 6bbe 858d 13bf af1a f1be 3db9 7d3e
00000030: 3ec0 1e3f aa84 283f 9ef9 a33d 4cec a6be
-0.3249389 0.674552 -0.030967463 -0.64185566 0.06885025 0.18065447 -0.41319463 0.008864594
-0.23003261 -0.57637817 -0.4709067 0.24777694 0.6201209 0.6582743 0.08006595 -0.32602155

decoder.lstm.weight_hh_l1 f4 [8, 2]
00000000: 8242 44be e29b debe 4809 e33c 3eb9 993e
00000010: dd8d 0b3e b526 47be 8ccf 133f cb58 643d
00000020: 8633 c43e aed8 a73e 1a04 94be 1491 da3d
00000030: b9a4 b6be 196a 29bf dfe8 90be 1228 8e3e
-0.19165996 -0.43478304 0.027714387 0.3002414 0.13628335 -0.1944836 0.57738566 0.055748742
0.3832056 0.327825 -0.2890938 0.10672203 -0.35672548 -0.6617752 -0.28302667 0.27764946

decoder.lstm.bias_ih_l1 f4 [8]
00000000: 209d 0ebf 9f45 b53e 3c32 efbd 7aca e0bd
00000010: acbb 293d e45e 85be e35d 13bf 6873 16bf
-0.55708504 0.3540468 -0.11679503 -0.10976119 0.041438743 -0.26048958 -0.57565135 -0.58769846

decoder.lstm.bias_hh_l1 f4 [8]
00000000: 9997 eabe 2496 02bf 0acf 1b3f b090 013e
00000010: ad56 0f3f 94a1 2b3d 0610 1abf fa58 81be
-0.45818785 -0.51010346 0.6086279 0.1265285 0.5599163 0.04190214 -0.601807 -0.25263196

decoder.fc.weight f4 [2, 2]
00000000: d434 9abe 2542 1bbf d6b1 c0be 5704 103e
-0.3011843 -0.60647804 -0.37635678 0.14064156

decoder.fc.bias f4 [2]
00000000: 3f48 ffbe 754e a7bd
-0.49859807 -0.08169261
