py/model/autoencoder/res/25-09-2021_201528/epoch_83.model (torch, 3791 bytes, 18 tensors)

encoder.lstm.weight_ih_l0 f4 [4, 2]
00000000: 2da9 75bc 82bd 7bbf fcde 83be f82c 58be
00000010: 9efb 073f b4ad 083d 7d99 dabe 6cf1 9dbe
-0.014993948 -0.9833604 -0.2575606 -0.21110904 0.5311831 0.03336878 -0.42695227 -0.30848253

encoder.lstm.weight_hh_l0 f4 [4, 1]
00000000: 1451 ff3e d8a1 7ebf 2c10 7c3f 480f 21bf
0.49866545 -0.99465704 0.98462176 -0.6291394

encoder.lstm.bias_ih_l0 f4 [4]
00000000: 8c32 1e3f 4098 dbbe 444e fabe ea0d 19bf
0.6179588 -0.42889595 -0.48887837 -0.59786856

encoder.lstm.bias_hh_l0 f4 [4]
00000000: 1aa3 1dbf 15a8 643e 19e9 d03d 8aa4 15be
-0.61577 0.22329743 0.1020071 -0.14613548

encoder.lstm.weight_ih_l1 f4 [4, 1]
00000000: 7710 86bc 97d4 e7be b711 893e 8e21 783e
-0.016365273 -0.4527938 0.26771328 0.2423155

encoder.lstm.weight_hh_l1 f4 [4, 1]
00000000: f699 84bd fe63 50bf 63b7 14bf 4a0f 363e
-0.06474678 -0.81402576 -0.58092326 0.1777927

encoder.lstm.bias_ih_l1 f4 [4]
00000000: b263 29bf c149 3bbf c527 76bf f987 393e
-0.6616775 -0.73159415 -0.96154433 0.18118276

encoder.lstm.bias_hh_l1 f4 [4]
00000000: 45ae 80be bf43 393f 4bc6 21bf 1bfb 813e
-0.25132957 0.72369 -0.63193196 0.2538689

decoder.lstm.weight_ih_l0 f4 [8, 1]
00000000: 1dec babe d3e5 70be 1f87 d0be 3301 753e
00000010: cb3a cebe db5f 27bf 6c9b 13bf 619a 25bd
-0.36508265 -0.23525171 -0.4072809 0.23926239 -0.4027923 -0.6538064 -0.5765903 -0.04043043

decoder.lstm.weight_hh_l0 f4 [8, 2]
00000000: d3c6 bebd b864 17bf e78d fdbd 1b9c 10be
00000010: d8cc d73e e156 3f3e 4a30 0abf 5e26 6ebd
00000020: 8a7a 063f bb4b 103f b9d5 363e 7aa4 02be
00000030: d44a 1d3f 30cb 553e 09ee d13d 4c5d b13d
-0.093152665 -0.5913806 -0.12380581 -0.1412205 0.4214847 0.18685485 -0.53979933 -0.05814206
0.5253073 0.56365556 0.17854966 -0.12758055 0.61442304 0.20878291 0.1025048 0.08660373

decoder.lstm.bias_ih_l0 f4 [8]
00000000: e29b dcbe 02a2 4abe a1b7 d23d a2ce 3cbe
00000010: 9d09 bfbe 0051 4cbe 2c0e aa3e 0798 5ebe
-0.4308768 -0.19788364 0.10288931 -0.18438199 -0.37312022 -0.19952774 0.33213937 -0.21737681

decoder.lstm.bias_hh_l0 f4 [8]
00000000: 997b 2fbf 85fc e3be e2e8 60be 74bd fe3e
00000010: 27f9 c6be 749e 89be 11bd 813d 31c8 773e
-0.6854797 -0.44528595 -0.21963838 0.49753916 -0.38861963 -0.26878703 0.0633489 0.2419746

decoder.lstm.weight_ih_l1 f4 [8, 2]
00000000: c896 a6be d0fa 2c3f 96b2 ffbc dfb0 24bf
00000010: 4097 8c3d 39f9 393e 2eb2 d3be 2b5f f23b
00000020: 8c43 6cbe 5332 13bf bf88 f2be f3b9 853e
00000030: 0ca6 1e3f b3ea 283f 9238 a33d 7f21 a8be
-0.32536912 0.6757021 -0.031213086 -0.64332384 0.06864786 0.18161477 -0.41346878 0.007396599
-0.23072642 -0.57498664 -0.47369954 0.2611843 0.6197212 0.6598312 0.07969774 -0.32838055

decoder.lstm.weight_hh_l1 f4 [8, 2]
00000000: 852a 44be 8d89 debe ee6f e43c a26c 993e
00000010: e284 0b3e ae00 47be 7211 143f 4d6d 633d
00000020: 8144 c43e 2fdb a73e d9f0 93be 6b58 dd3d
00000030: 01a9 b6be 7587 29bf 8fbd 90be 5dfc 8d3e
-0.19156845 -0.43464318 0.027885403 0.29965693 0.1362491 -0.19433853 0.5783912 0.05552416
0.38333514 0.3278441 -0.2889469 0.1080788 -0.35675815 -0.66222316 -0.28269622 0.277316

decoder.lstm.bias_ih_l1 f4 [8]
00000000: b494 0ebf 8d91 b63e 1b5c efbd 77a2 dcbd
00000010: 2c32 323d 1c86 86be cf54 13bf 7279 15bf
-0.5569565 0.3565792 -0.116874896 -0.10773175 0.04350488 -0.26274192 -0.5755128 -0.58388436

decoder.lstm.bias_hh_l1 f4 [8]
00000000: 0385 eabe ad00 02bf eccf 1b3f 15a3 033e
00000010: 9ae2 0f3f ca7d 223d f206 1abf bb91 7ebe
-0.45804605 -0.5078228 0.6086414 0.1285518 0.5620514 0.039670743 -0.6016685 -0.2486028

decoder.fc.weight f4 [2, 2]
00000000: 76e4 9bbe 7cd2 1dbf 450f c0be 60a5 0f3e
-0.3044774 -0.616493 -0.3751165 0.1402793

decoder.fc.bias f4 [2]
00000000: 8ac9 ffbe c7c2 a6bd
-0.4995845 -0.081426196
