py/model/autoencoder/res/24-09-2021_154216/epoch_44.model (torch, 6223 bytes, 34 tensors)

encoder.lstm.weight_ih_l0 f4 [4, 2]
0	0xbf3ee2fc	-0.745651
1	0xbe8e2ff0	-0.27770948
2	0xbf692112	-0.91066086
3	0x3f5add06	0.85493505
4	0xbefba908	-0.49152398
5	0x3ecaa7e8	0.39581227
6	0xbe6adcf0	-0.22935843
7	0xbf2fbe0a	-0.6864935

encoder.lstm.weight_hh_l0 f4 [4, 1]
0	0xbe5676d8	-0.20943773
1	0xbf26a6a8	-0.6509805
2	0x3f1e2cde	0.6178721
3	0xbf7bd34a	-0.98369277

encoder.lstm.bias_ih_l0 f4 [4]
0	0xbd86ea10	-0.06587613
1	0x3ed55384	0.4166528
2	0xbf35ead8	-0.7106147
3	0xbdc13ac0	-0.09435034

encoder.lstm.bias_hh_l0 f4 [4]
0	0x3f0df080	0.554451
1	0x3f6edd5c	0.9330652
2	0xbf0c0524	-0.54695344
3	0x3e1a5af0	0.15073752

encoder.lstm.weight_ih_l1 f4 [4, 1]
0	0x3eddc3ec	0.4331354
1	0x3ec54088	0.38525796
2	0x3e899680	0.26872635
3	0x3dc94860	0.098282576

encoder.lstm.weight_hh_l1 f4 [4, 1]
0	0x3dc2e410	0.09516156
1	0x3efbe204	0.49195874
2	0x3cc08340	0.023500085
3	0xbf111ef8	-0.5668788

encoder.lstm.bias_ih_l1 f4 [4]
0	0xbea3a484	-0.31961453
1	0x3d7bb320	0.061450124
2	0xbe4f9ec0	-0.20275402
3	0x3e0f7de8	0.14012873

encoder.lstm.bias_hh_l1 f4 [4]
0	0xbf4b79e0	-0.7948284
1	0xbf2397e0	-0.6390362
2	0x3f1beeb0	0.60911083
3	0xbd9938e0	-0.07481551

encoder.lstm.weight_ih_l2 f4 [4, 1]
0	0x3f05ee74	0.52316976
1	0xbe9ff2a4	-0.31239808
2	0xbec805c8	-0.3906691
3	0x3f4a835a	0.79106677

encoder.lstm.weight_hh_l2 f4 [4, 1]
0	0xbf5e2da4	-0.8678839
1	0x3f171212	0.5901195
2	0xbf3c2994	-0.73500943
3	0xbeb03ba0	-0.3442049

encoder.lstm.bias_ih_l2 f4 [4]
0	0x3ebf3418	0.37344432
1	0x3f5d5f80	0.86473846
2	0x3d079aaa	0.033106484
3	0x3dd634d0	0.10459292

encoder.lstm.bias_hh_l2 f4 [4]
0	0xbf5d0992	-0.8634273
1	0x3eeb1b50	0.45919275
2	0xbf00f220	-0.50369453
3	0xbeda5e20	-0.42649937

encoder.lstm.weight_ih_l3 f4 [4, 1]
0	0xbf20cd32	-0.62813103
1	0xbec9da38	-0.394243
2	0xbf700c90	-0.9376917
3	0xbd51b217	-0.05119523

encoder.lstm.weight_hh_l3 f4 [4, 1]
0	0x3f60382c	0.8758571
1	0xbf27dd08	-0.6557164
2	0xbf123920	-0.57118416
3	0x3d8b3210	0.06796658

encoder.lstm.bias_ih_l3 f4 [4]
0	0x3f366a0e	0.71255577
1	0x3e013a50	0.126199
2	0xbebe211c	-0.37134635
3	0xbebe595c	-0.3717755

encoder.lstm.bias_hh_l3 f4 [4]
0	0x3f3338ac	0.7000835
1	0x3db09320	0.08621812
2	0x3f66498c	0.89955974
3	0xbedbebc0	-0.429533

decoder.lstm.weight_ih_l0 f4 [8, 1]
0	0xbf15e55d	-0.58553106
1	0xbd4594fc	-0.048237786
2	0xbf280c01	-0.65643317
3	0x3d84ca30	0.06483877
4	0x3f24914f	0.64284223
5	0xbef68c51	-0.48153928
6	0x3d76bd0f	0.060238894
7	0x3e823ac2	0.25435454

decoder.lstm.weight_hh_l0 f4 [8, 2]
0	0x3e575c20	0.21031237
1	0x3f25536f	0.64580435
2	0xbea577ed	-0.3231806
3	0xbe2947c0	-0.16531277
4	0x3cb21561	0.02173871
5	0x3e005eac	0.12536114
6	0x3efe006e	0.49609703
7	0xbef3ce46	-0.47618312
8	0x3e814254	0.25245917
9	0x3e774b43	0.24149804
10	0xbe4a1980	-0.1973629
11	0x3ef248e2	0.4732123
12	0xbe9b0861	-0.3027983
13	0xbf235eaa	-0.6381632
14	0x3ef650d6	0.48108548
15	0x3e5b9f90	0.21447587

decoder.lstm.bias_ih_l0 f4 [8]
0	0x3e3f5694	0.1868537
1	0xbe340e19	-0.17583503
2	0xbf2a6b4e	-0.66569984
3	0x3f13ec0d	0.5778206
4	0xbef19191	-0.4718137
5	0xbec55812	-0.38543755
6	0x3f06b7c7	0.5262417
7	0xbe47cd43	-0.19511895

decoder.lstm.bias_hh_l0 f4 [8]
0	0xbf261b5c	-0.648855
1	0xbf2aa656	-0.6666006
2	0x3eb95aa7	0.36201975
3	0xbe6d924c	-0.23200339
4	0xbe1dc5e5	-0.15407522
5	0xbf06c780	-0.5264816
6	0x3edf42ae	0.4360556
7	0x3ea2ef0a	0.31822997

decoder.lstm.weight_ih_l1 f4 [8, 2]
0	0x3b44e880	0.0030045807
1	0x3e6444ef	0.22291921
2	0x3f2cc5ff	0.6748962
3	0x3ecca30c	0.39968145
4	0xbf0aa213	-0.54153556
5	0x3eda2f66	0.42614287
6	0xbe6a5ece	-0.22887728
7	0x3f0453a9	0.51690155
8	0x3f0958fa	0.5365139
9	0xbe8b9c9d	-0.27267924
10	0x3f2b220d	0.6684883
11	0x3efbc252	0.49171692
12	0xbea491a0	-0.32142353
13	0xbf30eefa	-0.6911465
14	0xbd0cfeb1	-0.03442258
15	0xbd584356	-0.05279859

decoder.lstm.weight_hh_l1 f4 [8, 2]
0	0xbefee69e	-0.49785322
1	0x3e3ecce4	0.18632847
2	0x3e8b167c	0.27165592
3	0xbd6ed831	-0.058311645
4	0xbf341135	-0.70338756
5	0x3f2b840f	0.6699838
6	0xbedd6948	-0.43244386
7	0xbe965b45	-0.29366508
8	0xbd8ab0be	-0.06771992
9	0xbf32431e	-0.6963366
10	0x3f1b1f47	0.605946
11	0xbf04f13a	-0.5193058
12	0x3ef29372	0.47378117
13	0xbe842892	-0.25812203
14	0x3f294539	0.6612125
15	0xbe47955b	-0.19490568

decoder.lstm.bias_ih_l1 f4 [8]
0	0x3f00c29e	0.5029696
1	0xbef1b902	-0.47211462
2	0xbec3105e	-0.38098425
3	0xbed8a010	-0.42309618
4	0xbe575214	-0.21027404
5	0xbd20abb6	-0.039226256
6	0xbf097659	-0.5369621
7	0xbd88374d	-0.06651173

decoder.lstm.bias_hh_l1 f4 [8]
0	0xbed8e3a9	-0.4236119
1	0x3ee8cbe6	0.45468062
2	0xbe34b35c	-0.17646545
3	0xbf073116	-0.52809274
4	0xbed3a2a0	-0.4133501
5	0xbed65c22	-0.41867167
6	0x3ea272a3	0.31728086
7	0x3d97104b	0.073761545

decoder.lstm.weight_ih_l2 f4 [8, 2]
0	0xbf153af1	-0.5829306
1	0x3dd49b76	0.10381214
2	0x3ecb02b2	0.39650494
3	0x3dfa2f4c	0.122160524
4	0x3e26c5bd	0.16286369
5	0x3f17e620	0.5933552
6	0x3d097b76	0.033565007
7	0xbd32789c	-0.043572053
8	0xbdc1da41	-0.09465457
9	0xbefc04ea	-0.492225
10	0x3d9e4e11	0.07729734
11	0x3ef3164e	0.47477955
12	0xbdc3f5c3	-0.0956836
13	0xbe742490	-0.23842072
14	0x3f0cfcfa	0.5507351
15	0xbefa0cba	-0.48837835

decoder.lstm.weight_hh_l2 f4 [8, 2]
0	0xbf1e2a5c	-0.61783385
1	0xbec75a09	-0.3893588
2	0x3e896ebd	0.268423
3	0xbb2f420b	-0.0026742246
4	0x3dd0b497	0.10190695
5	0xbe98e10d	-0.298592
6	0xbdb8e386	-0.09027772
7	0x3c692717	0.014230511
8	0x3eadbc84	0.33932889
9	0xbf1e4be4	-0.6183455
10	0xbe885078	-0.26623893
11	0x3d7ffa69	0.06249467
12	0xbe38cfb6	-0.18047985
13	0x3ba73b42	0.0051034996
14	0xbe8cd18d	-0.27503625
15	0xbefb3f42	-0.490717

decoder.lstm.bias_ih_l2 f4 [8]
0	0xbe8bdd84	-0.2731744
1	0x3ee8bbfc	0.4545592
2	0xbebe9b2c	-0.37227762
3	0x3f0a1821	0.5394307
4	0x3eb781ba	0.3584116
5	0x3e21fc23	0.15818839
6	0xbf25f2a9	-0.64823395
7	0xbf1ee410	-0.62066746

decoder.lstm.bias_hh_l2 f4 [8]
0	0xbd815730	-0.06315458
1	0xbe2db740	-0.16964436
2	0x3db52b60	0.08846164
3	0xbedc269c	-0.42998207
4	0xbde194d8	-0.11014718
5	0xbd862dff	-0.06551742
6	0x3f05dad5	0.52287036
7	0x3ed54204	0.41651928

decoder.lstm.weight_ih_l3 f4 [8, 2]
0	0xbee31c97	-0.4435775
1	0xbef51a0f	-0.47871444
2	0x3d8f30ae	0.06991707
3	0xbf169aa3	-0.58829707
4	0xbeb9f6e8	-0.36321187
5	0x3eb5f68d	0.35539666
6	0xbf04c366	-0.51860654
7	0xbdbd9103	-0.092561744
8	0x3f0ea9f6	0.5572809
9	0x3ec522ee	0.38503212
10	0x3e81279c	0.25225532
11	0xbe22be40	-0.15892887
12	0xbf0a9017	-0.54126114
13	0xbe49617d	-0.19666095
14	0x3ef6e8c1	0.48224452
15	0x3e8e6f26	0.27819175

decoder.lstm.weight_hh_l3 f4 [8, 2]
0	0x3f28f472	0.65997994
1	0x3ea39cf4	0.31955683
2	0xbf261109	-0.64869744
3	0x3f2ae4cf	0.66755384
4	0xbd4c5b89	-0.049891982
5	0xbf06bbf5	-0.5263055
6	0xbe0dc641	-0.13845159
7	0x3e6487bc	0.22317404
8	0xbedbc039	-0.42920092
9	0xbf2e6cf1	-0.6813498
10	0x3bc62968	0.0060474165
11	0xbf1610f5	-0.58619624
12	0x3f021888	0.5081868
13	0x3e1d5554	0.15364581
14	0x3f02891c	0.5099046
15	0x3eb09d49	0.34495

decoder.lstm.bias_ih_l3 f4 [8]
0	0x3ea99218	0.33119273
1	0xbef33c30	-0.47506857
2	0x3db26a97	0.08711737
3	0xbf25f767	-0.6483063
4	0x3c967422	0.018365923
5	0xbdbb946f	-0.09159171
6	0xbe3845bd	-0.17995353
7	0x3db22335	0.086981215

decoder.lstm.bias_hh_l3 f4 [8]
0	0x3e774f39	0.24151315
1	0xbe776927	-0.24161206
2	0x3f11626a	0.5679079
3	0x3e387d5a	0.18016568
4	0xbe0fa3bd	-0.14027305
5	0xbf050ea6	-0.51975477
6	0x3e40e097	0.18835674
7	0x3e0f0c90	0.13969636

decoder.fc.weight f4 [2, 2]
0	0xbeb8bf1d	-0.36083308
1	0xbb41acb1	-0.0029552395
2	0xbef8e64e	-0.4861321
3	0x3db97e78	0.09057325

decoder.fc.bias f4 [2]
0	0xbf0afc76	-0.54291475
1	0xbdd2e15b	-0.102968894
