py/model/autoencoder/res/24-09-2021_154216/epoch_51.model (torch, 6223 bytes, 34 tensors)

encoder.lstm.weight_ih_l0 f4 [4, 2]
00000000: fce2 3ebf f02f 8ebe 1221 69bf 06dd 5a3f
00000010: 08a9 fbbe e8a7 ca3e f0dc 6abe 0abe 2fbf
-0.745651 -0.27770948 -0.91066086 0.85493505 -0.49152398 0.39581227 -0.22935843 -0.6864935

encoder.lstm.weight_hh_l0 f4 [4, 1]
00000000: d876 56be a8a6 26bf de2c 1e3f 4ad3 7bbf
-0.20943773 -0.6509805 0.6178721 -0.98369277

encoder.lstm.bias_ih_l0 f4 [4]
00000000: 10ea 86bd 8453 d53e d8ea 35bf c03a c1bd
-0.06587613 0.4166528 -0.7106147 -0.09435034

encoder.lstm.bias_hh_l0 f4 [4]
00000000: 80f0 0d3f 5cdd 6e3f 2405 0cbf f05a 1a3e
0.554451 0.9330652 -0.54695344 0.15073752

encoder.lstm.weight_ih_l1 f4 [4, 1]
00000000: ecc3 dd3e 8840 c53e 8096 893e 6048 c93d
0.4331354 0.38525796 0.26872635 0.098282576

encoder.lstm.weight_hh_l1 f4 [4, 1]
00000000: 10e4 c23d 04e2 fb3e 4083 c03c f81e 11bf
0.09516156 0.49195874 0.023500085 -0.5668788

encoder.lstm.bias_ih_l1 f4 [4]
00000000: 84a4 a3be 20b3 7b3d c09e 4fbe e87d 0f3e
-0.31961453 0.061450124 -0.20275402 0.14012873

encoder.lstm.bias_hh_l1 f4 [4]
00000000: e079 4bbf e097 23bf b0ee 1b3f e038 99bd
-0.7948284 -0.6390362 0.60911083 -0.07481551

encoder.lstm.weight_ih_l2 f4 [4, 1]
00000000: 74ee 053f a4f2 9fbe c805 c8be 5a83 4a3f
0.52316976 -0.31239808 -0.3906691 0.79106677

encoder.lstm.weight_hh_l2 f4 [4, 1]
00000000: a42d 5ebf 1212 173f 9429 3cbf a03b b0be
-0.8678839 0.5901195 -0.73500943 -0.3442049

encoder.lstm.bias_ih_l2 f4 [4]
00000000: 1834 bf3e 805f 5d3f 8d79 073d d034 d63d
0.37344432 0.86473846 0.033074904 0.10459292

encoder.lstm.bias_hh_l2 f4 [4]
00000000: 9209 5dbf 501b eb3e 20f2 00bf 205e dabe
-0.8634273 0.45919275 -0.50369453 -0.42649937

encoder.lstm.weight_ih_l3 f4 [4, 1]
00000000: 32cd 20bf 38da c9be 900c 70bf 17b2 51bd
-0.62813103 -0.394243 -0.9376917 -0.05119523

encoder.lstm.weight_hh_l3 f4 [4, 1]
00000000: 2c38 603f 08dd 27bf 2039 12bf 1032 8b3d
0.8758571 -0.6557164 -0.57118416 0.06796658

encoder.lstm.bias_ih_l3 f4 [4]
00000000: 0e6a 363f 503a 013e 1c21 bebe 5c59 bebe
0.71255577 0.126199 -0.37134635 -0.3717755

encoder.lstm.bias_hh_l3 f4 [4]
00000000: ac38 333f 2093 b03d 8c49 663f c0eb dbbe
0.7000835 0.08621812 0.89955974 -0.429533

decoder.lstm.weight_ih_l0 f4 [8, 1]
00000000: 5de5 15bf e894 45bd 010c 28bf 30ca 843d
00000010: 4f91 243f 518c f6be 0fbd 763d c23a 823e
-0.58553106 -0.04823771 -0.65643317 0.06483877 0.64284223 -0.48153928 0.060238894 0.25435454

decoder.lstm.weight_hh_l0 f4 [8, 2]
00000000: 205c 573e 6f53 253f ed77 a5be c047 29be
00000010: c43c b23c ac5e 003e 6e00 fe3e 46ce f3be
00000020: 5442 813e 7d47 773e 8019 4abe e248 f23e
00000030: 6108 9bbe aa5e 23bf d650 f63e 909f 5b3e
0.21031237 0.64580435 -0.3231806 -0.16531277 0.021757491 0.12536114 0.49609703 -0.47618312
0.25245917 0.24148364 -0.1973629 0.4732123 -0.3027983 -0.6381632 0.48108548 0.21447587

decoder.lstm.bias_ih_l0 f4 [8]
00000000: c240 3f3e 8c0d 34be 4e6b 2abf 0dec 133f
00000010: fa79 f1be 1258 c5be c7b7 063f 2ecd 47be
0.18677047 -0.17583293 -0.66569984 0.5778206 -0.47163373 -0.38543755 0.5262417 -0.19511864

decoder.lstm.bias_hh_l0 f4 [8]
00000000: 5c1b 26bf 56a6 2abf a75a b93e 4c92 6dbe
00000010: b0c3 1dbe 80c7 06bf ae42 df3e 0aef a23e
-0.648855 -0.6666006 0.36201975 -0.23200339 -0.1540668 -0.5264816 0.4360556 0.31822997

decoder.lstm.weight_ih_l1 f4 [8, 2]
00000000: bbf2 443b 9661 643e ffc5 2c3f b8a2 cc3e
00000010: 13a2 0abf 662f da3e ce5e 6abe a953 043f
00000020: 0c51 093f d98f 8bbe 0d22 2b3f 34e6 fb3e
00000030: a091 a4be faee 30bf 0c02 0dbd e548 58bd
0.0030051905 0.22302851 0.6748962 0.39967895 -0.54153556 0.42614287 -0.22887728 0.51690155
0.5363929 -0.27258185 0.6684883 0.4919907 -0.32142353 -0.6911465 -0.03442578 -0.052803893

decoder.lstm.weight_hh_l1 f4 [8, 2]
00000000: 9ee6 febe bfd8 3e3e 7c16 8b3e 45dc 6ebd
00000010: 3511 34bf 0f84 2b3f 4869 ddbe 455b 96be
00000020: f5b2 8abd 0644 32bf 471f 1b3f 3af1 04bf
00000030: 7293 f23e 9228 84be 3945 293f 359d 47be
-0.49785322 0.1863737 0.27165592 -0.058315534 -0.70338756 0.6699838 -0.43244386 -0.29366508
-0.067724146 -0.69635046 0.605946 -0.5193058 0.47378117 -0.25812203 0.6612125 -0.19493563

decoder.lstm.bias_ih_l1 f4 [8]
00000000: 369f 003f c6c0 f1be 220f c3be 287c d8be
00000010: 6a4e 57be 02be 20bd 588b 09bf 6431 88bd
0.50242937 -0.47217387 -0.38097483 -0.42282224 -0.21026006 -0.039243706 -0.53728247 -0.066500455

decoder.lstm.bias_hh_l1 f4 [8]
00000000: 67d9 d8be 22c4 e83e 1db9 34be 1631 07bf
00000010: f59f d3be 795e d6be c56e a23e 3416 973d
-0.42353365 0.45462137 -0.1764874 -0.52809274 -0.41332975 -0.41868952 0.31725135 0.07377282

decoder.lstm.weight_ih_l2 f4 [8, 2]
00000000: 5f3c 15bf f5a2 d43d b202 cb3e 1e39 fa3d
00000010: 56c9 263e 8fdf 173f 0b77 093d 767b 32bd
00000020: 84c7 c1bd 0a00 fcbe e86b 9e3d 231e f33e
00000030: acf0 c3bd 7b1f 74be fafc 0c3f 770e fabe
-0.58295244 0.10382644 0.39650494 0.122179255 0.16287741 0.593255 0.033560794 -0.043574773
-0.09461883 -0.4921878 0.07735425 0.4748393 -0.09567389 -0.23840134 0.5507351 -0.4883916

decoder.lstm.weight_hh_l2 f4 [8, 2]
00000000: 6429 1ebf 7d4e c7be bd6e 893e 0045 2fbb
00000010: 69ae d03d 0de1 98be 48e0 b8bd 5d31 693c
00000020: 9bb5 ad3e 653b 1ebf 8158 88be ae04 803d
00000030: abd4 38be db53 a73b 8dd1 8cbe 423f fbbe
-0.6178191 -0.3892707 0.268423 -0.0026744008 0.10189516 -0.298592 -0.09027153 0.0142329605
0.33927616 -0.6180938 -0.26630023 0.062508926 -0.18049876 0.005106432 -0.27503625 -0.490717

decoder.lstm.bias_ih_l2 f4 [8]
00000000: c4e5 8bbe aac0 e83e 17a6 bebe 471c 0a3f
00000010: d36b b73e 75b0 213e e4f4 25bf 47eb 1ebf
-0.27323735 0.4545949 -0.37236091 0.539494 0.3582445 0.1578997 -0.648268 -0.62077755

decoder.lstm.bias_hh_l2 f4 [8]
00000000: 0a78 81bd d8b3 2dbe f301 b53d ee22 dcbe
00000010: 60ea e1bd 78c4 86bd 9ad8 053f 2d44 d53e
-0.06321724 -0.16963136 0.088382624 -0.429954 -0.110310316 -0.06580442 0.5228363 0.41653576

decoder.lstm.weight_ih_l3 f4 [8, 2]
00000000: 0f3b e3be 0f1a f5be f022 8f3d 8c9a 16bf
00000010: b1f5 b9be 8df6 b53e 40c0 04bf f294 bdbd
00000020: ac99 0e3f 892f c53e cd30 813e 99bf 22be
00000030: 59a0 0abf 7d61 49be d6e7 f63e 3a77 8e3e
-0.44380996 -0.47871444 0.06989086 -0.5882957 -0.3632026 0.35539666 -0.5185585 -0.09256925
0.55703235 0.3851283 0.25232545 -0.15893401 -0.5415092 -0.19666095 0.48223752 0.27825338

decoder.lstm.weight_hh_l3 f4 [8, 2]
00000000: 72f4 283f 32be a33e 0b11 26bf 55e7 2a3f
00000010: 5f55 4cbd 6da0 06bf 18e2 0dbe c88e 643e
00000020: 6fd4 dbbe a556 2ebf 5a16 c73b 0516 16bf
00000030: 8818 023f 4e5a 1d3e 1c89 023f ac9d b03e
0.65997994 0.31981045 -0.64869756 0.66759235 -0.049886104 -0.5258854 -0.13855779 0.22320092
-0.4293551 -0.6810096 0.0060756626 -0.5862735 0.5081868 0.1536648 0.5099046 0.34495294

decoder.lstm.bias_ih_l3 f4 [8]
00000000: 0389 a93e 664c f3be 2a2f b23d b6ff 25bf
00000010: 2f02 8d3c ebd1 babd 5b5d 38be a0f9 b13d
0.33112344 -0.47519225 0.08700402 -0.6484331 0.017212955 -0.0912207 -0.18004362 0.0869019

decoder.lstm.bias_hh_l3 f4 [8]
00000000: 323e 773e 4a8a 77be 0c5c 113f 0f59 383e
00000010: 58d2 10be 3cf5 04bf f9c8 403e 03f7 0e3e
0.2414482 -0.24173847 0.5678108 0.18002723 -0.1414274 -0.519367 0.18826665 0.13961415

decoder.fc.weight f4 [2, 2]
00000000: 6eeb b8be 90b5 34bb 1584 f8be 6f1c b93d
-0.3611712 -0.002757404 -0.4853827 0.090386264

decoder.fc.bias f4 [2]
00000000: 321f 0bbf 2f8a d4bd
-0.54344475 -0.10377919
