py/model/autoencoder/res/24-09-2021_154216/epoch_70.model (torch, 6223 bytes, 34 tensors)

encoder.lstm.weight_ih_l0 f4 [4, 2]
-0.745651 -0.27770948 -0.91066086 0.85493505 -0.49152398 0.39581227 -0.22935843 -0.6864935
00000000: fce2 3ebf f02f 8ebe 1221 69bf 06dd 5a3f
00000010: 08a9 fbbe e8a7 ca3e f0dc 6abe 0abe 2fbf

encoder.lstm.weight_hh_l0 f4 [4, 1]
-0.20943773 -0.6509805 0.6178721 -0.98369277
00000000: d876 56be a8a6 26bf de2c 1e3f 4ad3 7bbf

encoder.lstm.bias_ih_l0 f4 [4]
-0.06587613 0.4166528 -0.7106147 -0.09435034
00000000: 10ea 86bd 8453 d53e d8ea 35bf c03a c1bd

encoder.lstm.bias_hh_l0 f4 [4]
0.554451 0.9330652 -0.54695344 0.15073752
00000000: 80f0 0d3f 5cdd 6e3f 2405 0cbf f05a 1a3e

encoder.lstm.weight_ih_l1 f4 [4, 1]
0.4331354 0.38525796 0.26872635 0.098282576
00000000: ecc3 dd3e 8840 c53e 8096 893e 6048 c93d

encoder.lstm.weight_hh_l1 f4 [4, 1]
0.09516156 0.49195874 0.023500085 -0.5668788
00000000: 10e4 c23d 04e2 fb3e 4083 c03c f81e 11bf

encoder.lstm.bias_ih_l1 f4 [4]
-0.31961453 0.061450124 -0.20275402 0.14012873
00000000: 84a4 a3be 20b3 7b3d c09e 4fbe e87d 0f3e

encoder.lstm.bias_hh_l1 f4 [4]
-0.7948284 -0.6390362 0.60911083 -0.07481551
00000000: e079 4bbf e097 23bf b0ee 1b3f e038 99bd

encoder.lstm.weight_ih_l2 f4 [4, 1]
0.52316976 -0.31239808 -0.3906691 0.79106677
00000000: 74ee 053f a4f2 9fbe c805 c8be 5a83 4a3f

encoder.lstm.weight_hh_l2 f4 [4, 1]
-0.8678839 0.5901195 -0.73500943 -0.3442049
00000000: a42d 5ebf 1212 173f 9429 3cbf a03b b0be

encoder.lstm.bias_ih_l2 f4 [4]
0.37344432 0.86473846 0.0329879 0.10459292
00000000: 1834 bf3e 805f 5d3f 521e 073d d034 d63d

encoder.lstm.bias_hh_l2 f4 [4]
-0.8634273 0.45919275 -0.50369453 -0.42649937
00000000: 9209 5dbf 501b eb3e 20f2 00bf 205e dabe

encoder.lstm.weight_ih_l3 f4 [4, 1]
-0.62813103 -0.394243 -0.9376917 -0.05119523
00000000: 32cd 20bf 38da c9be 900c 70bf 17b2 51bd

encoder.lstm.weight_hh_l3 f4 [4, 1]
0.8758571 -0.6557164 -0.57118416 0.06796658
00000000: 2c38 603f 08dd 27bf 2039 12bf 1032 8b3d

encoder.lstm.bias_ih_l3 f4 [4]
0.71255577 0.126199 -0.37134635 -0.3717755
00000000: 0e6a 363f 503a 013e 1c21 bebe 5c59 bebe

encoder.lstm.bias_hh_l3 f4 [4]
0.7000835 0.08621812 0.89955974 -0.429533
00000000: ac38 333f 2093 b03d 8c49 663f c0eb dbbe

decoder.lstm.weight_ih_l0 f4 [8, 1]
-0.58553106 -0.04823747 -0.65643317 0.06483877 0.64284223 -0.48153928 0.060238894 0.25435454
00000000: 5de5 15bf a794 45bd 010c 28bf 30ca 843d
00000010: 4f91 243f 518c f6be 0fbd 763d c23a 823e

decoder.lstm.weight_hh_l0 f4 [8, 2]
0.21031237 0.64580435 -0.3231806 -0.16531277 0.021807687 0.12536114 0.49609703 -0.47618312
0.25245917 0.24144056 -0.1973629 0.4732123 -0.3027983 -0.6381632 0.48108548 0.21447587
00000000: 205c 573e 6f53 253f ed77 a5be c047 29be
00000010: 09a6 b23c ac5e 003e 6e00 fe3e 46ce f3be
00000020: 5442 813e 323c 773e 8019 4abe e248 f23e
00000030: 6108 9bbe aa5e 23bf d650 f63e 909f 5b3e

decoder.lstm.bias_ih_l0 f4 [8]
0.18655603 -0.17582646 -0.66569984 0.5778206 -0.47116286 -0.38543755 0.5262417 -0.19511779
00000000: 8b08 3f3e da0b 34be 4e6b 2abf 0dec 133f
00000010: 423c f1be 1258 c5be c7b7 063f f5cc 47be

decoder.lstm.bias_hh_l0 f4 [8]
-0.648855 -0.6666006 0.36201975 -0.23200339 -0.154035 -0.5264816 0.4360556 0.31822997
00000000: 5c1b 26bf 56a6 2abf a75a b93e 4c92 6dbe
00000010: 5abb 1dbe 80c7 06bf ae42 df3e 0aef a23e

decoder.lstm.weight_ih_l1 f4 [8, 2]
0.0030065125 0.22332188 0.6748962 0.39967304 -0.54153556 0.42614287 -0.22887728 0.51690155
0.53604513 -0.27231485 0.6684883 0.49273115 -0.32142353 -0.6911465 -0.03443434 -0.05281758
00000000: e908 453b 7eae 643e ffc5 2c3f f2a1 cc3e
00000010: 13a2 0abf 662f da3e ce5e 6abe a953 043f
00000020: 413a 093f da6c 8bbe 0d22 2b3f 4247 fc3e
00000030: a091 a4be faee 30bf 060b 0dbd 3f57 58bd

decoder.lstm.weight_hh_l1 f4 [8, 2]
-0.49785322 0.18650183 0.27165592 -0.05832612 -0.70338756 0.6699838 -0.43244386 -0.29366508
-0.06773501 -0.6963933 0.605946 -0.5193058 0.47378117 -0.25812203 0.6612125 -0.19501342
00000000: 9ee6 febe 56fa 3e3e 7c16 8b3e 5fe7 6ebd
00000010: 3511 34bf 0f84 2b3f 4869 ddbe 455b 96be
00000020: a7b8 8abd d546 32bf 471f 1b3f 3af1 04bf
00000030: 7293 f23e 9228 84be 3945 293f 99b1 47be

decoder.lstm.bias_ih_l1 f4 [8]
0.50099605 -0.47233507 -0.38094047 -0.42207566 -0.21022324 -0.03928775 -0.5381233 -0.06647263
00000000: 4741 003f e7d5 f1be a10a c3be 4d1a d8be
00000010: c344 57be 31ec 20bd 73c2 09bf cd22 88bd

decoder.lstm.bias_hh_l1 f4 [8]
-0.42333603 0.45446017 -0.17654356 -0.52809274 -0.4132806 -0.41873735 0.31715578 0.073800646
00000000: 80bf d8be 01af e83e d6c7 34be 1631 07bf
00000010: 8499 d3be be64 d6be 3e62 a23e cb24 973d

decoder.lstm.weight_ih_l2 f4 [8, 2]
-0.5830243 0.103861935 0.39650467 0.122232616 0.1629125 0.59299153 0.033551905 -0.04358526
-0.094528995 -0.49209732 0.07749616 0.47499153 -0.095650874 -0.23835103 0.5507351 -0.48845026
00000000: 1541 15bf 91b5 d43d a902 cb3e 1855 fa3d
00000010: 89d2 263e 4bce 173f b96d 093d 7586 32bd
00000020: 6b98 c1bd 2ef4 fbbe 4fb6 9e3d 1732 f33e
00000030: 9be4 c3bd 4b12 74be fafc 0c3f 2716 fabe

decoder.lstm.weight_hh_l2 f4 [8, 2]
-0.61778 -0.388974 0.268423 -0.0026747447 0.1018656 -0.29859197 -0.090267256 0.014240157
0.3391516 -0.6175581 -0.26646098 0.06254396 -0.18054546 0.0051140925 -0.27503625 -0.490717
00000000: d526 1ebf 9a27 c7be bd6e 893e c54a 2fbb
00000010: e99e d03d 0ce1 98be 0ade b8bd 8c4f 693c
00000020: 47a5 ad3e 4a18 1ebf 936d 88be 0c17 803d
00000030: e9e0 38be 1e94 a73b 8dd1 8cbe 423f fbbe

decoder.lstm.bias_ih_l2 f4 [8]
-0.2733955 0.45469892 -0.37256208 0.5395569 0.35781324 0.15717252 -0.6483331 -0.62114793
00000000: 7ffa 8bbe 4cce e83e 75c0 bebe 6720 0a3f
00000010: 4c33 b73e d5f1 203e 28f9 25bf 8d03 1fbf

decoder.lstm.bias_hh_l2 f4 [8]
-0.063376226 -0.16958399 0.088179834 -0.4298763 -0.11071989 -0.06652146 0.52277124 0.41656736
00000000: 65cb 81bd 6da7 2dbe a197 b43d bf18 dcbe
00000010: 1cc1 e2bd 673c 88bd 56d4 053f 5148 d53e

decoder.lstm.weight_ih_l3 f4 [8, 2]
-0.44444394 -0.47871444 0.06982504 -0.5882894 -0.36351383 0.35539666 -0.51843 -0.09259003
0.55642384 0.38536173 0.25250062 -0.15895009 -0.54172546 -0.19666095 0.48222914 0.27845407
00000000: 288e e3be 0f1a f5be 6e00 8f3d 229a 16bf
00000010: 7c1e babe 8df6 b53e d4b7 04bf d79f bdbd
00000020: cb71 0e3f 224e c53e c347 813e d0c3 22be
00000030: 85ae 0abf 7d61 49be bde6 f63e 8891 8e3e

decoder.lstm.weight_hh_l3 f4 [8, 2]
0.65997994 0.3205359 -0.64869756 0.66768426 -0.049920272 -0.5253147 -0.13870873 0.22326863
-0.42973414 -0.6801377 0.0061443923 -0.58647287 0.5081868 0.15366547 0.5099046 0.34495565
00000000: 72f4 283f 481d a43e 0b11 26bf 5bed 2a3f
00000010: 3379 4cbd 067b 06bf a909 0ebe 88a0 643e
00000020: 1d06 dcbe 811d 2ebf e656 c93b 1623 16bf
00000030: 8818 023f 7b5a 1d3e 1c89 023f 079e b03e

decoder.lstm.bias_ih_l3 f4 [8]
0.33095866 -0.47550905 0.08672575 -0.64876324 0.014349917 -0.09028983 -0.18026069 0.08670237
00000000: 6a73 a93e ec75 f3be 459d b13d 5915 26bf
00000010: ea1b 6b3c e0e9 b8bd 4296 38be 0391 b13d

decoder.lstm.bias_hh_l3 f4 [8]
0.24129261 -0.24204934 0.56750685 0.17968304 -0.14430174 -0.5183816 0.18804958 0.13941388
00000000: 6915 773e c8db 77be 2148 113f d5fe 373e
00000010: d6c3 13be a8b4 04bf 1290 403e 83c2 0e3e

decoder.fc.weight f4 [2, 2]
-0.36209255 -0.0022133144 -0.48347652 0.08988971
00000000: 3264 b9be 410d 11bb 3c8a f7be 1918 b83d

decoder.fc.bias f4 [2]
-0.5447646 -0.10578582
00000000: b175 0bbf 3ca6 d8bd
