py/model/autoencoder/res/24-09-2021_154216/epoch_69.model (torch, 6223 bytes, 34 tensors)

encoder.lstm.weight_ih_l0 f4 [4, 2]
00000000: fce2 3ebf f02f 8ebe 1221 69bf 06dd 5a3f
00000010: 08a9 fbbe e8a7 ca3e f0dc 6abe 0abe 2fbf
-0.745651 -0.27770948 -0.91066086 0.85493505 -0.49152398 0.39581227 -0.22935843 -0.6864935

encoder.lstm.weight_hh_l0 f4 [4, 1]
00000000: d876 56be a8a6 26bf de2c 1e3f 4ad3 7bbf
-0.20943773 -0.6509805 0.6178721 -0.98369277

encoder.lstm.bias_ih_l0 f4 [4]
00000000: 10ea 86bd 8453 d53e d8ea 35bf c03a c1bd
-0.06587613 0.4166528 -0.7106147 -0.09435034

encoder.lstm.bias_hh_l0 f4 [4]
00000000: 80f0 0d3f 5cdd 6e3f 2405 0cbf f05a 1a3e
0.554451 0.9330652 -0.54695344 0.15073752

encoder.lstm.weight_ih_l1 f4 [4, 1]
00000000: ecc3 dd3e 8840 c53e 8096 893e 6048 c93d
0.4331354 0.38525796 0.26872635 0.098282576

encoder.lstm.weight_hh_l1 f4 [4, 1]
00000000: 10e4 c23d 04e2 fb3e 4083 c03c f81e 11bf
0.09516156 0.49195874 0.023500085 -0.5668788

encoder.lstm.bias_ih_l1 f4 [4]
00000000: 84a4 a3be 20b3 7b3d c09e 4fbe e87d 0f3e
-0.31961453 0.061450124 -0.20275402 0.14012873

encoder.lstm.bias_hh_l1 f4 [4]
00000000: e079 4bbf e097 23bf b0ee 1b3f e038 99bd
-0.7948284 -0.6390362 0.60911083 -0.07481551

encoder.lstm.weight_ih_l2 f4 [4, 1]
00000000: 74ee 053f a4f2 9fbe c805 c8be 5a83 4a3f
0.52316976 -0.31239808 -0.3906691 0.79106677

encoder.lstm.weight_hh_l2 f4 [4, 1]
00000000: a42d 5ebf 1212 173f 9429 3cbf a03b b0be
-0.8678839 0.5901195 -0.73500943 -0.3442049

encoder.lstm.bias_ih_l2 f4 [4]
00000000: 1834 bf3e 805f 5d3f 3823 073d d034 d63d
0.37344432 0.86473846 0.03299257 0.10459292

encoder.lstm.bias_hh_l2 f4 [4]
00000000: 9209 5dbf 501b eb3e 20f2 00bf 205e dabe
-0.8634273 0.45919275 -0.50369453 -0.42649937

encoder.lstm.weight_ih_l3 f4 [4, 1]
00000000: 32cd 20bf 38da c9be 900c 70bf 17b2 51bd
-0.62813103 -0.394243 -0.9376917 -0.05119523

encoder.lstm.weight_hh_l3 f4 [4, 1]
00000000: 2c38 603f 08dd 27bf 2039 12bf 1032 8b3d
0.8758571 -0.6557164 -0.57118416 0.06796658

encoder.lstm.bias_ih_l3 f4 [4]
00000000: 0e6a 363f 503a 013e 1c21 bebe 5c59 bebe
0.71255577 0.126199 -0.37134635 -0.3717755

encoder.lstm.bias_hh_l3 f4 [4]
00000000: ac38 333f 2093 b03d 8c49 663f c0eb dbbe
0.7000835 0.08621812 0.89955974 -0.429533

decoder.lstm.weight_ih_l0 f4 [8, 1]
00000000: 5de5 15bf ac94 45bd 010c 28bf 30ca 843d
00000010: 4f91 243f 518c f6be 0fbd 763d c23a 823e
-0.58553106 -0.048237488 -0.65643317 0.06483877 0.64284223 -0.48153928 0.060238894 0.25435454

decoder.lstm.weight_hh_l0 f4 [8, 2]
00000000: 205c 573e 6f53 253f ed77 a5be c047 29be
00000010: 58a0 b23c ac5e 003e 6e00 fe3e 46ce f3be
00000020: 5442 813e d43c 773e 8019 4abe e248 f23e
00000030: 6108 9bbe aa5e 23bf d650 f63e 909f 5b3e
0.21031237 0.64580435 -0.3231806 -0.16531277 0.021804973 0.12536114 0.49609703 -0.47618312
0.25245917 0.24144298 -0.1973629 0.4732123 -0.3027983 -0.6381632 0.48108548 0.21447587

decoder.lstm.bias_ih_l0 f4 [8]
00000000: 6d0b 3f3e f20b 34be 4e6b 2abf 0dec 133f
00000010: 6d3f f1be 1258 c5be c7b7 063f f8cc 47be
0.18656702 -0.17582682 -0.66569984 0.5778206 -0.47118703 -0.38543755 0.5262417 -0.19511783

decoder.lstm.bias_hh_l0 f4 [8]
00000000: 5c1b 26bf 56a6 2abf a75a b93e 4c92 6dbe
00000010: d7bb 1dbe 80c7 06bf ae42 df3e 0aef a23e
-0.648855 -0.6666006 0.36201975 -0.23200339 -0.15403686 -0.5264816 0.4360556 0.31822997

decoder.lstm.weight_ih_l1 f4 [8, 2]
00000000: dc07 453b 82aa 643e ffc5 2c3f fca1 cc3e
00000010: 13a2 0abf 662f da3e ce5e 6abe a953 043f
00000020: 7c3b 093f b26e 8bbe 0d22 2b3f 1c42 fc3e
00000030: a091 a4be faee 30bf 950a 0dbd 8756 58bd
0.00300645 0.22330669 0.6748962 0.39967334 -0.54153556 0.42614287 -0.22887728 0.51690155
0.5360639 -0.2723289 0.6684883 0.49269187 -0.32142353 -0.6911465 -0.03443392 -0.052816894

decoder.lstm.weight_hh_l1 f4 [8, 2]
00000000: 9ee6 febe 7cf8 3e3e 7c16 8b3e cae6 6ebd
00000010: 3511 34bf 0f84 2b3f 4869 ddbe 455b 96be
00000020: 61b8 8abd ad46 32bf 471f 1b3f 3af1 04bf
00000030: 7293 f23e 9228 84be 3945 293f 94b0 47be
-0.49785322 0.18649477 0.27165592 -0.058325566 -0.70338756 0.6699838 -0.43244386 -0.29366508
-0.06773449 -0.6963909 0.605946 -0.5193058 0.47378117 -0.25812203 0.6612125 -0.19500953

decoder.lstm.bias_ih_l1 f4 [8]
00000000: 2646 003f cad4 f1be ed0a c3be 761f d8be
00000010: 3d45 57be d9e9 20bd 9ebf 09bf 8a23 88bd
0.5010704 -0.47232658 -0.38094273 -0.42211503 -0.21022506 -0.039285515 -0.5380801 -0.066474035

decoder.lstm.bias_hh_l1 f4 [8]
00000000: d4c0 d8be 1eb0 e83e 19c7 34be 1631 07bf
00000010: e099 d3be 7064 d6be fe62 a23e 0e24 973d
-0.42334616 0.45446867 -0.17654075 -0.52809274 -0.41328335 -0.41873503 0.3171615 0.07379924

decoder.lstm.weight_ih_l2 f4 [8, 2]
00000000: d140 15bf aab4 d43d aa02 cb3e 8e53 fa3d
00000010: 19d2 263e 2ccf 173f 1e6e 093d e985 32bd
00000020: 149b c1bd ccf4 fbbe 98b2 9e3d 0f31 f33e
00000030: 68e5 c3bd f312 74be fafc 0c3f 9d15 fabe
-0.58302027 0.103860214 0.3965047 0.12222968 0.16291083 0.59300494 0.03355228 -0.043584738
-0.09453407 -0.49210203 0.07748908 0.47498366 -0.0956524 -0.23835354 0.5507351 -0.48844615

decoder.lstm.weight_hh_l2 f4 [8, 2]
00000000: f526 1ebf ed29 c7be bd6e 893e 754a 2fbb
00000010: a99f d03d 0de1 98be f6dd b8bd 134e 693c
00000020: 0da6 ad3e ea19 1ebf 756c 88be 3116 803d
00000030: 3ce0 38be ef90 a73b 8dd1 8cbe 423f fbbe
-0.61778194 -0.38899174 0.268423 -0.002674726 0.10186703 -0.298592 -0.09026711 0.014239806
0.3391575 -0.6175829 -0.26645246 0.06254233 -0.18054289 0.005113713 -0.27503625 -0.490717

decoder.lstm.bias_ih_l2 f4 [8]
00000000: 6ff9 8bbe 82cd e83e 27bf bebe 6720 0a3f
00000010: 3336 b73e 85fb 203e f5f8 25bf 2102 1fbf
-0.2733874 0.4546929 -0.37255213 0.5395569 0.35783538 0.15720947 -0.64833003 -0.62112623

decoder.lstm.bias_hh_l2 f4 [8]
00000000: 18c7 81bd 19a8 2dbe fa9c b43d 5819 dcbe
00000010: c0b6 e2bd e929 88bd 89d4 053f 2a48 d53e
-0.06336802 -0.16958655 0.088190034 -0.42988086 -0.11070013 -0.06648619 0.5227743 0.4165662

decoder.lstm.weight_ih_l3 f4 [8, 2]
00000000: f08a e3be 0f1a f5be 1402 8f3d 289a 16bf
00000010: a71a babe 8df6 b53e 44b8 04bf 619f bdbd
00000020: d473 0e3f 9b4c c53e ae46 813e 71c3 22be
00000030: 59ae 0abf 7d61 49be c6e6 f63e ff8f 8e3e
-0.44441938 -0.47871444 0.06982818 -0.58828974 -0.3634846 0.35539666 -0.5184367 -0.09258915
0.5564549 0.38535008 0.25249237 -0.15894867 -0.54172283 -0.19666095 0.4822294 0.27844235

decoder.lstm.weight_hh_l3 f4 [8, 2]
00000000: 72f4 283f 7219 a43e 0b11 26bf 10ed 2a3f
00000010: 8a75 4cbd c17b 06bf c008 0ebe 9d9f 643e
00000020: ed03 dcbe 5820 2ebf a73a c93b 6a22 16bf
00000030: 8818 023f 265b 1d3e 1c89 023f 0c9e b03e
0.65997994 0.32050663 -0.64869756 0.6676798 -0.04991678 -0.52532583 -0.13870525 0.22326513
-0.42971745 -0.680181 0.006141025 -0.5864626 0.5081868 0.15366802 0.5099046 0.3449558

decoder.lstm.bias_ih_l3 f4 [8]
00000000: 6974 a93e e373 f3be 67a4 b13d 3f14 26bf
00000010: f36f 6d3c 1a02 b9bd 8e93 38be 5c96 b13d
0.33096626 -0.47549352 0.086739354 -0.64874643 0.014492023 -0.09033604 -0.18025038 0.08671257

decoder.lstm.bias_hh_l3 f4 [8]
00000000: 5c17 773e a5d7 77be 3849 113f 3803 383e
00000010: 909e 13be dab7 04bf c692 403e 17c5 0e3e
0.24130005 -0.24203356 0.5675235 0.17969978 -0.14415956 -0.51843035 0.1880599 0.13942371

decoder.fc.weight f4 [2, 2]
00000000: bd5d b9be abec 12bb c996 f7be af25 b83d
-0.3620433 -0.0022418897 -0.48357227 0.089915626

decoder.fc.bias f4 [2]
00000000: 6371 0bbf 5072 d8bd
-0.5446989 -0.105686784
