py/model/autoencoder/res/24-09-2021_154216/epoch_36.model (torch, 6223 bytes, 34 tensors)

encoder.lstm.weight_ih_l0 f4 [4, 2]
000000 fc e2 3e bf f0 2f 8e be 12 21 69 bf 06 dd 5a 3f
       -0.745651 -0.27770948 -0.91066086 0.85493505
000010 08 a9 fb be e8 a7 ca 3e f0 dc 6a be 0a be 2f bf
       -0.49152398 0.39581227 -0.22935843 -0.6864935

encoder.lstm.weight_hh_l0 f4 [4, 1]
000000 d8 76 56 be a8 a6 26 bf de 2c 1e 3f 4a d3 7b bf
       -0.20943773 -0.6509805 0.6178721 -0.98369277

encoder.lstm.bias_ih_l0 f4 [4]
000000 10 ea 86 bd 84 53 d5 3e d8 ea 35 bf c0 3a c1 bd
       -0.06587613 0.4166528 -0.7106147 -0.09435034

encoder.lstm.bias_hh_l0 f4 [4]
000000 80 f0 0d 3f 5c dd 6e 3f 24 05 0c bf f0 5a 1a 3e
       0.554451 0.9330652 -0.54695344 0.15073752

encoder.lstm.weight_ih_l1 f4 [4, 1]
000000 ec c3 dd 3e 88 40 c5 3e 80 96 89 3e 60 48 c9 3d
       0.4331354 0.38525796 0.26872635 0.098282576

encoder.lstm.weight_hh_l1 f4 [4, 1]
000000 10 e4 c2 3d 04 e2 fb 3e 40 83 c0 3c f8 1e 11 bf
       0.09516156 0.49195874 0.023500085 -0.5668788

encoder.lstm.bias_ih_l1 f4 [4]
000000 84 a4 a3 be 20 b3 7b 3d c0 9e 4f be e8 7d 0f 3e
       -0.31961453 0.061450124 -0.20275402 0.14012873

encoder.lstm.bias_hh_l1 f4 [4]
000000 e0 79 4b bf e0 97 23 bf b0 ee 1b 3f e0 38 99 bd
       -0.7948284 -0.6390362 0.60911083 -0.07481551

encoder.lstm.weight_ih_l2 f4 [4, 1]
000000 74 ee 05 3f a4 f2 9f be c8 05 c8 be 5a 83 4a 3f
       0.52316976 -0.31239808 -0.3906691 0.79106677

encoder.lstm.weight_hh_l2 f4 [4, 1]
000000 a4 2d 5e bf 12 12 17 3f 94 29 3c bf a0 3b b0 be
       -0.8678839 0.5901195 -0.73500943 -0.3442049

encoder.lstm.bias_ih_l2 f4 [4]
000000 18 34 bf 3e 80 5f 5d 3f 46 c0 07 3d d0 34 d6 3d
       0.37344432 0.86473846 0.03314235 0.10459292

encoder.lstm.bias_hh_l2 f4 [4]
000000 92 09 5d bf 50 1b eb 3e 20 f2 00 bf 20 5e da be
       -0.8634273 0.45919275 -0.50369453 -0.42649937

encoder.lstm.weight_ih_l3 f4 [4, 1]
000000 32 cd 20 bf 38 da c9 be 90 0c 70 bf 17 b2 51 bd
       -0.62813103 -0.394243 -0.9376917 -0.05119523

encoder.lstm.weight_hh_l3 f4 [4, 1]
000000 2c 38 60 3f 08 dd 27 bf 20 39 12 bf 10 32 8b 3d
       0.8758571 -0.6557164 -0.57118416 0.06796658

encoder.lstm.bias_ih_l3 f4 [4]
000000 0e 6a 36 3f 50 3a 01 3e 1c 21 be be 5c 59 be be
       0.71255577 0.126199 -0.37134635 -0.3717755

encoder.lstm.bias_hh_l3 f4 [4]
000000 ac 38 33 3f 20 93 b0 3d 8c 49 66 3f c0 eb db be
       0.7000835 0.08621812 0.89955974 -0.429533

decoder.lstm.weight_ih_l0 f4 [8, 1]
000000 5d e5 15 bf 15 95 45 bd 01 0c 28 bf 30 ca 84 3d
       -0.58553106 -0.04823788 -0.65643317 0.06483877
000010 4f 91 24 3f 51 8c f6 be 0f bd 76 3d c2 3a 82 3e
       0.64284223 -0.48153928 0.060238894 0.25435454

decoder.lstm.weight_hh_l0 f4 [8, 2]
000000 20 5c 57 3e 6f 53 25 3f ed 77 a5 be c0 47 29 be
       0.21031237 0.64580435 -0.3231806 -0.16531277
000010 ab e8 b1 3c ac 5e 00 3e 6e 00 fe 3e 46 ce f3 be
       0.02171739 0.12536114 0.49609703 -0.47618312
000020 54 42 81 3e 60 4f 77 3e 80 19 4a be e2 48 f2 3e
       0.25245917 0.24151373 -0.1973629 0.4732123
000030 61 08 9b be aa 5e 23 bf d6 50 f6 3e 90 9f 5b 3e
       -0.3027983 -0.6381632 0.48108548 0.21447587

decoder.lstm.bias_ih_l0 f4 [8]
000000 42 70 3f 3e b4 0e 34 be 4e 6b 2a bf 0d ec 13 3f
       0.18695167 -0.17583734 -0.66569984 0.5778206
000010 45 ad f1 be 12 58 c5 be c7 b7 06 3f 5b cd 47 be
       -0.47202507 -0.38543755 0.5262417 -0.1951193

decoder.lstm.bias_hh_l0 f4 [8]
000000 5c 1b 26 bf 56 a6 2a bf a7 5a b9 3e 4c 92 6d be
       -0.648855 -0.6666006 0.36201975 -0.23200339
000010 bc c7 1d be 80 c7 06 bf ae 42 df 3e 0a ef a2 3e
       -0.15408224 -0.5264816 0.4360556 0.31822997

decoder.lstm.weight_ih_l1 f4 [8, 2]
000000 ee da 44 3b c9 23 64 3e ff c5 2c 3f 73 a3 cc 3e
       0.0030037719 0.22279276 0.6748962 0.39968452
000010 13 a2 0a bf 66 2f da 3e ce 5e 6a be a9 53 04 3f
       -0.54153556 0.42614287 -0.22887728 0.51690155
000020 bf 61 09 3f 33 ab 8b be 0d 22 2b 3f 32 99 fb 3e
       0.53664774 -0.27279052 0.6684883 0.49140316
000030 a0 91 a4 be fa ee 30 bf c4 fa 0c bd f6 3c 58 bd
       -0.32142353 -0.6911465 -0.034418836 -0.052792512

decoder.lstm.weight_hh_l1 f4 [8, 2]
000000 9e e6 fe be a1 bf 3e 3e 7c 16 8b 3e b8 d3 6e bd
       -0.49785322 0.18627788 0.27165592 -0.05830738
000010 35 11 34 bf 0f 84 2b 3f 48 69 dd be 45 5b 96 be
       -0.70338756 0.6699838 -0.43244386 -0.29366508
000020 2f ae 8a bd 22 42 32 bf 47 1f 1b 3f 3a f1 04 bf
       -0.06771504 -0.6963216 0.605946 -0.5193058
000030 72 93 f2 3e 92 28 84 be 39 45 29 3f 4c 8c 47 be
       0.47378117 -0.25812203 0.6612125 -0.19487113

decoder.lstm.bias_ih_l1 f4 [8]
000000 94 eb 00 3f 1f b0 f1 be 7d 11 c3 be 04 c9 d8 be
       0.50359464 -0.47204682 -0.3809928 -0.42340863
000010 e5 56 57 be 7a 96 20 bd ec 5d 09 bf 8d 3e 88 bd
       -0.21029241 -0.039206006 -0.5365894 -0.066525556

decoder.lstm.bias_hh_l1 f4 [8]
000000 df ef d8 be c9 d4 e8 3e a9 ac 34 be 16 31 07 bf
       -0.42370507 0.45474842 -0.1764399 -0.52809274
000010 fe a5 d3 be 3b 59 d6 be 91 76 a2 3e 0b 09 97 3d
       -0.4133758 -0.41864952 0.31731084 0.07374772

decoder.lstm.weight_ih_l2 f4 [8, 2]
000000 67 39 15 bf 88 92 d4 3d b2 02 cb 3e 2f 24 fa 3d
       -0.58290714 0.10379511 0.39650494 0.12213933
000010 59 c1 26 3e c0 ed 17 3f cf 80 09 3d 4c 76 32 bd
       0.16284694 0.5934715 0.033570107 -0.043569848
000020 ba f1 c1 bd e6 0a fc be 75 28 9e 3d c2 0c f3 3e
       -0.09469934 -0.49227065 0.0772256 0.4747067
000030 fd fb c3 bd 67 2a 74 be fa fc 0c 3f 68 0b fa be
       -0.09569547 -0.238443 0.5507351 -0.48836827

decoder.lstm.weight_hh_l2 f4 [8, 2]
000000 aa 2b 1e bf 69 65 c7 be bd 6e 89 3e 39 3c 2f bb
       -0.61785376 -0.38944557 0.268423 -0.0026738776
000010 41 bc d0 3d 0d e1 98 be 65 e9 b8 bd 87 1c 69 3c
       0.101921566 -0.298592 -0.090288915 0.014227993
000020 45 c5 ad 3e 85 61 1e bf f2 46 88 be a7 e9 7f 3d
       0.33939567 -0.61867553 -0.26616627 0.062478688
000030 e3 c9 38 be 92 1e a7 3b 8d d1 8c be 42 3f fb be
       -0.18045764 0.00510008 -0.27503625 -0.490717

decoder.lstm.bias_ih_l2 f4 [8]
000000 42 d3 8b be 59 b6 e8 3e e1 8d be be 04 11 0a 3f
       -0.27309614 0.4545162 -0.3721762 0.53932214
000010 f3 9a b7 3e 67 56 22 3e b1 ef 25 bf 09 dd 1e bf
       0.35860404 0.15853272 -0.64818865 -0.6205602

decoder.lstm.bias_hh_l2 f4 [8]
000000 89 2f 81 bd af ba 2d be c7 5d b5 3d b3 2a dc be
       -0.06307895 -0.16965745 0.08855777 -0.43001327
000010 bc 2c e1 bd e2 79 85 bd cd dd 05 3f 49 3e d5 3e
       -0.109948605 -0.06517388 0.52291566 0.41649082

decoder.lstm.weight_ih_l3 f4 [8, 2]
000000 f2 ff e2 be 0f 1a f5 be f3 40 8f 3d bb 9a 16 bf
       -0.44335896 -0.47871444 0.0699481 -0.5882985
000010 32 fd b9 be 8d f6 b5 3e 11 c7 04 bf a3 8c bd bd
       -0.36325985 0.35539666 -0.5186625 -0.0925534
000020 1b be 0e 3f 9b 13 c5 3e 91 1c 81 3e 66 bc 22 be
       0.5575883 0.3849152 0.25217107 -0.15892181
000030 a0 72 0a bf 7d 61 49 be 41 ea f6 3e 46 67 8e 3e
       -0.54081154 -0.19666095 0.48225597 0.27813166

decoder.lstm.weight_hh_l3 f4 [8, 2]
000000 72 f4 28 3f a0 81 a3 3e f1 10 26 bf ca e1 2a 3f
       0.65997994 0.31934834 -0.648696 0.66750777
000010 88 60 4c bd 17 e4 06 bf 0e a0 0d be 6d 7f 64 3e
       -0.049896747 -0.5269179 -0.13830587 0.22314234
000020 59 a7 db be 7a 87 2e bf 96 09 c5 3b fa 0a 16 bf
       -0.42901114 -0.6817547 0.0060131056 -0.586105
000030 88 18 02 3f 30 51 1d 3e 1c 89 02 3f a4 9c b0 3e
       0.5081868 0.15363002 0.5099046 0.34494507

decoder.lstm.bias_ih_l3 f4 [8]
000000 b7 9c a9 3e dc 28 f3 be ce b3 b2 3d bd ed 25 bf
       0.33127376 -0.4749211 0.08725701 -0.64815885
000010 b9 d4 a1 3c 02 7e bc bd 42 2a 38 be e0 55 b2 3d
       0.019754754 -0.092037216 -0.1798487 0.087077856

decoder.lstm.bias_hh_l3 f4 [8]
000000 99 62 77 3e bf 41 77 be ed 6a 11 3f 66 a7 38 3e
       0.24158706 -0.24146174 0.5680378 0.18032607
000010 e2 37 0e be e7 2c 05 bf 12 fc 40 3e c3 26 0f 3e
       -0.13888505 -0.5202164 0.18846157 0.1397963

decoder.fc.weight f4 [2, 2]
000000 5e 8d b8 be 21 54 50 bb 23 58 f9 be ea ed b9 3d
       -0.36045355 -0.0031788426 -0.48700055 0.09078582

decoder.fc.bias f4 [2]
000000 a3 d2 0a bf d3 e0 d0 bd
       -0.54227656 -0.10199132
