py/model/autoencoder/res/21-08-2021_201019/epoch_22.model (torch, 17551 bytes, 18 tensors)

encoder.lstm.weight_ih_l0 f4 [24, 13]
-0.20985328 0.58861905 1.3515266 -0.3448388 0.41460028 0.37938634 -1.0110091 -0.437929
0.0915875 0.104327776 0.29891366 -0.76626366 -2.2838821 -0.1288146 -0.34381756 -0.34379676
0.1426253 0.06788318 0.10867375 0.14769451 0.122023925 0.074646495 -0.042231895 -0.022086488
-1.022117 0.654035 -0.17223164 0.008916825 0.050990876 0.1919482 0.1353686 -0.06860282
0.12367133 -0.10468805 -0.98519266 -1.358751 -2.1175501 -0.3751641 -0.0569632 0.09585323
1.3020244 0.76382095 -0.29731986 0.021594416 0.77295876 0.113548934 0.17295584 -0.06782135
0.15760435 0.023079924 -2.18634 -2.1247947 -0.09483815 -0.18425214 0.2667638 0.012463591
-0.26971355 0.047717642 -0.24161173 0.3717238 -0.21958134 0.2935917 -0.010743053 0.1697231
-0.01746453 -0.0995089 -0.10226934 -0.069022276 -1.400133 0.078339435 -0.10994876 0.22815008
0.050277848 -0.16760363 -0.039006464 0.2721593 0.049888946 0.032497585 -0.21482515 0.35572755
0.25426152 0.22188418 0.21704824 0.44258958 -1.0714628 -0.9661669 0.29088357 -0.0971964
0.15304817 -3.2282462 -1.4284533 -0.009110012 3.462561 3.027256 -0.6404658 0.24741736
1.0974867 -0.3613817 0.079831675 0.39013177 -0.03225805 0.02292237 -0.10980153 0.13299435
-0.1955472 0.4047578 0.08528148 -0.20549783 -0.0042056097 0.271843 0.14662531 -0.018681508
-1.0758344 -1.7551717 4.5527363 0.3484156 0.21075717 0.0909089 1.3472887 1.6148155
0.43086267 0.03855191 0.069700785 -1.3556825 -0.9034579 -0.09548704 0.09067725 0.14907245
-3.7273908 1.8747002 -1.6581141 0.20661044 0.12862319 0.27322516 -0.9892842 0.2620105
0.5052782 0.021231348 0.03553732 0.3067951 0.0633197 0.3111621 -0.07231928 0.42603096
-0.18895097 0.56887394 -3.8363261 0.052959513 -5.5904117 0.5431092 0.9514602 -0.014850773
-0.0380844 0.6218055 -0.563082 -0.9276471 0.34130135 1.3745476 1.3336458 -0.2054388
0.020959927 -0.26353648 0.81152767 0.13280214 0.14959823 -0.28478172 0.09041842 2.021573
1.5601566 -0.07352686 0.9512136 1.1612622 -0.5164378 0.043255 2.283186 -0.23892583
-0.3454469 -0.10864676 0.16641143 0.1229582 2.0012987 -2.2668028 0.09695139 0.031986725
-0.0034464858 -0.27960682 0.33101058 -0.0014540006 0.061378933 -0.10786734 1.6373221 2.044637
0.44121388 0.26037326 -0.14172195 0.25699633 0.7182689 0.73834956 -0.24207087 -0.23652458
-0.20094997 -0.42275706 -0.4502225 -0.0079160975 -0.002094774 -0.058544178 1.3463848 -0.7026385
0.12399808 0.040151965 0.014116606 -0.10638087 0.0037289008 0.045692537 -0.047554128 -0.18479435
0.050088216 0.041450895 -0.04404294 0.3006239 -0.089838356 -0.21434876 0.009610866 -0.0064704423
0.84551704 0.26086536 0.0734686 -0.06346574 -0.31669283 -0.02113404 0.11526148 0.07591515
-0.059781067 -0.16664445 -0.14361264 -0.016073717 -0.13853525 -0.095655076 0.0103269415 -0.091486104
-0.4615498 -0.46913028 -0.09465636 0.1073016 0.001806566 -0.6295048 -0.044939943 -0.1196687
-1.7801033 -1.3714646 0.6452655 0.029930793 -3.102094 0.4022222 0.00486647 0.1823442
00000000: c7e3 56be bdaf 163f d3fe ac3f b68e b0be
00000010: 7d46 d43e ed3e c23e bf68 81bf 3b38 e0be
00000020: 3a92 bb3d cda9 d53d 360b 993e db29 44bf
00000030: 202b 12c0 f9e7 03be db08 b0be 2106 b0be
00000040: 5e0c 123e 5606 8b3d 5890 de3d 3b3d 173e
00000050: aee7 f93d 43e0 983d 5afb 2cbd b9ee b4bc
00000060: bbd4 82bf d66e 273f 7e5d 30be e017 123c
00000070: cfdb 503d 128e 443e 119e 0a3e a37f 8cbd
00000080: 6547 fd3d b066 d6bd 9635 7cbf 8eeb adbf
00000090: f185 07c0 8215 c0be 3f52 69bd b34e c43d
000000a0: bca8 a63f c589 433f 4f3a 98be c6e6 b03c
000000b0: a0e0 453f 588c e83d 561b 313e ece5 8abd
000000c0: 0963 213e 1c12 bd3c ffec 0bc0 a3fc 07c0
000000d0: 813a c2bd 98ac 3cbe 4495 883e 1734 4c3c
000000e0: e517 8abe 9373 433d 1169 77be 9552 be3e
000000f0: eed9 60be a751 963e a103 30bc e4cb 2d3e
00000100: c611 8fbc 52cb cbbd 9672 d1bd 8d5b 8dbd
00000110: 8f37 b3bf 6d70 a03d d12c e1bd 2da0 693e
00000120: 25f0 4d3d 49a0 2bbe 3ec5 1fbd 7758 8b3e
00000130: 5a58 4c3d 301c 053d 20fb 5bbe ec21 b63e
00000140: 912e 823e 9b35 633e e541 5e3e 1a9b e23e
00000150: b125 89bf b756 77bf b1ee 943e e80e c7bd
00000160: a9b8 1c3e 969b 4ec0 8fd7 b6bf 2942 15bc
00000170: 999a 5d40 90be 4140 91f5 23bf fa5a 7d3e
00000180: 727a 8c3f 0607 b9be ca7e a33d 5abf c73e
00000190: 0421 04bd b2c7 bb3c a0df e0bd ac2f 083e
000001a0: 863d 48be 6a3c cf3e 0ea8 ae3d 066e 52be
000001b0: 36cf 89bb 012f 8b3e f224 163e f609 99bc
000001c0: f1b4 89bf 77a9 e0bf 04b0 9140 8863 b23e
000001d0: bad0 573e 722e ba3d f573 ac3f 46b2 ce3f
000001e0: 089a dc3e 9ce8 1d3d 49bf 8e3d 0187 adbf
000001f0: 0449 67bf b68e c3bd feb4 b93d 73a6 183e
00000200: 928d 6ec0 2df6 ef3f 153d d4bf b091 533e
00000210: ccb5 033e 2be4 8b3e bb41 7dbf 3e26 863e
00000220: ea59 013f 5ded ad3c 958f 113d 3f14 9d3e
00000230: c2ad 813d a450 9f3e 211c 94bd bb20 da3e
00000240: 5d7c 41be b9a1 113f 5e86 75c0 13ec 583d
00000250: a7e4 b2c0 3409 0b3f e592 733f a850 73bc
00000260: 63fe 1bbd a52e 1f3f 2426 10bf 487a 6dbf
00000270: 0dbf ae3e 2df1 af3f e8b4 aa3f 8c5e 52be
00000280: 27b4 ab3c 41ee 86be 47c0 4f3f 49fd 073e
00000290: 4730 193e e9ce 91be 4b2d b93d 7461 0140
000002a0: 36b3 c73f 4095 96bd bc82 733f 3da4 943f
000002b0: 4535 04bf 282c 313d b81f 1240 f9a8 74be
000002c0: 6bde b0be 3182 debd c267 2a3e 82d1 fb3d
000002d0: 4715 0040 4c13 11c0 738e c63d 8304 033d
000002e0: 70de 61bb a028 8fbe 387a a93e 2a94 beba
000002f0: 7a68 7b3d 8de9 dcbd c593 d13f 55db 0240
00000300: c9e6 e13e a54f 853e 8f1f 11be 0695 833e
00000310: 78e0 373f 7a04 3d3f 6de1 77be 8033 72be
00000320: d4c5 4dbe 9d73 d8be 9083 e6be 85b2 01bc
00000330: 7a48 09bb 05cc 6fbd 5656 ac3f 1ee0 33bf
00000340: b5f2 fd3d 6376 243d 5649 673c 37de d9bd
00000350: 9360 743b 1928 3b3d 1ec8 42bd bb3a 3dbe
00000360: 4d29 4d3d 6ac8 293d 5f66 34bd 60eb 993e
00000370: 2cfd b7bd 3e7e 5bbe e576 1d3c 0106 d4bb
00000380: ce73 583f 2590 853e b576 963d 53fa 81bd
00000390: 9025 a2be 4b21 adbc 360e ec3d 6779 9b3d
000003a0: fedc 74bd d8a4 2abe 310f 13be 07ad 83bc
000003b0: 2fdc 0dbe cfe6 c3bd 5532 293c 115d bbbd
000003c0: 4150 ecbe d831 f0be 32db c1bd f1c0 db3d
000003d0: 4cca ec3a 3a27 21bf f212 38bd dd14 f5bd
000003e0: 6dda e3bf 278c afbf 1f30 253f 6c31 f53c
000003f0: b588 46c0 11f0 cd3e e976 9f3b 70b8 3a3e

encoder.lstm.weight_hh_l0 f4 [24, 6]
0.115643546 -0.12769836 -0.19278973 -0.2369186 0.28715172 0.25995496 -0.0014428883 -0.049766798
-0.012157085 -0.06329012 0.0043360707 0.06841282 0.5532611 0.548114 0.46542168 -0.592953
0.952989 0.20208089 -0.16354698 -0.5090697 -0.033740003 -0.12047117 -0.124796346 0.4194191
0.0048139277 0.003296117 -0.003757466 -0.0072858576 0.00564813 -0.025540248 0.017390758 0.1776046
0.07274517 -0.12746695 0.13143528 0.107968114 -0.023023244 0.12275547 0.19756009 0.13087437
-0.8384152 -0.43492433 -0.26014814 0.108436584 -0.062435176 1.1519647 -1.5557544 -0.74583364
-0.536857 -0.5746835 -1.646422 0.7157091 -0.9862133 -0.58176917 0.1740011 -1.4442137
0.08245411 0.14233671 0.033065192 -0.2952671 -0.22165704 -0.724038 -0.31949022 0.36850625
-0.60290575 -0.24541368 -0.95801395 -0.21186891 -0.0016322212 0.4197751 -1.2833798 -0.31765798
0.29546675 -0.2985421 -0.15269327 -0.046387043 -0.17056392 0.044130288 0.2922363 0.28557143
0.30960923 -0.40909085 0.21149904 0.32177043 0.007284754 -0.055538904 0.09203117 0.027240932
0.01631302 -0.06269108 -0.10039288 0.04201169 -0.2098731 0.06652014 0.004378078 -0.059052788
0.018211214 0.03106002 0.022631299 -0.0512077 0.08452585 0.005957874 0.027406618 0.067119054
0.023334911 -0.083091184 0.060712826 -0.038687553 0.016353035 -0.0036458052 0.003696195 0.0058504287
0.0057736374 -0.007286293 0.20378424 0.36783308 0.23796485 0.14144589 0.027905658 -0.19052036
-0.016194087 -0.018790735 -0.031473584 0.021072553 -0.03566009 -0.022200828 0.0037149745 0.002162404
-0.008609672 0.0077520236 -0.002460444 0.0032800753 -0.0040721344 0.002781123 0.025789909 -0.0185716
0.025481308 0.047144048 -0.079036295 -0.21317557 -0.11415907 0.1676869 -0.19427341 -0.20529485
00000000: 86d6 ec3d 5cc3 02be ac6a 45be ca9a 72be
00000010: 8d05 933e d118 853e 4c1f bdba 45d8 4bbd
00000020: 832e 47bc 409e 81bd 9915 8e3b 051c 8c3d
00000030: 85a2 0d3f 3351 0c3f c04b ee3e c5cb 17bf
00000040: 16f7 733f 4bee 4e3e dc78 27be 6452 02bf
00000050: f532 0abd 97b9 f6bd 3a95 ffbd 1abe d63e
00000060: 27be 9d3b ab03 583b d23f 76bb 34be eebb
00000070: f313 b93b c839 d1bc 1077 8e3c fbdd 353e
00000080: 6bfb 943d b286 02be f896 063e 631e dd3d
00000090: 3e9b bcbc 3867 fb3d 314d 4a3e ee03 063e
000000a0: 61a2 56bf 67ae debe 2332 85be 0014 de3d
000000b0: 07bc 7fbd 9473 933f f622 c7bf f4ee 3ebf
000000c0: 766f 09bf 751e 13bf f5bd d2bf b638 373f
000000d0: 7a78 7cbf d3ee 14bf 582d 323e ffdb b8bf
000000e0: b3dd a83d b7c0 113e 5e6f 073d 402d 97be
000000f0: 10fa 62be 8e5a 39bf 3994 a3be daac bc3e
00000100: 0858 1abf b94d 7bbe 6740 75bf 2af4 58be
00000110: 41f0 d5ba c3ec d63e ca45 a4bf 11a4 a2be
00000120: 6b47 973e 83da 98be a05b 1cbe 5700 3ebd
00000130: 4fa8 2ebe f6c1 343d ff9f 953e 6b36 923e
00000140: 1a85 9e3e 5b74 d1be 3493 583e 18bf a43e
00000150: f2b4 ee3b c37c 63bd d77a bc3d 6028 df3c
00000160: e2a2 853c 2e64 80bd c89a cdbd 7314 2c3d
00000170: f9e8 56be b63b 883d fb75 8f3b 56e1 71bd
00000180: af2f 953c 9571 fe3c 4665 b93c 2abf 51bd
00000190: e41b ad3d 453a c33b d883 e03c b775 893d
000001a0: db28 bf3c b62b aabd 03ae 783d d776 1ebd
000001b0: cdf6 853c 76ee 6ebb dd3b 723b f4b4 bf3b
000001c0: c830 bd3b dbc1 eebb d1ac 503e 9e54 bc3e
000001d0: 0fad 733e 31d7 103e 689a e43c c517 43be
000001e0: 76a9 84bc 07ef 99bc 72ea 00bd 59a0 ac3c
000001f0: 5110 12bd 83de b5bc ee76 733b 1eb7 0d3b
00000200: 950f 0dbc b004 fe3b 673f 21bb 88f6 563b
00000210: 8a6f 85bb 8043 363b 5c45 d33c 7823 98bc
00000220: 2dbe d03c 1e1a 413d c8dd a1bd b24a 5abe
00000230: 3bcc e9bd 1db6 2b3e 9cef 46be d038 52be

encoder.lstm.bias_ih_l0 f4 [24]
2.5667703 -0.2610733 0.58875513 2.2353168 -0.06867524 -0.006169545 -3.715126 -2.3588524
-4.3790145 -4.120332 -3.3655255 -4.5763574 -1.3997306 -1.0509347 -1.2260944 1.6205269
-1.1757691 -0.5451807 -0.45453712 0.5169763 -0.5508704 -0.13191712 0.8357832 0.7122722
00000000: f745 2440 66ab 85be a8b8 163f 6e0f 0f40
00000010: 9ba5 8cbd e529 cabb a0c4 6dc0 70f7 16c0
00000020: e320 8cc0 c2d9 83c0 c564 57c0 8571 92c0
00000030: 5f2a b3bf 0785 86bf a9f0 9cbf 6d6d cf3f
00000040: 9a7f 96bf f690 0bbf 17b9 e8be 8f58 043f
00000050: d805 0dbf 4815 07be e3f5 553f 7957 363f

encoder.lstm.bias_hh_l0 f4 [24]
2.7943428 -0.34111997 0.10151137 1.6679118 0.53627485 -0.35665232 -3.8075008 -2.304446
-3.9864142 -4.055942 -3.0976965 -4.3098364 -2.1222112 -1.6014917 -0.84294575 1.3528321
-0.7482776 -0.30130202 -0.34511983 0.7157832 -0.54518676 0.22236492 0.5369666 1.1383811
00000000: 83d6 3240 47a7 aebe 31e5 cf3d 227e d53f
00000010: 4f49 093f 229b b6be 18ae 73c0 0b7c 13c0
00000020: 6921 7fc0 47ca 81c0 a940 46c0 2eea 89c0
00000030: 4fd2 07c0 aefd ccbf 4bcb 57bf 9a29 ad3f
00000040: 1f8f 3fbf 4244 9abe 8cb3 b0be 913d 373f
00000050: 5c91 0bbf a1b3 633e a576 093f 79b6 913f

encoder.lstm.weight_ih_l1 f4 [24, 6]
0.034433722 0.4402269 0.041514747 -0.34304526 1.4047248 -0.75372744 -0.15794268 -0.18920822
0.09031205 0.86318976 -0.08714123 -1.0365751 -0.1321757 0.27972585 1.6172127 -0.008151601
0.121700466 -1.2568889 -0.42131183 -1.6269019 0.19394366 2.247399 0.6992749 -3.0587451
0.2307941 0.5168963 -0.56629974 -0.12957661 0.026687188 -1.5573523 -0.36514416 -1.4339592
-0.58226 -1.1340091 1.0446824 -2.3239608 5.0070124 -1.3414521 8.082679 -2.157308
2.5144224 2.2026663 2.4751673 1.2018391 1.2970043 -2.6631095 2.2098045 -3.1379998
-1.8401635 1.583395 2.7296093 -3.983372 2.2939298 1.3182302 1.8378963 2.329823
2.8850765 -0.16571271 0.5952026 -5.716107 4.0003986 6.566222 -1.7453693 -3.7800834
1.7658241 -0.35736167 3.5323422 0.9872315 -0.058459003 -1.433488 0.6931104 2.9397507
-0.7569357 -0.23186134 0.5243809 -0.23101227 -0.5216024 -0.45849252 -0.515649 0.027040612
0.34340823 -0.33147156 1.2059252 -0.3105031 -0.11450113 -0.85038775 0.19969338 0.65290266
0.24658228 0.3535395 -1.952095 0.088289976 -0.76474434 -0.9558209 -0.4722339 6.7960353
0.41193268 0.5112059 1.4455249 0.02837899 -0.19161996 0.13936542 0.84187 -1.2127508
0.19302765 -1.2081565 -0.07980115 -0.030576982 0.95188713 1.4964545 0.14938812 1.5886099
1.2654252 -3.2924159 0.30852187 -2.0540147 -0.6636992 1.8659042 -0.9533571 -2.7471123
-0.70826167 -3.5803921 -6.007044 0.40974846 -0.52664346 0.12852639 0.6830873 0.6342409
1.460962 0.7442374 0.57397664 -4.7101107 -0.66755927 -1.3874127 0.7205694 2.3754685
0.8265138 2.0548546 -0.7365155 -2.0937169 -4.299961 0.1578139 -1.3132432 -0.35800564
00000000: 600a 0d3d 6c65 e13e 5e0b 2a3d a1a3 afbe
00000010: 06ce b33f 48f4 40bf babb 21be cdbf 41be
00000020: 86f5 b83d 01fa 5c3f 1a77 b2bd 7eae 84bf
00000030: 1159 07be 3a38 8f3e d300 cf3f 4b8e 05bc
00000040: 183e f93d bce1 a0bf 2fb6 d7be 523e d0bf
00000050: 2b99 463e 63d5 0f40 ae03 333f 7bc2 43c0
00000060: 4a55 6c3e 5153 043f 05f9 10bf bbaf 04be
00000070: 179f da3c 5257 c7bf 2df4 babe fa8b b7bf
00000080: fe0e 15bf 3627 91bf 27b8 853f c6bb 14c0
00000090: 7239 a040 b4b4 abbf a752 0141 5611 0ac0
000000a0: 4cec 2040 7cf8 0c40 2469 1e40 ddd5 993f
000000b0: 3d04 a63f 6370 2ac0 706d 0d40 fdd4 48c0
000000c0: 7a8a ebbf b0ac ca3f ebb1 2e40 91ef 7ec0
000000d0: bfcf 1240 c4bb a83f 3040 eb3f d21b 1540
000000e0: 18a5 3840 98b0 29be 335f 183f 59ea b6c0
000000f0: 4403 8040 7e1e d240 4368 dfbf e3ec 71c0
00000100: 8606 e23f 1cf8 b6be e511 6240 34bb 7c3f
00000110: b572 6fbd 897c b7bf af6f 313f e024 3c40
00000120: 8ac6 41bf 0f6d 6dbe d43d 063f 7b8e 6cbe
00000130: bc87 05bf 88bf eabe 9301 04bf 4684 dd3c
00000140: 34d3 af3e a4b6 a9be c25b 9a3f 43fa 9ebe
00000150: 927f eabd 03b3 59bf 6c7c 4c3e a124 273f
00000160: 1180 7c3e 2103 b53e 40de f9bf 60d1 b43d
00000170: 49c6 43bf aeb0 74bf a4c8 f1be 1f79 d940
00000180: d7e8 d23e 64de 023f f606 b93f 0e7b e83c
00000190: 0638 44be cfb5 0e3e cb84 573f 6b3b 9bbf
000001a0: 0aa9 453e dfa4 9abf c96e a3bd 947c fabc
000001b0: e0ae 733f d28b bf3f 33f9 183e 9257 cb3f
000001c0: 74f9 a13f f1b6 52c0 94f6 9d3e fa74 03c0
000001d0: 31e8 29bf f3d5 ee3f 360f 74bf b0d0 2fc0
000001e0: a350 35bf 2525 65c0 b439 c0c0 8dca d13e
000001f0: 1bd2 06bf 6c9c 033e cfde 2e3f 9d5d 223f
00000200: ce00 bb3f 5886 3e3f 22f0 123f 3ab9 96c0
00000210: 2ae5 2abf bd96 b1bf 3c77 383f ad07 1840
00000220: 6996 533f bd82 0340 488c 3cbf 75ff 05c0
00000230: 4899 89c0 f899 213e 5a18 a8bf 844c b7be

encoder.lstm.weight_hh_l1 f4 [24, 6]
-0.031114055 -0.12105004 0.10992843 0.03010248 0.0637262 0.013333781 -0.011020161 -0.0010827188
-0.11907742 0.046482824 -0.034569822 0.060021177 -0.17101167 0.095031895 -0.00086419075 -0.13856336
0.12013044 -0.0399907 -0.1738835 0.3038984 -0.5639845 -0.66566 -0.4446343 -0.13890189
0.08703709 -0.14156796 -0.06956613 -0.022870747 0.0038621037 -0.06753488 0.16033825 -0.14262806
0.00580295 0.098189496 -0.11024453 0.04695373 -0.55016124 0.20508157 0.017654425 -1.0241598
0.5035597 -0.018056039 -0.17909859 -0.13870157 0.0030186977 -1.6451391 -0.38808587 0.47083157
-0.98078704 -0.22135583 1.3392346 -1.255946 0.62113845 -0.689239 -0.24933387 -0.60438263
-0.2169056 -0.26323256 0.20042852 0.07944997 -0.15263578 -0.61544055 0.3614753 -1.1259079
0.0919145 -0.43416294 -0.5075904 -0.44821686 1.110805 0.5109323 0.040311586 2.0329168
0.0021128508 0.0055496064 0.006240153 -0.00060350314 0.004387023 -0.003511778 -0.0014045973 -0.001635184
0.0016853516 0.0010794728 0.003999366 0.0019554452 0.004625807 0.006078945 -0.010003166 0.0024333945
-0.012873504 0.0100411335 -0.0015563763 -0.0058771595 -0.07028074 -0.089842334 -0.03957716 0.05663439
-0.0042466572 -0.0061962456 0.0020746782 -0.0027093748 0.0055453246 -0.0007966735 0.000894921 0.01698854
-0.010497073 0.0013402269 0.0028577463 0.0058238585 0.11577961 0.46639448 -0.28873807 -0.18165053
0.24366042 0.13542825 -0.33298036 0.20223583 0.08063803 0.071318254 0.6132194 -0.042078868
0.8746846 -0.575585 0.05690038 0.14893821 -0.153497 -0.49845168 0.03342401 -0.00081048807
0.023551516 0.01829799 0.040418115 -0.007767175 -0.2251478 0.48192495 0.05564502 -0.106801294
-0.30861074 0.008589219 -1.6570455 -0.7980073 0.8039742 0.042870265 1.0849812 -1.1795307
00000000: e7e2 febc 15e9 f7bd 2822 e13d 7a99 f63c
00000010: e282 823d ee75 5a3c e88d 34bc 04ea 8dba
00000020: ddde f3bd c664 3e3d 1699 0dbd c4d8 753d
00000030: af1d 2fbe 15a0 c23d dc8a 62ba 8ee3 0dbe
00000040: f306 f63d 4acd 23bd 840e 32be 9298 9b3e
00000050: 4a61 10bf b268 2abf 1ba7 e3be 4c3c 0ebe
00000060: 8040 b23d 31f7 10be b078 8ebd 6f5b bbbc
00000070: 591b 7d3b ba4f 8abd b62f 243e 170d 12be
00000080: ac26 be3b 9317 c93d e2c7 e1bd 8e52 403d
00000090: 5ed7 0cbf e700 523e 03a0 903c ab17 83bf
000000a0: 4ae9 003f 42ea 93bc 9f65 37be c907 0ebe
000000b0: 58d5 453b eb93 d2bf 31b3 c6be d610 f13e
000000c0: dc14 7bbf 1aab 62be 0a6c ab3f d7c2 a0bf
000000d0: ee02 1f3f f871 30bf 6151 7fbe d2b8 1abf
000000e0: 801c 5ebe 6bc6 86be 223d 4d3e aab6 a23d
000000f0: 8e4c 1cbe 838d 1dbf 4a13 b93e c01d 90bf
00000100: ab3d bc3d 9b4a debe 72f1 01bf ae7c e5be
00000110: dc2e 8e3f 76cc 023f c31d 253d 4f1b 0240
00000120: c177 0a3b 79d9 b53b 337a cc3b 6934 1eba
00000130: 04c1 8f3b dc25 66bb 771a b8ba ac53 d6ba
00000140: 04e7 dc3a 197d 8d3a 1d0d 833b ed26 003b
00000150: 1594 973b e331 c73b 52e4 23bc 9679 1f3b
00000160: 64eb 52bc 9183 243c 53ff cbba 3095 c0bb
00000170: 59ef 8fbd 42ff b7bd a91b 22bd 76f9 673d
00000180: 8b27 8bbb e009 cbbb 53f7 073b c48f 31bb
00000190: 8eb5 b53b dbd7 50ba 2299 6a3a 8d2b 8b3c
000001a0: eafb 2bbc 8daa af3a 0749 3b3b 11d6 be3b
000001b0: dc1d ed3d 42cb ee3e 7ad5 93be 9902 3abe
000001c0: 1e82 793e b4ad 0a3e 677c aabe e916 4f3e
000001d0: 8d25 a53d 4e0f 923d f2fb 1c3f e45a 2cbd
000001e0: 54eb 5f3f 8a59 13bf 5f10 693d 4283 183e
000001f0: 512e 1dbe 0f35 ffbe 9de7 083d ef76 54ba
00000200: 1cef c03c abe5 953c 778d 253d c983 febb
00000210: 258d 66be debe f63e 08ec 633d a3ba dabd
00000220: 3a02 9ebe ccb9 0c3c 111a d4bf 354a 4cbf
00000230: 41d1 4d3f bb98 2f3d aae0 8a3f ddfa 96bf

encoder.lstm.bias_ih_l1 f4 [24]
1.7853652 0.5955751 1.3469055 0.512848 0.5047658 0.76426524 -1.6234275 -3.0802295
-1.7013031 -2.0316243 -1.726292 -1.7813393 -0.19448572 0.17573369 -0.048148345 -0.5191651
-0.0063161505 0.23284107 1.5728946 1.0850208 1.1150239 -0.5410276 1.5514863 2.174733
00000000: d986 e43f 9c77 183f 6667 ac3f 024a 033f
00000010: 5538 013f e3a6 433f 79cc cfbf 7b22 45c0
00000020: 4dc4 d9bf 2206 02c0 23f7 dcbf ed02 e4bf
00000030: 4427 47be 88f3 333e 3337 45bd 01e8 04bf
00000040: b6f7 cebb e46d 6e3e 9c54 c93f f6e1 8a3f
00000050: 1ab9 8e3f c980 0abf 1a97 c63f d32e 0b40

encoder.lstm.bias_hh_l1 f4 [24]
1.0058433 0.86781836 0.61896765 0.8544008 0.83091295 1.2664073 -1.8902148 -3.0902991
-1.9966843 -1.949476 -1.1357081 -1.8835138 -0.36809754 0.18029603 -0.13132575 -0.3206964
0.47630787 0.12356494 1.6949258 0.9315072 0.49456525 -0.5904642 1.6035949 2.6260283
00000000: 79bf 803f 5829 5e3f aa74 1e3f 03ba 5a3f
00000010: b6b6 543f a219 a23f 8ff2 f1bf 76c7 45c0
00000020: 5a93 ffbf 6e88 f9bf e25e 91bf fb16 f1bf
00000030: 4877 bcbe 869f 383e 427a 06be 5232 a4be
00000040: a0de f33e 9e0f fd3d 54f3 d83f 4177 6e3f
00000050: a837 fd3e a928 17bf 9942 cd3f d910 2840

decoder.lstm.weight_ih_l0 f4 [52, 6]
0.38121268 0.03147045 0.9320745 -1.4589697 -0.328383 -0.6549015 -1.2827679 -2.1900597
1.8523264 -1.7150036 1.0125108 -0.6354041 -1.8906696 0.1811057 -0.13856155 -0.36523938
-1.6761309 -0.11994302 -2.156647 1.0752233 -0.5773494 -0.24159463 1.6314206 -0.14540692
0.0071921446 0.052423887 0.0928553 0.6309622 -0.103579536 0.034090385 1.4327308 -2.315246
4.5066957 -1.1914457 -1.5016247 1.7501099 -2.9192955 -2.7579043 -1.9875271 1.757306
-2.4896984 0.4776018 -3.2132866 0.009140284 -7.542344 -0.1886579 3.5823457 -1.6619734
1.2100164 0.3245231 -1.1239613 0.29821113 -0.57633513 -0.77355725 -1.1402849 1.1952101
-1.6145822 -1.631384 -1.1410496 -0.3451881 0.7427651 2.148567 -0.7512417 -3.2196195
-1.4918483 5.378547 -1.4600008 2.0055227 5.7284245 -1.4842383 0.36871433 1.4154632
2.4003441 -0.98515123 0.8544252 -0.042249274 -3.460385 4.740774 3.0797102 0.59972346
1.1820062 1.8716004 -1.5431949 -0.4224984 -0.85898525 -0.5887242 4.153149 0.3977969
4.2492166 0.5219227 -3.2829504 -3.0207102 2.632778 -2.1408865 -2.428962 0.8257908
-0.27309185 1.0751016 2.061214 0.8278688 3.400613 -0.69521344 -1.3475717 0.39645764
0.6425706 -0.20682143 -0.11433062 -0.053169597 -1.4483408 -1.3336642 0.47787216 6.5624504
1.0378653 -0.45864818 -0.77123743 0.8739168 -0.562741 -0.82615185 -0.077827044 -0.08677571
2.8703632 -0.56369907 -0.39231303 6.570722 0.39119515 0.23010993 -0.6472035 0.85357857
-1.4974945 3.7645693 1.9340327 -2.3259845 0.4606559 2.53469 0.2998802 0.28648952
-0.961001 -0.1903325 0.2972606 0.0635572 2.0115356 -0.68854207 -2.367567 2.561696
2.2587986 -0.12568408 4.1104703 0.924164 -0.042035747 3.2460291 2.9941099 -0.45663884
-0.393918 -0.3783565 -0.48359257 1.644764 -0.7777673 0.48177764 -2.7990186 1.0105062
0.62123483 0.41233814 -0.5952933 -0.70958114 0.14144598 -1.0648267 0.94212323 -2.9991884
1.2122357 0.99454534 1.0993557 0.070638545 3.2270505 0.27943754 -0.62826335 -0.0795724
-0.19429469 -0.5360343 0.6985242 -0.4981017 1.0740393 -1.1612093 -0.61250776 0.08255603
0.17794919 -0.07234095 5.273025 2.3782413 -2.7698407 -4.4391193 -0.23787019 -0.44862127
0.18559198 -0.9275651 -0.81372666 -0.64511806 0.7188805 -2.6303375 -1.902873 -0.5620186
-3.0489874 0.1440333 1.0733262 2.9826486 -0.9200961 -0.83051085 0.13804863 -0.8044248
0.29353616 0.3923251 -5.599923 1.2196434 0.45083064 -1.9607953 0.20424755 0.45026943
1.8124484 0.58985025 -0.4647306 -0.94901264 -1.733232 2.4445999 0.31758827 -1.0330014
-4.069637 0.76945543 0.3026721 -0.2551702 -1.0853409 -3.7071855 -0.54581046 -1.8075997
1.7985517 0.43754417 1.0257032 2.7346098 2.9164505 -0.8785015 0.10623997 -0.32269382
0.06887988 -1.512861 1.4986763 -3.2303903 0.03626596 0.20392247 1.2928288 -0.7112392
1.343858 -0.32372963 2.0365126 -0.70081675 -2.1808689 3.228142 -0.47639185 -0.575429
00000000: 4f2e c33e 29e7 003d 6f9c 6e3f 85bf babf
00000010: d121 a8be a0a7 27bf bd31 a4bf f029 0cc0
00000020: 0819 ed3f 3d85 dbbf f499 813f d8a9 22bf
00000030: 7601 f2bf c673 393e 14e3 0dbe a800 bbbe
00000040: 758b d6bf b0a4 f5bd 8106 0ac0 eba0 893f
00000050: 2ccd 13bf 9564 77be 64d2 d03f 8de5 14be
00000060: 15ac eb3b 6eba 563d eb2a be3d bd86 213f
00000070: 8221 d4bd 5ca2 0b3d b963 b73f fe2c 14c0
00000080: da36 9040 4b81 98bf 3d35 c0bf 9a03 e03f
00000090: bdd5 3ac0 8181 30c0 4a67 febf 67ef e03f
000000a0: 3857 1fc0 3988 f43e 7da6 4dc0 21c1 153c
000000b0: e25a f1c0 892f 41be 2745 6540 8bbb d4bf
000000c0: d1e1 9a3f e427 a63e f7dd 8fbf 21af 983e
000000d0: b38a 13bf d907 46bf dbf4 91bf a5fc 983f
000000e0: a1aa cebf 31d1 d0bf ea0d 92bf 7fbc b0be
000000f0: db25 3e3f 1f82 0940 6051 40bf 3f0e 4ec0
00000100: e3f4 bebf 0f1d ac40 4ee1 babf 7c5a 0040
00000110: 414f b740 85fb bdbf 20c8 bc3e e62d b53f
00000120: 3d9f 1940 df32 7cbf 9cbb 5a3f 930d 2dbd
00000130: f376 5dc0 6cb4 9740 f919 4540 7a87 193f
00000140: fb4b 973f 9a90 ef3f 6987 c5bf b651 d8be
00000150: 75e6 5bbf a1b6 16bf 99e6 8440 09ac cb3e
00000160: 95f9 8740 ba9c 053f dc1b 52c0 5153 41c0
00000170: 6f7f 2840 4904 09c0 1d74 1bc0 0767 533f
00000180: b2d2 8bbe ee9c 893f eeea 0340 36ef 533f
00000190: a5a3 5940 82f9 31bf 3b7d acbf 7ffc ca3e
000001a0: 827f 243f ffc8 53be 2c26 eabd 5dc8 59bd
000001b0: 3b63 b9bf 82b5 aabf a9ab f43e 98ff d140
000001c0: c5d8 843f efd3 eabe d16f 45bf 03b9 5f3f
000001d0: cb0f 10bf b07e 53bf c963 9fbd 77b7 b1bd
000001e0: 08b4 3740 954e 10bf 41dd c8be 5b43 d240
000001f0: bb4a c83e f0a1 6b3e 21af 25bf 2084 5a3f
00000200: e6ad bfbf b4ee 7040 628e f73f eedc 14c0
00000210: 17db eb3e 5c38 2240 e689 993e c1ae 923e
00000220: 2904 76bf 86e6 42be 8b32 983e 472a 823d
00000230: 00bd 0040 4b44 30bf 3886 17c0 d4f2 2340
00000240: 2890 1040 54b3 00be f988 8340 0396 6c3f
00000250: ad2d 2cbd f1be 4f40 7f9f 3f40 91cc e9be
00000260: 9faf c9be f1b7 c1be 7299 f7be a087 d23f
00000270: c21b 47bf 8fab f63e 1f23 33c0 4458 813f
00000280: 3f09 1f3f fc1d d33e 2465 18bf 1ca7 35bf
00000290: 37d7 103e 3e4c 88bf fd2e 713f b4f2 3fc0
000002a0: 8a2a 9b3f 869a 7e3f b0b7 8c3f f1aa 903d
000002b0: ff87 4e40 7012 8f3e ded5 20bf dbf6 a2bd
000002c0: 30f5 46be 8b39 09bf 7bd2 323f 3007 ffbe
000002d0: 1f7a 893f 82a2 94bf 4fcd 1cbf 2313 a93d
000002e0: 5038 363e 7e27 94bd 9fbc a840 1b35 1840
000002f0: 1245 31c0 440d 8ec0 3e94 73be b0b1 e5be
00000300: d30b 3e3e e874 6dbf 6450 50bf 7526 25bf
00000310: 8d08 383f 7357 28c0 5891 f3bf 73e0 0fbf
00000320: 9c22 43c0 777d 133e c162 893f b7e3 3e40
00000330: 6b8b 6bbf 5c9c 54bf 9f5c 0d3e c9ee 4dbf
00000340: 5f4a 963e d6de c83e 9232 b3c0 461d 9c3f
00000350: 46d3 e63e 57fb fabf 4526 513e b789 e63e
00000360: 4ffe e73f 6d00 173f 2bf1 edbe 7ef2 72bf
00000370: 8cda ddbf 5374 1c40 ee9a a23e 6439 84bf
00000380: 773a 82c0 08fb 443f d6f7 9a3e aba5 82be
00000390: 73ec 8abf 8742 6dc0 3cba 0bbf 6d5f e7bf
000003a0: f136 e63f ca05 e03e 3e4a 833f d903 2f40
000003b0: 20a7 3a40 79e5 60bf 5794 d93d 2038 a5be
000003c0: e510 8d3d 6ea5 c1bf a0d4 bf3f b7be 4ec0
000003d0: 9e8b 143d 0dd1 503e 6a7b a53f c613 36bf
000003e0: 8a03 ac3f e4bf a5be 3956 0240 ba68 33bf
000003f0: 5b93 0bc0 e199 4e40 a2e9 f3be 514f 13bf

decoder.lstm.weight_hh_l0 f4 [52, 13]
-0.26948476 -0.361788 -0.11916635 -0.18398614 -1.4767847 0.1922747 0.026951063 0.17535067
-0.1275007 -0.8996182 0.063121065 -0.8110158 0.02957199 1.0007148 0.8511458 0.106764235
-0.19789657 -0.5353125 -0.09362095 0.21112104 -0.53148854 0.23668937 0.122480765 0.013203029
-0.30396247 -0.056100957 -0.07866204 0.39160758 -1.0643629 -0.13362245 4.6182237 0.33329907
0.47966135 0.0837925 -0.9707967 -0.77416515 0.19280753 -1.4878597 0.14788525 0.0906249
0.5351817 -0.32006186 -0.09931528 0.3001169 -0.04336692 -0.061921913 0.06936153 -0.0981326
0.16025732 0.32501104 -0.49679682 0.24301015 -0.03394701 -0.034960173 0.02120144 0.14309359
0.42506173 0.0012096062 -0.08154438 0.050090343 -0.14342979 -0.14223063 0.02052301 0.17461185
0.014853801 0.22652255 0.111855395 0.23692241 0.45429638 0.046078883 2.0022647 0.75801
1.7406374 -1.7526176 0.9424594 -0.23249207 -0.053949185 1.0898191 -0.77255964 -0.9777635
-0.00531052 1.4080458 -1.0006666 0.029878173 1.1764618 0.8639918 -1.7034392 1.3780105
2.7746973 -2.0429199 2.1048498 -0.008331198 -0.29746956 0.069909625 0.31519267 0.56071573
0.002311245 0.2605674 -0.23129584 -0.25232887 -0.013544075 0.0013977962 -0.13824764 -0.25812945
0.03547968 -0.050782904 0.22268058 -0.061605934 -0.7019063 -0.07102573 0.1304614 -0.49415863
-0.10900465 -0.34068772 -0.203174 -0.19100662 -0.07399837 -0.14620386 -0.0786304 -0.12605715
-0.082839735 0.44837746 0.100657046 0.061196785 -0.0689271 -0.0008760636 -0.63971263 0.20862111
-0.38989326 0.19004807 -0.20219423 1.2573177 0.5309977 1.454884 0.008696375 -0.7904299
1.7589716 0.2734187 -0.53293324 1.1412352 0.9575393 -0.8131853 1.6666942 1.9378238
-0.9500241 -0.38406095 -0.06198256 0.73064345 -0.2824671 0.7941073 0.6560661 -1.0675358
0.3292791 0.48714247 -0.042521287 0.58267355 -0.8961367 0.25926736 0.31819475 -0.1601512
0.22002247 0.18916629 0.26509663 1.3976107 -0.9446281 -0.055682648 0.70510805 0.036388446
-0.32796445 0.21039818 0.85791904 -0.16536383 -0.22076617 -2.482758 0.77572 -0.8806153
0.26185328 -0.09628199 -0.9123158 -0.119238496 0.2328393 0.19408457 0.054740958 0.50401497
-0.6310443 -0.042780936 0.7009858 2.582362 -1.2739774 0.308167 -2.6057441 -0.15264527
-0.24738882 0.8979312 -0.67128336 -1.4210141 -0.4283744 -0.6741443 -1.594346 1.612259
0.26138636 -1.5129406 -0.5756662 1.0445868 -1.1023171 -0.03594876 0.97396475 -1.0947096
0.9293775 -0.33261034 -0.609756 -0.6384059 -0.53630865 -0.028639806 -0.46299142 -0.63939303
-1.1219535 -0.4260059 -0.81939965 0.80064434 -1.0974538 0.013672562 0.13545005 -0.03584195
0.2838108 0.20906238 -0.040213667 -0.22952454 0.023893317 -0.122468 0.08255868 0.09113998
-0.066663586 0.11801353 -1.1019083 1.142818 0.6084048 -0.5642247 -1.2562972 0.64874035
-0.44597882 -1.5289111 1.1772743 -0.36973786 -0.7182203 0.7697772 0.08010212 -2.9029791
-2.5593653 -0.43797788 -0.083635665 -0.90992147 0.41991344 -0.02465866 0.18751144 -0.9521984
00000000: e8f9 89be 473c b9be 7d0d f4bd dd66 3cbe
00000010: 4807 bdbf a9e3 443e 7ac8 dc3c 208f 333e
00000020: 8b8f 02be 614d 66bf 9e45 813d bb9e 4fbf
00000030: f540 f23c 6c17 803f b1e4 593f 35a7 da3d
00000040: 66a5 4abe 3d0a 09bf 57bc bfbd 1d30 583e
00000050: a20f 08bf b35e 723e 32d7 fa3d 8451 583c
00000060: f8a0 9bbe 1eca 65bd 9019 a1bd ca80 c83e
00000070: 0b3d 88bf 53d4 08be 7dc8 9340 2da6 aa3e
00000080: 2c96 f53e 679b ab3d 2286 78bf b02f 46bf
00000090: 566f 453e 3072 bebf 3b6f 173e 8c99 b93d
000000a0: ab01 093f 26df a3be cf65 cbbd eca8 993e
000000b0: 83a1 31bd d5a1 7dbd 6b0d 8e3d bff9 c8bd
000000c0: 7f1a 243e d967 a63e 275c febe a7d7 783e
000000d0: 050c 0bbd 6632 0fbd a4ae ad3c 2087 123e
000000e0: b1a1 d93e a68b 9e3a bd00 a7bd 882b 4d3d
000000f0: 42df 12be e8a4 11be df1f a83c 73cd 323e
00000100: 5b5d 733c 87f5 673e 7114 e53d ca9b 723e
00000110: 8999 e83e 36bd 3c3d 1b25 0040 f20c 423f
00000120: 35cd de3f c655 e0bf 0545 713f 6712 6ebe
00000130: d2f9 5cbd 317f 8b3f 78c6 45bf b54e 7abf
00000140: df03 aebb d83a b43f d815 80bf 12c3 f43c
00000150: 4d96 963f 912e 5d3f 4c0a dabf a662 b03f
00000160: a494 3140 33bf 02c0 dcb5 0640 947f 08bc
00000170: ee4d 98be c72c 8f3d ef60 a13e 118b 0f3f
00000180: 4278 173b 1769 853e d1d8 6cbe 4031 81be
00000190: f8e7 5dbc 4236 b73a ca90 0dbe 8b29 84be
000001a0: 2453 113d bc01 50bd 6106 643e 8156 7cbd
000001b0: 22b0 33bf f075 91bd ac97 053e 5c02 fdbe
000001c0: d43d dfbd 9f6e aebe d80c 50be 3d97 43be
000001d0: 758c 97bd 77b6 15be fa08 a1bd 2015 01be
000001e0: e1a7 a9bd bb91 e53e 4825 ce3d 7ba9 7a3d
000001f0: a729 8dbd a2a7 65ba 35c4 23bf c6a0 553e
00000200: 17a0 c7be f69b 423e 010c 4fbe c9ef a03f
00000210: 77ef 073f a439 ba3f 3e7b 0e3c 9d59 4abf
00000220: fb25 e13f 89fd 8b3e 506e 08bf ff13 923f
00000230: 4c21 753f e92c 50bf 3c56 d53f 9c0a f83f
00000240: c834 73bf a3a3 c4be 6de1 7dbd 730b 3b3f
00000250: 879f 90be 9e4a 4b3f f3f3 273f 03a5 88bf
00000260: 4597 a83e bd6a f93e cd2a 2ebd 182a 153f
00000270: 3769 65bf b1be 843e 6cea a23e adfe 23be
00000280: 924d 613e cfb4 413e bfba 873e e8e4 b23f
00000290: 26d3 71bf 7d13 64bd f681 343f 0d0c 153d
000002a0: f5ea a7be 9f72 573e 95a0 5b3f 2355 29be
000002b0: 8710 62be 82e5 1ec0 9695 463f 0170 61bf
000002c0: a211 863e 7e2f c5bd 878d 69bf 5033 f4bd
000002d0: 6d6d 6e3e 1bbe 463e 0e38 603d 2007 013f
000002e0: 1f8c 21bf 103b 2fbd ce73 333f 6b45 2540
000002f0: b111 a3bf 11c8 9d3e 83c4 26c0 0b4f 1cbe
00000300: 7f53 7dbe d2de 653f 3ad9 2bbf cae3 b5bf
00000310: e453 dbbe b994 2cbf 8813 ccbf 815e ce3f
00000320: 6fd4 853e 0aa8 c1bf dc5e 13bf 05b5 853f
00000330: ba18 8dbf 023f 13bd c155 793f 721f 8cbf
00000340: afeb 6d3f e74b aabe f818 1cbf 926e 23bf
00000350: 864b 09bf 079e eabc 360d edbe 43af 23bf
00000360: 2c9c 8fbf 721d dabe 2dc4 51bf 07f7 4c3f
00000370: 5e79 8cbf e202 603c 6bb3 0a3e 02cf 12bd
00000380: a64f 913e 7314 563e 16b7 24bd 7b08 6bbe
00000390: ebbb c33c 81d0 fabd 8614 a93d 99a7 ba3d
000003a0: eb86 88bd 14b1 f13d 550b 8dbf dc47 923f
000003b0: 6bc0 1b3f 0871 10bf 59ce a0bf d913 263f
000003c0: 5657 e4be 5cb3 c3bf edb0 963f 484e bdbe
000003d0: 49dd 37bf 1e10 453f 950c a43d 69ca 39c0
000003e0: a4cc 23c0 a33e e0be 2d49 abbd 9df0 68bf
000003f0: e5fe d63e f500 cabc 0003 403e 46c3 73bf

decoder.lstm.bias_ih_l0 f4 [52]
0.2339986 -0.07069924 1.1950469 0.9636951 0.054892156 1.8882772 2.0247664 0.3999015
1.1865097 0.5160039 1.904367 2.1912825 1.826595 -1.2218194 -1.0659266 -1.9046963
-1.3183229 -0.7931673 -1.2699738 0.5960459 -0.83417463 -1.6010938 -0.7209548 0.5775824
0.071080655 -0.5784152 0.12493095 0.014661618 -0.022349937 0.26537812 0.060715538 -1.1786323
1.4248958 0.07899324 -0.40007102 0.6138188 1.1097097 -0.82284516 1.2220817 1.201812
0.79667395 0.9756809 0.8442434 3.192935 1.9263777 0.5680609 -0.7313922 1.649959
0.19789375 0.68251747 -0.06757797 0.45853138
00000000: 549d 6f3e c3ca 90bd 4cf7 983f b9b4 763f
00000010: 99d6 603d 11b3 f13f c695 0140 e4bf cc3e
00000020: 8ddf 973f d518 043f 4cc2 f33f f93d 0c40
00000030: ddcd e93f 9464 9cbf 4870 88bf 17cd f3bf
00000040: cebe a8bf 030d 4bbf 808e a2bf 7796 183f
00000050: 788c 55bf a4f0 ccbf 7e90 38bf 71dc 133f
00000060: bc92 913d 0513 14bf ccdb ff3d 4837 703c
00000070: 3717 b7bc a4df 873e dbb0 783d 6cdd 96bf
00000080: fc62 b63f 35c7 a13d 1cd6 ccbe 3b23 1d3f
00000090: f80a 8e3f fba5 52bf 2c6d 9c3f fad4 993f
000000a0: d3f2 4b3f 39c6 793f 5620 583f 0c59 4c40
000000b0: 8b93 f63f 706c 113f 853c 3bbf db31 d33f
000000c0: a9a4 4a3e 77b9 2e3f 5266 8abd a0c4 ea3e

decoder.lstm.bias_hh_l0 f4 [52]
0.51591986 -0.33811966 1.265605 0.846755 0.12052666 1.9005917 1.9581611 0.42255846
1.1163347 0.7243276 1.8154945 1.8562796 1.8546786 -0.7806714 -1.1027305 -1.8606968
-0.8965992 -0.7043058 -1.4410139 0.4425536 -0.557498 -1.487481 -0.4206206 0.30496964
0.49677575 -0.99608624 0.06106371 -0.023470163 -0.118200295 0.51716113 -0.038304657 -0.8848132
1.1177893 0.2666476 0.08134672 0.7087376 1.2670618 -0.8198517 1.4045837 1.0329628
0.5781823 1.3857148 1.1336688 2.7326732 2.2422163 0.7707569 -0.73576033 1.7163937
0.22189033 0.81955856 0.048093118 0.3672979
00000000: 5313 043f 051e adbe 58ff a13f f0c4 583f
00000010: aed6 f63d 9746 f33f 06a5 fa3f 9559 d83e
00000020: 0ee4 8e3f 896d 393f 2062 e83f 929a ed3f
00000030: 1c66 ed3f 15da 47bf 4626 8dbf 502b eebf
00000040: 8687 65bf 634d 34bf 2573 b8bf 6396 e23e
00000050: 30b8 0ebf c765 bebf 955b d7be fb24 9c3e
00000060: 6459 fe3e 82ff 7ebf f11d 7a3d 8044 c0bc
00000070: ff12 f2bd ac64 043f 58e5 1cbd 1e83 62bf
00000080: b813 8f3f 0986 883e 1c99 a63d d46f 353f
00000090: 152f a23f cde1 51bf 66c9 b33f 2038 843f
000000a0: c103 143f 1a5f b13f 0f1c 913f 1ee4 2e40
000000b0: 7980 0f40 5350 453f ca5a 3cbf cab2 db3f
000000c0: 3837 633e 97ce 513f 4afd 443d 780e bc3e

decoder.lstm.weight_ih_l1 f4 [52, 13]
-1.552577 3.0238533 0.9549713 1.0562356 0.8555603 -0.9642036 1.708711 -0.58793384
7.270166 1.314852 -0.9268919 1.4133159 0.1913683 5.1926465 -1.3511943 2.9366283
3.5057797 -9.185947 -8.824266 1.0334005 4.9224806 5.5134497 1.3685586 -0.6688469
-0.071823254 1.2473695 1.4578935 0.026887015 0.14897513 -0.48711005 0.18154825 -0.50923693
0.30308312 11.553985 -6.5551043 -0.007910362 0.15881045 0.19589187 0.025206491 -7.7971606
-6.955316 1.0686104 -0.0975621 0.24726136 1.8521243 -0.18370233 3.0228074 -0.19241041
-0.7919635 6.74028 -5.0325956 0.101050295 5.5772514 0.14501795 0.5551804 0.5540578
2.1957593 -0.39752233 0.5379001 15.76275 -6.466223 1.1675477 1.5239614 1.7002164
0.26234058 -1.8604423 -1.7473171 -0.051014308 0.32196847 -1.4397364 -0.2080507 0.07889007
0.066782884 -0.06999556 0.85636646 1.3426036 -0.9786894 0.2525295 0.9304842 -0.67946917
-0.018805617 -0.098575786 0.3508762 0.29342893 -0.3380376 -0.26150218 -0.14765647 -0.017250028
-1.2888216 -0.5524671 0.3593324 -0.6936255 0.61920726 -2.8162634 0.89052355 -3.1783814
-6.417308 2.6193147 -0.18785265 -1.4348501 3.169379 2.1833415 -1.8132422 2.5001736
0.110530265 -0.0355823 0.049668077 -0.39258778 -0.4361219 0.01401047 -0.016526606 0.08488574
0.13163453 -1.1101402 -0.18586168 0.24916191 -0.16213802 0.6077251 -0.16490448 0.03924309
0.7438988 -2.4586377 0.5257183 0.29740092 -0.87114024 1.5695127 0.60650796 0.13860343
-0.82931936 0.768173 1.368479 0.1660791 0.262741 0.69311035 -1.613604 0.5541274
0.39359158 0.14427674 -0.22323209 -0.27433178 -0.47085336 -1.8732681 0.027711425 -0.7681196
-1.9931993 -0.7482874 0.057348743 0.33718112 1.8808303 0.99075544 -1.251223 -1.6350852
0.19432592 0.8581529 -1.2367402 0.5909878 -1.0166018 4.9102798 -0.093251176 0.28383365
0.7279088 -0.21451448 1.704007 -0.17377105 3.18837 -0.5049127 -0.030106634 -0.88437957
1.2645117 1.4366024 2.6028392 -0.11375469 0.064239085 0.29454058 -0.19229928 0.11369485
1.8143001 6.4351044 -3.5320282 -1.6348649 -0.49051753 -2.1728544 4.453968 1.1084988
-2.7185495 -0.7138074 0.4555498 -0.059354782 0.07734295 -10.720907 -3.8860908 0.21279863
-0.71646434 1.8937956 -0.40636292 -5.808326 -1.4256734 -0.5052353 -2.7641535 -1.7700657
0.14469235 -2.2905695 -13.573974 -10.21479 -0.46520934 -3.1775258 -1.3175243 -1.5179712
-2.2093527 -19.746502 0.20669112 -2.1782055 2.1264484 -0.78998387 -2.464834 5.0224037
-4.025571 -1.3609147 1.6845857 -1.0305136 -0.9971746 21.83584 -4.1341386 1.8736671
-0.084183656 4.2213616 0.3563166 -0.6377996 12.735454 1.947029 -1.3586881 1.0552722
0.9923116 -0.8499776 3.6295445 -3.2143657 -0.11999481 -1.0028031 1.5005939 0.38361064
-2.0880828 1.0809749 -7.3528237 -0.2287137 0.37846324 -0.1342981 -0.25537276 3.776898
2.5918849 -1.0564432 -0.464222 4.4168315 1.1096863 1.0365084 1.8547404 -9.449098
00000000: d8ba c6bf d086 4140 0079 743f ba32 873f
00000010: 0006 5b3f 0cd6 76bf 0bb7 da3f d582 16bf
00000020: 33a5 e840 124d a83f ca48 6dbf 89e7 b43f
00000030: 0df6 433e 292a a640 eff3 acbf b8f1 3b40
00000040: b25e 6040 a4f9 12c1 3230 0dc1 7846 843f
00000050: f684 9d40 2e6e b040 ee2c af3f 8d39 2bbf
00000060: 1218 93bd cea9 9f3f 419c ba3f 2842 dc3c
00000070: f08c 183e 7d66 f9be c9e7 393e 5a5d 02bf
00000080: b62d 9b3e 1fdd 3841 6ac3 d1c0 779a 01bc
00000090: 359f 223e e197 483e d87d ce3c 5782 f9c0
000000a0: f391 dec0 3ac8 883f a3ce c7bd 1532 7d3e
000000b0: 6912 ed3f 771c 3cbe ad75 4140 3c07 45be
000000c0: 1fbe 4abf 60b0 d740 060b a1c0 75f3 ce3d
000000d0: d878 b240 967f 143e 4d20 0e3f bbd6 0d3f
000000e0: 5287 0c40 0c88 cbbe d2b3 093f 3934 7c41
000000f0: 4ceb cec0 3472 953f 2b11 c33f b1a0 d93f
00000100: 8151 863e f922 eebf 16a8 dfbf 61f4 50bd
00000110: 0dd9 a43e 4849 b8bf 3e0b 55be 1e91 a13d
00000120: 77c5 883d d559 8fbd d53a 5b3f 6fda ab3f
00000130: 638b 7abf 8c4b 813e 3634 6e3f b1f1 2dbf
00000140: 3d0e 9abc 1ae2 c9bd 0ca6 b33e 513c 963e
00000150: 4413 adbe 9de3 85be 4233 17be ee4f 8dbc
00000160: 1bf8 a4bf 7c6e 0dbf 6bfa b73e 7191 31bf
00000170: 5e84 1e3f a93d 34c0 5af9 633f 9a6a 4bc0
00000180: 965a cdc0 daa2 2740 725c 40be 2ba9 b7bf
00000190: 1bd7 4a40 debb 0b40 5218 e8bf d802 2040
000001a0: b15d e23d bfbe 11bd c170 4b3d 4401 c9be
000001b0: 5f4b dfbe 2c8c 653c ce62 87bc 93d8 ad3d
000001c0: 34cb 063e 1319 8ebf 8652 3ebe 4d24 7f3e
000001d0: 8207 26be df93 1b3f b8dc 28be 5dbd 203d
000001e0: 2770 3e3f 525a 1dc0 7995 063f ef44 983e
000001f0: 0c03 5fbf cbe5 c83f 1b44 1b3f 0fee 0d3e
00000200: 464e 54bf fca6 443f 522a af3f a410 2a3e
00000210: fd85 863e ae6f 313f 938a cebf 4bdb 0d3f
00000220: d684 c93e 48bd 133e f496 64be 3775 8cbe
00000230: b113 f1be 40c7 efbf 1203 e33c 7ca3 44bf
00000240: 2821 ffbf c38f 3fbf 84e6 6a3d 01a3 ac3e
00000250: 0cbf f03f 26a2 7d3f 1328 a0bf 794a d1bf
00000260: 60fd 463e e9af 5b3f 814d 9ebf fa4a 173f
00000270: 0220 82bf 0321 9d40 79fa bebd a552 913e
00000280: 3b58 3a3f afa9 5bbe e71c da3f 0af1 31be
00000290: 410e 4c40 f541 01bf 30a2 f6bc b366 62bf
000002a0: 85db a13f 96e2 b73f eb94 2640 38f8 e8bd
000002b0: c88f 833d 06ce 963e 1aea 44be d8d8 e83d
000002c0: fc3a e83f 60ec cd40 c00c 62c0 4143 d1bf
000002d0: 1d25 fbbe 0c10 0bc0 e886 8e40 4ae3 8d3f
000002e0: b7fc 2dc0 15bc 36bf d33d e93e 001e 73bd
000002f0: fb65 9e3d d688 2bc1 b6b5 78c0 e2e7 593e
00000300: 356a 37bf e567 f23f cd0e d0be cedd b9c0
00000310: 777c b6bf 1a57 01bf e4e7 30c0 8391 e2bf
00000320: 3b2a 143e b198 12c0 ff2e 59c1 c86f 23c1
00000330: eb2f eebe 955c 4bc0 a3a4 a8bf e14c c2bf
00000340: 0966 0dc0 d6f8 9dc1 d6a6 533e b867 0bc0
00000350: bb17 0840 623c 4abf d7bf 1dc0 88b7 a040
00000360: 7ad1 80c0 7432 aebf 81a0 d73f dfe7 83bf
00000370: d646 7fbf cdaf ae41 dd4a 84c0 53d4 ef3f
00000380: 7b68 acbd 6515 8740 216f b63e d646 23bf
00000390: 6bc4 4b41 3f38 f93f 7ee9 adbf 2913 873f
000003a0: 2208 7e3f 2298 59bf 754a 6840 2bb8 4dc0
000003b0: d7bf f5bd da5b 80bf 7613 c03f 9d68 c43e
000003c0: 26a3 05c0 635d 8a3f 554a ebc0 ed33 6abe
000003d0: efc5 c13e 7185 09be 38c0 82be b2b8 7140
000003e0: 71e1 2540 8839 87bf 82ae edbe af56 8d40
000003f0: 330a 8e3f 4fac 843f 2268 ed3f 812f 17c1

decoder.lstm.weight_hh_l1 f4 [52, 13]
0.9626071 -2.4377105 0.55696577 -0.58405775 1.2643505 -0.28868946 -0.06852098 0.27559254
2.3671093 0.4135921 -0.9964917 0.69056857 -0.72590417 -0.43900034 0.4791198 2.8458478
-0.30222657 0.7561032 -0.117629156 -3.26925 -2.6396155 -4.1290865 -0.75001454 3.916728
-3.0296462 -2.8888533 -0.23023021 -0.07044216 -0.12484476 -0.11088685 0.056882896 0.48987484
-0.8013211 -0.08026012 0.10549213 0.2904081 -0.2883268 -0.33386916 0.16831039 -2.682659
-5.723948 -1.8827399 2.3618689 -1.1267431 -1.530127 3.6638663 -0.1757067 -1.5594332
0.938432 -2.2395327 1.1396947 -0.5725798 -0.13105875 -0.28226703 0.9199196 0.27430055
0.10923691 0.78807354 -0.1883277 -0.009556861 0.1461831 0.50256366 -0.15526187 -0.12634541
0.36635152 1.554155 -0.85264707 2.821965 -0.5313578 2.5180066 0.7070323 -0.03824593
0.069615066 0.05632929 -1.1840348 -0.23074605 -0.56604004 1.4973406 0.22369373 0.30952173
0.0017989349 0.047071088 0.020344792 -0.12083062 0.0026795946 0.04967341 -0.2914432 0.048247166
0.3557516 0.028014412 0.022585796 1.093736 -0.84147316 0.9276806 0.11774319 0.8696787
-1.0811484 -1.4970276 -0.25052825 -0.17779864 -1.2507063 -2.5158691 -0.35667527 -0.18096012
-0.07260337 -0.08492763 -0.09291126 -0.02125684 -0.009107744 0.03386227 0.103137456 -0.019365309
-0.122495145 0.015273147 -0.13011351 -0.005196072 0.018631801 -1.1046364 1.0518546 0.26000473
0.68783057 -0.26958382 -0.697074 -0.9268674 0.112507164 0.296454 -1.9861046 -1.0049334
-1.5259985 0.31806305 -0.09698772 -0.7429842 -0.026437514 0.018840611 -0.3948907 -0.25359723
-0.003907048 0.059717163 0.6019574 0.30900306 1.0639714 -0.14533795 -0.005687082 -0.3143091
0.9896639 0.015405701 -1.2584193 -0.34585524 0.7032374 -0.48724386 -0.17670105 -0.21932079
1.4809752 -0.5905718 0.49069467 -0.14935125 3.8662448 -7.6430435 -3.4326417 -1.575318
0.9760165 -0.2551006 1.2034483 -0.511647 3.3563297 0.5282567 1.7897704 1.9797684
-3.096751 -0.7499487 1.8097863 0.84173584 0.27093476 0.5676863 -0.48880062 -0.7626786
0.09809729 -0.18599977 0.032759357 0.81633395 -0.5430728 0.23506562 2.8648994 -3.6870492
-0.6746946 -6.904538 1.539362 1.1994764 -2.7803648 0.1256405 3.1747758 2.2725375
1.9386517 1.0821072 -0.61026466 0.79596555 -5.051684 0.4711462 -0.28297377 -0.68587846
0.77005225 1.2149556 -0.32048094 1.0131153 -0.24281615 0.32463965 -0.058901243 -0.44000992
-2.5923483 0.7399395 1.7648717 -2.2776535 -2.5688694 0.065300785 -0.051071376 -1.592916
5.7234974 -1.0794135 2.254874 0.76474845 0.8859998 -1.0548022 -3.2444794 1.2501955
0.9998801 -3.423198 0.061734907 -0.33959624 0.015610656 0.60375166 0.8696599 1.3591793
-0.59538984 0.83994144 0.7173493 2.8873427 -0.7733494 0.010221048 0.39673564 1.178746
0.7580044 0.34386098 -0.13105407 0.6245936 0.54132384 0.7901247 -0.119417034 0.26502
0.66287714 -1.4192475 0.11802647 -1.055456 -0.3744825 1.4849521 -0.1511124 -3.2984192
00000000: 6b6d 763f 7303 1cc0 4f95 0e3f cf84 15bf
00000010: 3dd6 a13f 1bcf 93be ba54 8cbd 771a 8d3e
00000020: b87e 1740 58c2 d33e 141a 7fbf 1ac9 303f
00000030: dbd4 39bf a7c4 e0be 314f f53e 5f22 3640
00000040: 71bd 9abe fb8f 413f 8ee7 f0bd 643b 51c0
00000050: 76ef 28c0 7a21 84c0 f400 40bf acab 7a40
00000060: b9e5 41c0 f9e2 38c0 78c1 6bbe fb43 90bd
00000070: 9cae ffbd a518 e3bd 0afe 683d e0d0 fa3e
00000080: 6123 4dbf 6b5f a4bd 420c d83d 5fb0 943e
00000090: 929f 93be e6f0 aabe 8f59 2c3e afb0 2bc0
000000a0: 952a b7c0 9ffd f0bf dc28 1740 1e39 90bf
000000b0: 34db c3bf c97c 6a40 75ec 33be 829b c7bf
000000c0: 143d 703f 8154 0fc0 84e1 913f 9794 12bf
000000d0: 4434 06be 4e85 90be da7f 6b3f 1f71 8c3e
000000e0: 9ab7 df3d 30bf 493f fad8 40be 6194 1cbc
000000f0: 06b1 153e 03a8 003f f8fc 1ebe b160 01be
00000100: 6d92 bb3e 8dee c63f 1447 5abf 139b 3440
00000110: 1107 08bf 0527 2140 1200 353f c4a7 1cbd
00000120: 5892 8e3d 8bb9 663d 748e 97bf b148 6cbe
00000130: 00e8 10bf dba8 bf3f f80f 653e a279 9e3e
00000140: 3dca eb3a 9dcd 403d 1faa a63c 0b76 f7bd
00000150: 239c 2f3b 5876 4b3d 0b38 95be d29e 453d
00000160: 1325 b63e 7b7e e53c d905 b93c 8bff 8b3f
00000170: c96a 57bf 7a7c 6d3f 5723 f13d 43a3 5e3f
00000180: 1263 8abf 9a9e bfbf 3d45 80be d910 36be
00000190: 2517 a0bf 0004 21c0 249e b6be 9c4d 39be
000001a0: 13b1 94bd 8aee adbd 4248 bebd d322 aebc
000001b0: a638 15bc 2ab3 0a3d bb39 d33d ffa3 9ebc
000001c0: bcde fabd 393c 7a3c 7a3c 05be d043 aabb
000001d0: b8a1 983c ba64 8dbf 2ca3 863f 571f 853e
000001e0: aa15 303f e406 8abe 7173 32bf 2f47 6dbf
000001f0: 286a e63d d2c8 973e ad38 febf a8a1 80bf
00000200: eb53 c3bf 29d9 a23e 7fa1 c6bd 3634 3ebf
00000210: 7c93 d8bc a057 9a3c 1d2f cabe 7fd7 81be
00000220: b206 80bb fc99 743d e119 1a3f a635 9e3e
00000230: 3730 883f 79d3 14be b45a babb 1fed a0be
00000240: 9d5a 7d3f 3168 7c3c e213 a1bf f013 b1be
00000250: 5e07 343f 0778 f9be 1ff1 34be a195 60be
00000260: 9890 bd3f b72f 17bf 553c fb3e 89ef 18be
00000270: 8e70 7740 d093 f4c0 67b0 5bc0 05a4 c9bf
00000280: 38dc 793f 8c9c 82be 980a 9a3f 4cfb 02bf
00000290: 1bce 5640 d53b 073f 3217 e53f 0d69 fd3f
000002a0: 2b31 46c0 a3fc 3fbf 14a7 e73f 007c 573f
000002b0: f6b7 8a3e e453 113f 1344 fabe e83e 43bf
000002c0: 3be7 c83d b976 3ebe ad2e 063d 43fb 503f
000002d0: d206 0bbf 0bb5 703e 835a 3740 9df8 6bc0
000002e0: c9b8 2cbf faf1 dcc0 d009 c53f 7188 993f
000002f0: 7ff1 31c0 e7a7 003e 872f 4b40 4171 1140
00000300: bd25 f83f 7d82 8a3f 4e3a 1cbf 66c4 4b3f
00000310: 65a7 a1c0 133a f13e f0e1 90be bb95 2fbf
00000320: 2522 453f aa83 9b3f 1416 a4be c3ad 813f
00000330: cca4 78be 2b37 a63e 6e42 71bd fb48 e1be
00000340: 09e9 25c0 ad6c 3d3f 51e7 e13f 13c5 11c0
00000350: 5b68 24c0 6bbc 853d 3830 51bd ace4 cbbf
00000360: e426 b740 392a 8abf db4f 1040 8ec6 433f
00000370: e2d0 623f c203 87bf 8da5 4fc0 6806 a03f
00000380: 24f8 7f3f ad15 5bc0 bedd 7c3d 8fdf adbe
00000390: d6c3 7f3c 788f 1a3f 08a2 5e3f 96f9 ad3f
000003a0: 786b 18bf 6706 573f 34a4 373f 39ca 3840
000003b0: 3afa 45bf 2f76 273c ef20 cb3e 26e1 963f
000003c0: 940c 423f 8c0e b03e 0a33 06be 5ee5 1f3f
000003d0: 3394 0a3f 9d45 4a3f eb90 f4bd b4b0 873e
000003e0: 51b2 293f e7a9 b5bf ddb7 f13d 2f19 87bf
000003f0: 2cbc bfbe e912 be3f 36bd 1abe 4d19 53c0

decoder.lstm.bias_ih_l1 f4 [52]
0.40813804 0.568788 0.25987023 0.092420556 0.34989122 0.20711741 0.44103163 2.9035006
0.18367212 0.932414 1.7315036 0.68548095 0.016111718 -0.6674198 -0.6949855 -0.24126936
-0.30865705 -0.53071815 -0.28667593 -0.9620752 -1.0850599 -1.6837106 -0.7236996 -0.34313744
-0.9471904 -0.6033833 0.55806184 1.0591606 0.33244947 0.4321363 0.22836247 -0.4069746
0.018616479 0.7881452 0.15381803 -0.77394474 -0.227163 0.99334264 -0.12927563 0.027539346
-0.9059374 -0.010572426 0.7277698 0.21858057 0.2378761 0.8648425 1.7569405 1.3645247
0.90484726 1.358991 0.036755398 0.9155728
00000000: 78f7 d03e 179c 113f b60d 853e fd46 bd3d
00000010: f124 b33e 9616 543e e6ce e13e f4d2 3940
00000020: 8b14 3c3e afb2 6e3f e9a1 dd3f ae7b 2f3f
00000030: b9fc 833c 06dc 2abf 92ea 31bf 510f 77be
00000040: 4c08 9ebe 25dd 07bf 30c7 92be 8f4a 76bf
00000050: 3ee3 8abf d483 d7bf 6144 39bf b6af afbe
00000060: 127b 72bf 5477 1abf 24dd 0e3f 9392 873f
00000070: d136 aa3e f840 dd3e dad7 693e fa5e d0be
00000080: 9681 983c e2c3 493f 7982 1d3e 3e21 46bf
00000090: 6b9d 68be b44b 7e3f d560 04be 329a e13c
000000a0: 83eb 67bf f837 2dbc 1f4f 3a3f 96d3 5f3e
000000b0: cb95 733e 5166 5d3f 6de3 e03f bfa8 ae3f
000000c0: 12a4 673f 6bf3 ad3f d48c 163d fb62 6a3f

decoder.lstm.bias_hh_l1 f4 [52]
0.3566853 0.52838504 0.3277747 0.3693676 0.34441888 0.27072847 0.6272809 2.9215891
0.22752453 1.0631595 1.5633779 0.9974461 0.33995047 -0.51192427 -0.26291353 -0.12364149
-0.32253593 -0.905043 0.08913482 -0.808574 -1.0064179 -1.5515465 -0.56647897 -0.5080696
-0.6646367 -0.46513927 0.49166656 0.9463568 0.32684672 0.47043228 -0.064312726 -0.728955
0.27170265 0.682349 0.0925908 -0.99365795 -0.14902075 0.79796916 -0.17452207 0.24056886
-0.802302 0.12641288 0.25978595 0.19454601 0.21726891 0.67379874 1.734386 1.3140734
0.8865277 1.6025769 0.2635666 0.534052
00000000: 759f b63e 3e44 073f 16d2 a73e c01d bd3e
00000010: ac57 b03e ec9c 8a3e 7b95 203f 51fb 3a40
00000020: 31fc 683e 9c15 883f c41c c83f a158 7f3f
00000030: fd0d ae3e 780d 03bf 9a9c 86be c037 fdbd
00000040: 6e23 a5be e6b0 67bf 518c b63d b5fe 4ebf
00000050: 4dd2 80bf 1399 c6bf c404 11bf d910 02bf
00000060: a125 2abf bc26 eebe b8bb fb3e 7044 723f
00000070: 7458 a73e 80dc f03e 64b6 83bd cb9c 3abf
00000080: 9c1c 8b3e 6dae 2e3f 3fa0 bd3d 5e60 7ebf
00000090: e598 18be b547 4c3f eab5 32be af57 763e
000000a0: aa63 4dbf 6172 013e aa02 853e 1237 473e
000000b0: be7b 5e3e 137e 2c3f 5c00 de3f 8f33 a83f
000000c0: 7bf3 623f 3d21 cd3f 34f2 863e a2b7 083f
