py/model/autoencoder/res/21-08-2021_201019/epoch_40.model (torch, 17551 bytes, 18 tensors)

encoder.lstm.weight_ih_l0 f4 [24, 13]
0	0xbea474b8	-0.321203
1	0xbf0f945f	-0.5608577
2	0x3e4ee296	0.20203623
3	0x3efaf7b1	0.490171
4	0x3e9b438c	0.30324972
5	0xbeded0bb	-0.43518624
6	0xbd8ed618	-0.06974429
7	0x3f00dabf	0.5033378
8	0xbe05c227	-0.13062344
9	0xbdf16bbd	-0.117881276
10	0xbda2e265	-0.079533376
11	0x3ed95cfa	0.42453748
12	0xbffc6c5b	-1.9720567
13	0xbdeeca90	-0.116597295
14	0xbeccd23c	-0.40004146
15	0xbecccf82	-0.40002066
16	0x3dc33f96	0.095336124
17	0x3da40c6f	0.08010184
18	0xbe89b00c	-0.26892126
19	0x3e29c4c7	0.16578971
20	0x3e0f7c5e	0.14012286
21	0x3d7e6359	0.062106464
22	0xbd605781	-0.05477095
23	0xb808c950	-3.2612414e-05
24	0xbf855973	-1.0417923
25	0x3ebf81dd	0.37403765
26	0xbd3e6b6e	-0.04648917
27	0xbdb7f1c5	-0.08981661
28	0xbd438ee2	-0.047743686
29	0x3e021796	0.1270431
30	0x3e85b0b4	0.26111376
31	0x3e4379f8	0.19089496
32	0x3e8ec2f7	0.2788312
33	0x3d4ebdfb	0.05047415
34	0xbfe001ff	-1.7500609
35	0xc007e8fb	-2.123595
36	0xbf24656e	-0.6421727
37	0xbf869a29	-1.0515796
38	0x3ec41094	0.38293898
39	0xbb15e05e	-0.002286933
40	0x3f668350	0.90044117
41	0x3eb97790	0.3622403
42	0xbde45422	-0.111488596
43	0xbd9cc43c	-0.07654616
44	0x3f874665	1.0568358
45	0xbe808518	-0.25101542
46	0xbe4434b3	-0.19160728
47	0xbd619c76	-0.055080853
48	0x3e2e6ede	0.1703448
49	0x3d8f158a	0.0698653
50	0xc03ec0c3	-2.9805152
51	0xbf2c76ca	-0.6736876
52	0xbd8de8c8	-0.06929165
53	0xbe49c964	-0.1970573
54	0x3e8206da	0.25395852
55	0x3d378de5	0.044813056
56	0xbe7a06c4	-0.24416643
57	0x3d211bb2	0.039333053
58	0xbe8f4d05	-0.2798845
59	0x3eaaba1d	0.33345118
60	0xbe7da2af	-0.2476909
61	0x3e87ed95	0.26548448
62	0xbcd795e1	-0.026316585
63	0x3e804710	0.25054216
64	0xbcafb8ee	-0.021450486
65	0xbd9b1089	-0.07571513
66	0xbe055e4e	-0.13024256
67	0xbdc6a4ea	-0.096994236
68	0xc00d0878	-2.203642
69	0x3dd12b94	0.1021339
70	0xbe249771	-0.16073395
71	0x3e126198	0.14295042
72	0xbd0f0946	-0.034920953
73	0xbde2e264	-0.11078337
74	0x3c91ef4c	0.017814301
75	0x3daf4e07	0.085598044
76	0xbdd16726	-0.10224752
77	0x3e369d6f	0.17833494
78	0xbea0a58e	-0.31376308
79	0xbdbadbb7	-0.091239385
80	0xbe45536b	-0.19270103
81	0x3dd54d50	0.10415137
82	0x3df1e70d	0.118116476
83	0xbf5de532	-0.8667785
84	0xbff0fd9b	-1.8827394
85	0xbfe38346	-1.7774436
86	0x3ea67476	0.32510728
87	0xbd80f575	-0.06296817
88	0xbeae9b67	-0.34102938
89	0xbf1760c6	-0.5913204
90	0xbf6dfa7c	-0.92960334
91	0x3efeba9d	0.4975175
92	0x4049b2d7	3.1515405
93	0x402dd6ce	2.7162356
94	0x3ebf1bc5	0.37325874
95	0x3f41094a	0.754048
96	0x40462853	3.0962112
97	0x3f08ffc9	0.535153
98	0x3f79f356	0.97636926
99	0x3ee00221	0.43751624
100	0x3c77d9a2	0.015127571
101	0x3ec7d93d	0.39032927
102	0x3f4aed00	0.79267883
103	0xbcd77235	-0.026299575
104	0x3dfd6d07	0.12374311
105	0x3ef0ef3b	0.47057518
106	0x3e1abbdf	0.1511073
107	0xbf19dffe	-0.6010741
108	0x3ea152c8	0.3150847
109	0x3ddbda06	0.10734944
110	0xbe570c08	-0.21000683
111	0xbec028f6	-0.3753125
112	0x3f2f56bf	0.6849174
113	0x3bb73659	0.0055911955
114	0x40dc8392	6.891061
115	0x3e983269	0.2972596
116	0xbf4e67f4	-0.8062737
117	0x3da4c6e1	0.08045746
118	0x3fa62c18	1.2982206
119	0x3fc86a8c	1.5657516
120	0xbdb1642f	-0.08661687
121	0x3ce6333b	0.0281006
122	0x3e7f265a	0.24916974
123	0xc00ee5b2	-2.2327695
124	0xbfe3e7f2	-1.7805159
125	0xbe0a45d9	-0.13503207
126	0x3d516e73	0.051130723
127	0x3e417d11	0.18895365
128	0xc075f6ab	-3.8431804
129	0x3f824487	1.0177163
130	0xbfdcd946	-1.7253807
131	0x3da0345b	0.07822486
132	0x3978cba0	0.00023726979
133	0x3dea05cf	0.11426889
134	0xbf873d63	-1.0565609
135	0x3d1dbb96	0.038508974
136	0x3ebe6ee9	0.37193993
137	0xbde59ba4	-0.11211327
138	0xbd5d8e72	-0.054090925
139	0x3e5e608e	0.2171652
140	0xbd960646	-0.07325415
141	0x3f113d3c	0.5673406
142	0xbd68c39f	-0.056827184
143	0x3eece5ab	0.46268973
144	0x403b81a6	2.929788
145	0x406c01cd	3.68761
146	0xc0ab19e5	-5.346911
147	0x3db78a6b	0.08961948
148	0xc0b2bdd0	-5.5856705
149	0x3d828e19	0.06374759
150	0x3ef1b5dd	0.47209063
151	0x3db7edd0	0.08980906
152	0x3d8859ba	0.06657739
153	0x3e04ceb6	0.12969479
154	0x3f1a96df	0.6038646
155	0x3f1b548c	0.60675883
156	0x3e276b00	0.16349411
157	0x3f9873d7	1.1910352
158	0x3f933760	1.1501274
159	0xbeaec8f1	-0.3413768
160	0xbe209d56	-0.15685019
161	0x3efd38c0	0.4945736
162	0x3e7bc211	0.24585749
163	0xbedda14f	-0.4328713
164	0x3d8dad1e	0.06917785
165	0xbebafb9a	-0.36520082
166	0x3d1649fb	0.036691647
167	0x3ebf3044	0.3734151
168	0x3f960c54	1.1722512
169	0x3d36fa4b	0.04467229
170	0x3f175a00	0.59121704
171	0x3f4d1f71	0.801261
172	0xbeb32075	-0.349857
173	0x3e255454	0.1614545
174	0x3f7a9181	0.9787827
175	0xbed66fc0	-0.41882133
176	0xbf067c63	-0.5253355
177	0xbe20f5f2	-0.1571882
178	0x3df1654e	0.117869005
179	0x3e874736	0.26421517
180	0x401775e6	2.366571
181	0xbf497847	-0.78699154
182	0x3bbfcb73	0.0058531105
183	0x3d8eb0dc	0.06967327
184	0x3d0c3d08	0.03423789
185	0xbf34b886	-0.7059406
186	0x3e75ab25	0.23991068
187	0xbe3caf44	-0.18426234
188	0xbdf57a06	-0.11986165
189	0xbe94062a	-0.28910953
190	0x3ff41c5a	1.9071152
191	0x40141edf	2.3143842
192	0x3feabcaf	1.8338832
193	0x3dde4ea7	0.108548455
194	0x3ed7b2d9	0.42128637
195	0x3e1a15c8	0.15047371
196	0x3f322667	0.6958985
197	0x3f374a7c	0.7159803
198	0xbe0a0b00	-0.13480759
199	0xbeafa496	-0.34305257
200	0x3f8e0a6a	1.1096928
201	0xbe8c3c57	-0.27389786
202	0xbe9a4c47	-0.3013632
203	0xbdbb0694	-0.09132114
204	0xbdaf1a29	-0.085499115
205	0xbe00041a	-0.12501565
206	0x3f5d919d	0.86550313
207	0x3e8d971c	0.2765435
208	0x3e411192	0.18854359
209	0xbbbac222	-0.005699412
210	0xbd01fbd1	-0.03173429
211	0x39c12f4c	0.00036847068
212	0x3d8bd2bb	0.06827303
213	0xbd076da4	-0.033063546
214	0xbda772dc	-0.081762046
215	0xbe604182	-0.21899989
216	0x3ce7ab7e	0.028280016
217	0x3ca0ea7b	0.019643059
218	0xbdb8ab8b	-0.09017094
219	0x3e50eb22	0.20402196
220	0xbde4cc51	-0.11171783
221	0xbe96d742	-0.29461104
222	0x3e4d41e6	0.2004467
223	0x3e3cca66	0.18436584
224	0x40772499	3.8616087
225	0x3e38f0f8	0.18060672
226	0x3f33081c	0.6993425
227	0xbdc3f1fa	-0.09567638
228	0xbeb2a2cf	-0.34889838
229	0x3d9f9b84	0.07793334
230	0x3e5b7992	0.21433094
231	0xbe02f3b9	-0.12788285
232	0x3e827b1a	0.25484544
233	0xbe40a2a0	-0.18812037
234	0xbd9e5688	-0.07731348
235	0xbc0535ca	-0.0081305
236	0xbe05b9c2	-0.13059142
237	0xbd5dbacd	-0.054133225
238	0x3d9ced85	0.07662491
239	0xbe012465	-0.1261154
240	0xbed61ef4	-0.4182049
241	0xbeda0089	-0.42578533
242	0xbdca3c8a	-0.09874828
243	0x3dd35f99	0.10320968
244	0xba84617c	-0.0010099853
245	0xbf8e1f1c	-1.1103244
246	0xbdf22161	-0.11822773
247	0xbd85ac11	-0.0652696
248	0xbff49c46	-1.9110191
249	0xbfc04e1d	-1.5023838
250	0x3ed81060	0.42199993
251	0x3dacb63c	0.08433196
252	0xc05cd26f	-3.4503438
253	0x3ee0e9ae	0.43928283
254	0x3d2bbf54	0.04193051
255	0x3e0628f8	0.13101566

encoder.lstm.weight_hh_l0 f4 [24, 6]
0	0xbe30ef56	-0.172788
1	0xbd9fb803	-0.07798769
2	0xbbb8a172	-0.00563448
3	0x3d9b4f3e	0.075834736
4	0x3eb95d08	0.3620379
5	0x3e4741a3	0.19458632
6	0x3c9cc3d6	0.01913635
7	0x3c10094c	0.008791279
8	0x3c125524	0.008931432
9	0xbc0f12d7	-0.008732519
10	0x3b9519fe	0.0045502177
11	0x3bdff6a8	0.0068348236
12	0x3e476d87	0.19475375
13	0x3dc683ac	0.09693083
14	0x3df20154	0.118166596
15	0x3e1abf14	0.15111953
16	0x3dc70eff	0.09719657
17	0xbee5fadf	-0.44917962
18	0xbe31bf17	-0.17358051
19	0xbe2a4a7d	-0.16629978
20	0xbbe4a323	-0.006977455
21	0x3bd86755	0.006604115
22	0x3d2c3647	0.04204395
23	0x3d4dfc02	0.05028916
24	0xbc6169a6	-0.013758099
25	0xbbcc0dbd	-0.0062272237
26	0xbc1e165e	-0.009648887
27	0x3c640ace	0.013918592
28	0xbc50467e	-0.012712119
29	0xbbbef6ed	-0.0058277757
30	0xbcefa900	-0.02925539
31	0xbcf7073d	-0.030154819
32	0x3d22e54c	0.039769456
33	0xbd89a221	-0.06720377
34	0x3d089716	0.03334721
35	0x3d1e130c	0.038592383
36	0x3d42c57b	0.047551613
37	0xbebfdff1	-0.3747554
38	0xbda12447	-0.078682475
39	0x3c76369f	0.015027671
40	0xbf882fe6	-1.0639617
41	0x3d58cd97	0.05293044
42	0x3e14bb4e	0.14524576
43	0x3fb8f65d	1.4450184
44	0xbd458741	-0.04822469
45	0x3f67404c	0.90332484
46	0xbf0e89be	-0.5567893
47	0x3e18cd88	0.14922154
48	0xbfc0281b	-1.5012239
49	0xbf8db38c	-1.1070418
50	0xbf5210b9	-0.82056767
51	0x3fca9e0e	1.5829484
52	0xc02a6cab	-2.6628826
53	0xbee10c3b	-0.43954644
54	0xbcdb40fb	-0.026764384
55	0xbfa437d3	-1.2829536
56	0xbe0f72aa	-0.14008585
57	0xbf298c51	-0.6622973
58	0xbf96f7b4	-1.1794343
59	0xbea8d625	-0.3297588
60	0xbe9cf4b7	-0.30655453
61	0xbf0b756a	-0.54476035
62	0xbe2f1786	-0.17098817
63	0x3ed3a2bf	0.41335103
64	0xbf384768	-0.7198396
65	0xbe5e5bc5	-0.21714695
66	0xbec018a0	-0.37518787
67	0x3dc9e792	0.09858622
68	0xbde982d7	-0.11401909
69	0xbcbfa9e0	-0.023396432
70	0xbfe869dc	-1.8157306
71	0xbe77eb30	-0.2421081
72	0x3e5b19bf	0.2139654
73	0xbec4075d	-0.38286868
74	0x3f193d30	0.5985899
75	0x3c30c5c3	0.010789338
76	0x3e0f4dda	0.13994542
77	0x3def3981	0.1168089
78	0x3cdbe6a8	0.026843384
79	0x3e53f3ce	0.20698473
80	0xbdd325e9	-0.10309965
81	0x3d841c14	0.06450668
82	0xbe73cbb8	-0.23808181
83	0xbe802520	-0.25028324
84	0xbd64205b	-0.05569492
85	0xbe1f7842	-0.15573218
86	0xbea2dc9a	-0.3180893
87	0x3e7835c9	0.24239267
88	0xbb93cd89	-0.0045105857
89	0xbe69b7d6	-0.22824034
90	0x3e374b18	0.1789974
91	0x3e3f6340	0.18690205
92	0x3e81b647	0.2533438
93	0x3bea8cf5	0.0071579167
94	0xbd23a7c4	-0.039954916
95	0xbdba43eb	-0.090949856
96	0xbcecbbbe	-0.028898116
97	0xbba7be59	-0.0051191268
98	0x3c86e4ba	0.016466487
99	0xbd01cbc4	-0.031688467
100	0x3d5bf832	0.053703494
101	0xbb9d369f	-0.004797771
102	0xbdffd90d	-0.12492571
103	0xbde581d8	-0.11206406
104	0xbda89657	-0.082318
105	0xbe0e7d3a	-0.13914958
106	0x3c4c7fc0	0.01248163
107	0x3de6a60a	0.11262138
108	0x3b3f19e0	0.002915971
109	0x3bb7cb4e	0.0056089526
110	0x3baf75a3	0.0053545996
111	0x3b6bf554	0.0036004381
112	0xbbf443e5	-0.0074543827
113	0xba8dbdc8	-0.0010814006
114	0x3c124eca	0.008929918
115	0x3e803aaa	0.25044757
116	0xbd1e4df2	-0.038648553
117	0x3e29ca1b	0.16581003
118	0xbd3d9438	-0.04628393
119	0xbe3bd30f	-0.18342231
120	0xbb4d31eb	-0.003131027
121	0x3a814e1e	0.00098652
122	0xbb4c9015	-0.003121381
123	0xbb12862b	-0.0022357802
124	0xbb2d08a2	-0.002640285
125	0x3c6c7f23	0.014434609
126	0x3c2dda3f	0.010611116
127	0x3b43c3ae	0.0029871273
128	0xbb85a467	-0.004078436
129	0xbb33ab77	-0.0027415433
130	0xbb4ef628	-0.0031579826
131	0xbc0c47ad	-0.008562011
132	0x3c10d951	0.008840875
133	0x3c26c340	0.010178387
134	0x3c82d2b9	0.015969621
135	0xbce44657	-0.027865572
136	0x3d0959be	0.03353285
137	0x3c26402d	0.010147137
138	0x3b60fc9c	0.0034330254
139	0x3c812412	0.01576427
140	0xbd32b8d8	-0.043633312
141	0x3d82733c	0.063696355
142	0xbdb09698	-0.086224735
143	0xbdc3d1c5	-0.09561495

encoder.lstm.bias_ih_l0 f4 [24]
0	0x3ffb4a75	1.9632097
1	0xbf12b892	-0.5731288
2	0x3f9c7c6c	1.222547
3	0x3fd46b9b	1.6595339
4	0xbdbee28f	-0.09320556
5	0xbf2129f7	-0.6295466
6	0xc08204e5	-4.0630975
7	0xc07e6083	-3.9746406
8	0xc06511ef	-3.5792196
9	0xc0a7e42e	-5.246604
10	0xc06a676a	-3.662562
11	0xc0b71468	-5.721241
12	0xbfebb016	-1.8413112
13	0xbf890adf	-1.0706443
14	0xbfb4a404	-1.4112554
15	0x4000119c	2.0010748
16	0xbfaa3d39	-1.3299934
17	0xbfce4648	-1.6115198
18	0xbf08a70a	-0.5337988
19	0x3f5a51a8	0.8528085
20	0xbe5feb7d	-0.21867175
21	0xbe342c57	-0.1759504
22	0x3f533cd2	0.8251468
23	0x3f069daf	0.52584356

encoder.lstm.bias_hh_l0 f4 [24]
0	0x400c35c5	2.1907818
1	0xbf273667	-0.65317386
2	0x3f3c3bc2	0.73528683
3	0x3f8bca7e	1.0921171
4	0x3f030324	0.5117667
5	0xbf7ae2de	-0.9800242
6	0xc084f98b	-4.155462
7	0xc07ae4c2	-3.9202123
8	0xc04bf1a3	-3.1866233
9	0xc0a5d4b5	-5.182215
10	0xc059434e	-3.394733
11	0xc0ae8d11	-5.45472
12	0xc0241529	-2.5637915
13	0xbfcf838f	-1.6212023
14	0xbf839982	-1.0281222
15	0x3fdddfb2	1.7333891
16	0xbf670a30	-0.9024992
17	0xbfaf0ede	-1.3676412
18	0xbed94aff	-0.4244003
19	0x3f869be1	1.051632
20	0xbe5a1998	-0.21298826
21	0x3e369c93	0.17833166
22	0x3f06bd94	0.52633023
23	0x3f73b4ab	0.9519755

encoder.lstm.weight_ih_l1 f4 [24, 6]
0	0x3ef06a79	0.46956232
1	0xbdd19752	-0.1023394
2	0x3f2b4992	0.66909134
3	0xbf35c240	-0.70999527
4	0x3fd5b183	1.6694797
5	0xbf25cd3d	-0.64766294
6	0x3e71bd2e	0.23607323
7	0x3ed692a2	0.41908747
8	0x3e985a5e	0.29756445
9	0x3e72445e	0.23658893
10	0xbf411e95	-0.7543729
11	0xbea08539	-0.3135164
12	0xc013d742	-2.3100133
13	0xbeb0fb87	-0.345669
14	0x3ff89731	1.942114
15	0x3e6e306e	0.23260662
16	0x3ed41922	0.41425425
17	0xbfba3bce	-1.4549501
18	0x3fb9dee8	1.452115
19	0xbfb4249b	-1.4073671
20	0xc006a56e	-2.103847
21	0x4035716a	2.8350472
22	0x3f96ee65	1.1791502
23	0xc075f3a2	-3.8429952
24	0x3ea845b5	0.32865682
25	0x3f403329	0.75078064
26	0xbfbe605a	-1.4873154
27	0xbf113778	-0.56725264
28	0x3e30fa1d	0.1728291
29	0xbf4f5285	-0.8098529
30	0x3e797bf2	0.24363688
31	0xbf45f3e0	-0.7732525
32	0xbc2d5d90	-0.010581389
33	0xbf050f17	-0.5197615
34	0xbe8d4d4c	-0.27598035
35	0xbfab9078	-1.3403463
36	0x40d07e2c	6.515402
37	0xc01dde4b	-2.4666927
38	0x41585708	13.521248
39	0xc05643ef	-3.3478963
40	0x40342c1f	2.815193
41	0x3f13bc27	0.5770897
42	0x3f3dcae8	0.74137735
43	0xbe4e9668	-0.20174563
44	0x3f8291b3	1.0200714
45	0xc0b4c778	-5.649349
46	0x40067340	2.1007843
47	0xc071e4c6	-3.7795882
48	0xbfc00144	-1.5000386
49	0x404950f1	3.1455653
50	0x40107136	2.2569098
51	0xc099c2bb	-4.805021
52	0x404afefa	3.1718125
53	0x3f5b529b	0.8567292
54	0x3f65742d	0.89630395
55	0x4036a8b4	2.8540468
56	0x3ff9b821	1.9509317
57	0xbe20b7d8	-0.15695131
58	0x3f648984	0.8927233
59	0xc1060d58	-8.378258
60	0x40c44a59	6.1340756
61	0x4102a061	8.164155
62	0xbff767b9	-1.9328529
63	0xc0f1b1a8	-7.5529366
64	0x4019171e	2.392036
65	0x3f8c0b2c	1.0940909
66	0x40d4a58c	6.6452084
67	0xbef1fa8b	-0.47261462
68	0x3ecb9223	0.3975993
69	0xc02de807	-2.7172868
70	0x401be455	2.4358113
71	0x40a5d802	5.182618
72	0xbf6d8a94	-0.9278958
73	0xbe7d18c2	-0.24716476
74	0x3e89ed4c	0.26938856
75	0xbd8d0259	-0.068852134
76	0xbf107e16	-0.5644239
77	0xbee39f22	-0.44457346
78	0xbf193029	-0.5983911
79	0xbcfc72e1	-0.030816497
80	0x3e64d48a	0.22346702
81	0xbe8b866a	-0.27250987
82	0x3f9ab004	1.2084966
83	0xbe6859e5	-0.22690542
84	0xbe58e818	-0.21182287
85	0xbf4cde94	-0.8002713
86	0x3dcffef4	0.1015605
87	0x3f4ca6b7	0.79941887
88	0x3e79c01d	0.24389692
89	0x3e78bc35	0.24290545
90	0xc01630b9	-2.3467238
91	0x3e5cdc1b	0.21568339
92	0xbf206a82	-0.6266252
93	0xbfb2b708	-1.3962107
94	0xbeb40030	-0.35156393
95	0x40bb6151	5.8556294
96	0x3edb137f	0.42788312
97	0x3e9402dc	0.28908432
98	0x3fb12185	1.3838354
99	0xbe03f5da	-0.12886754
100	0xbe0baf6e	-0.1364114
101	0x3dcfc9c4	0.101459056
102	0x3f3b7cb6	0.7323717
103	0xbfaeba60	-1.3650627
104	0x3e0ec74f	0.13943218
105	0xbf83e1b1	-1.030325
106	0xbd31baa8	-0.0433909
107	0x3d506c3f	0.05088448
108	0x400adc28	2.1696873
109	0x4022ef9a	2.545874
110	0xbee7a69d	-0.45244303
111	0x3f8139f5	1.0095812
112	0x3fac8bc3	1.3480152
113	0xc08a1ac4	-4.3157673
114	0x3f6cd022	0.92505085
115	0xbfbd65c8	-1.4796686
116	0xbfe95d95	-1.8231684
117	0x4009639f	2.1467054
118	0xbfbc9b9b	-1.4734987
119	0xc056b905	-3.3550427
120	0xbff10ccb	-1.8832029
121	0xc062ad09	-3.5418112
122	0xc0c8c689	-6.2742352
123	0x40014493	2.0198104
124	0xbe9eb26b	-0.30995497
125	0xbf9a11d5	-1.2036692
126	0x3fc32918	1.5246916
127	0x3ccca2e6	0.02498002
128	0x3f7c161d	0.9847124
129	0x3f4466b7	0.7671923
130	0x3f0bb4b6	0.5457262
131	0xc0919783	-4.549745
132	0xc00758e5	-2.1148007
133	0xc05dd7f0	-3.4663048
134	0xbf922a1d	-1.1419102
135	0x4012231c	2.283393
136	0x3faab136	1.333533
137	0x3fa476da	1.2848771
138	0x3fd30dde	1.6488607
139	0xbfe7ce98	-1.8109922
140	0xc0975ab2	-4.729821
141	0xbf92dd45	-1.1473776
142	0xbf93525e	-1.1509511
143	0x3f4917d6	0.78551996

encoder.lstm.weight_hh_l1 f4 [24, 6]
0	0x3b5e9a06	0.0033966317
1	0xbbae53ad	-0.0053200335
2	0xbcf522ff	-0.029923914
3	0x3dbbfaf5	0.09178726
4	0x3dbef648	0.09324318
5	0xbd5b8278	-0.05359122
6	0xbd029b58	-0.03188643
7	0xbc800678	-0.015628085
8	0x3c3f4f91	0.011676685
9	0x3d6d7676	0.0579743
10	0x3c48a0b2	0.012245344
11	0x3c08732f	0.008328243
12	0xbe39b005	-0.18133552
13	0xbe05ca89	-0.13065542
14	0xbd189736	-0.03725358
15	0xbe3ce082	-0.18445018
16	0xbd472344	-0.048617616
17	0xbe712a7e	-0.23551366
18	0x3e47426f	0.19458936
19	0xbe9aaa7d	-0.30208197
20	0xbee1f549	-0.4413245
21	0xbec8b160	-0.39197826
22	0xbe419fd8	-0.18908632
23	0xbdf25396	-0.11832349
24	0x3c9ecf01	0.019385817
25	0x3c359c51	0.011084632
26	0xbcffb3fb	-0.031213751
27	0xbcd2a744	-0.025714524
28	0xbd14054b	-0.03613786
29	0xba3beb5d	-0.0007168556
30	0xbd00e5c3	-0.031469118
31	0xbd190c8a	-0.037365474
32	0x3e11d3b0	0.14240909
33	0xbdea5265	-0.11441497
34	0xbdc29c35	-0.095024504
35	0x3dc78978	0.09743017
36	0xbe95a0fc	-0.29224384
37	0x3e1a5feb	0.15075652
38	0xbe5a5194	-0.21320182
39	0xbfcc87a9	-1.59789
40	0x3ec03bc3	0.37545595
41	0xbf9a6afb	-1.2063898
42	0xbf690771	-0.9102698
43	0xbf02fd68	-0.5116792
44	0xbed012c6	-0.40639323
45	0xbfab89e2	-1.3401453
46	0xbe43dd6c	-0.19127434
47	0x3d16beda	0.036803104
48	0xbfa141cd	-1.2598206
49	0xbf196382	-0.5991746
50	0xbf4c4f48	-0.79808474
51	0xc03f032e	-2.984569
52	0x3c7f7ad0	0.015593246
53	0xc017b2d4	-2.3702898
54	0xbd31ea0c	-0.043436095
55	0xbfcddc4b	-1.6082853
56	0xbd82040a	-0.06348427
57	0xbf080628	-0.53134394
58	0x3d0c4420	0.034244657
59	0x3e83511a	0.25647813
60	0x3ee7a885	0.45245758
61	0xbf1d5081	-0.61450964
62	0x3e964292	0.29347664
63	0x3f239d15	0.63911563
64	0x3dab78a5	0.083726205
65	0xbe8f9a1b	-0.2804726
66	0x3f9867a7	1.1906632
67	0xbed46119	-0.4148033
68	0x3eeb2280	0.4592476
69	0xbe142286	-0.14466295
70	0x3d999eac	0.075009674
71	0x3f5034a1	0.81330305
72	0x3b07e7ec	0.0020737601
73	0x39b00a83	0.00033577168
74	0x3bb662b7	0.005565967
75	0x3a8b28d9	0.0010617032
76	0x3b80273f	0.0039109285
77	0xbb28f3ee	-0.002578016
78	0x3a3e9ac9	0.00072709896
79	0x3a888c9d	0.0010417883
80	0x3ba29bc2	0.0049624154
81	0x3ac87723	0.0015294295
82	0x3b5ab326	0.003337094
83	0xbacb0192	-0.0015488139
84	0xba2e502a	-0.00066495186
85	0x3af8ace8	0.0018972429
86	0xbb84f6b0	-0.0040577278
87	0xba93ea50	-0.001128504
88	0x3aca22f4	0.0015421794
89	0x3b83cd63	0.0040222867
90	0x3d01fa13	0.03173263
91	0xbc6e5c4c	-0.0145483725
92	0xbcde1388	-0.027108923
93	0x3c3f4eed	0.011676532
94	0xbb80dac9	-0.003932331
95	0x3c490271	0.0122686485
96	0xbb024634	-0.001987827
97	0xbb06602d	-0.0020504103
98	0x3815077b	3.5531335e-05
99	0xba16c579	-0.00057514716
100	0xbb015bfd	-0.0019738667
101	0x36ed275c	7.0677324e-06
102	0xbac42480	-0.0014964491
103	0xbba6f8ed	-0.0050955922
104	0xbbbd16e3	-0.0057705506
105	0x3ac15a99	0.0014751732
106	0xbb7495bd	-0.0037320696
107	0x3be530bf	0.0069943364
108	0xbe1f404a	-0.15551868
109	0x3d4e72e1	0.050402526
110	0xbab8a680	-0.0014087707
111	0xbebe5cde	-0.37180227
112	0x3c76f2ea	0.015072564
113	0x3e35d308	0.17756283
114	0xbd433f8d	-0.04766803
115	0x3e41f0e2	0.18939546
116	0xbe7b51f9	-0.24542989
117	0xbe540908	-0.2070657
118	0x3ec66780	0.3875084
119	0x3e668cde	0.22514674
120	0xbe1a4e36	-0.15068898
121	0xbf970900	-1.1799622
122	0xbef08d16	-0.4698264
123	0xbf679526	-0.9046196
124	0xbee66207	-0.44996664
125	0x3e6b1658	0.22957742
126	0x3d22a8e5	0.03971185
127	0xbc929c76	-0.017896872
128	0x3c37f6d2	0.01122828
129	0x3cd1808c	0.025573991
130	0xbbf883dd	-0.0075840787
131	0x3c9d5c95	0.019209186
132	0x3dcc46d0	0.09974444
133	0xbe82fd66	-0.25583953
134	0xbeba9bd5	-0.36447015
135	0xbe817a89	-0.252888
136	0x3c1a4db5	0.009417941
137	0xbe6b4b2d	-0.22977896
138	0xbeebb099	-0.4603317
139	0x3d125cef	0.03573316
140	0xbeb1c7c6	-0.34722728
141	0x3ed11683	0.40837488
142	0x3ec02180	0.37525558
143	0xbf1d0c44	-0.6134684

encoder.lstm.bias_ih_l1 f4 [24]
0	0x3ffc9a9e	1.9734685
1	0x3ec9b43f	0.3939533
2	0x3fe9973a	1.8249276
3	0x3e94fb39	0.29097918
4	0x3f17601d	0.5913103
5	0x3f4f28fc	0.8092191
6	0xbfe51e9e	-1.7899969
7	0xc05c0f5a	-3.438437
8	0xc027e6f6	-2.6234717
9	0xc0393815	-2.894048
10	0xc0744314	-3.8165941
11	0xc0831cef	-4.097282
12	0xbe771ca6	-0.24132022
13	0x3e25be65	0.16185911
14	0xbdb56245	-0.08856634
15	0xbedc7f9e	-0.43066114
16	0x3be3d059	0.006952327
17	0x3e640ed1	0.22271277
18	0x40049faa	2.0722451
19	0x3f296aa4	0.66178346
20	0x3fa6ad0d	1.3021561
21	0xbef07135	-0.4696137
22	0x3fa0ee0a	1.2572644
23	0x3fd2d0bc	1.6469951

encoder.lstm.bias_hh_l1 f4 [24]
0	0x3f98d337	1.1939458
1	0x3f2a8ae7	0.666182
2	0x3f8c6b21	1.0970193
3	0x3f21edaa	0.6325327
4	0x3f6adea4	0.9174597
5	0x3fa7db3d	1.3113781
6	0xc003a286	-2.0567946
7	0xc05cb455	-3.4485066
8	0xc03acf05	-2.9188855
9	0xc033f633	-2.8119018
10	0xc04e7688	-3.2259846
11	0xc08661ef	-4.199455
12	0xbed47243	-0.41493425
13	0x3e2a6a63	0.16642146
14	0xbe2fdece	-0.17174837
15	0xbe6dc55f	-0.23219822
16	0x3efaa979	0.48957422
17	0x3de85313	0.1134397
18	0x400c6f15	2.19428
19	0x3f021e0e	0.5082711
20	0x3f2e84ae	0.68171203
21	0xbf04e04b	-0.51904744
22	0x3fa79989	1.309373
23	0x40064afb	2.0983264

decoder.lstm.weight_ih_l0 f4 [52, 6]
0	0xbed34ef9	-0.4127119
1	0xbf7f4c12	-0.9972545
2	0x40085769	2.130335
3	0xbf8fc73b	-1.1232675
4	0xbc5c4cbc	-0.013446029
5	0x3e518454	0.20460635
6	0xc0230f6e	-2.5478168
7	0xbfaed9ef	-1.3660258
8	0x3f9198e4	1.1374784
9	0xc010af5f	-2.2607038
10	0x3efa078e	0.4883389
11	0xbfb87049	-1.4409267
12	0xbfb49436	-1.410773
13	0x3f8a88cc	1.0822997
14	0xbfbded22	-1.4837992
15	0x3ddecc45	0.10878805
16	0xc023d9a7	-2.5601594
17	0x3efc16ce	0.4923615
18	0xbf4f0272	-0.80863106
19	0x3f1854e7	0.5950455
20	0xbee527d8	-0.4475696
21	0x3ec090d5	0.37610498
22	0x40294c90	2.645298
23	0xbe21baab	-0.15793864
24	0x3f127cea	0.57221854
25	0xbe92831e	-0.2861566
26	0x3d8ec4ab	0.06971105
27	0x3ebbc8ba	0.3667658
28	0xbec424de	-0.38309377
29	0x3dc21835	0.094772734
30	0x3e00c0b5	0.12573512
31	0xc01a34e2	-2.4094777
32	0x409b4689	4.8523602
33	0x3fdd271b	1.7277559
34	0xbfce95b7	-1.6139439
35	0xbf1e7a00	-0.6190491
36	0xc06c6934	-3.693921
37	0x3d519637	0.051168647
38	0xbf46fb01	-0.7772675
39	0x4042cf22	3.0438924
40	0xbffb91fc	-1.9653926
41	0xbfef35d0	-1.8688297
42	0xc0735bca	-3.8024774
43	0xbf297572	-0.6619483
44	0xc1113b01	-9.076905
45	0x3c5f4040	0.013626158
46	0x3ff43ceb	1.9081091
47	0x3fe7830f	1.8086871
48	0x3f4b4498	0.7940154
49	0x3f45a95c	0.77211547
50	0xc01b1cf9	-2.4236434
51	0xbe78f817	-0.24313389
52	0xbe22bf22	-0.15893224
53	0xbee16fc6	-0.4403059
54	0xbfa1ad4a	-1.2631009
55	0x3fa93bbe	1.3221357
56	0xbfdb037e	-1.7110441
57	0xbfa65d24	-1.2997174
58	0xbf4014fd	-0.75032026
59	0xbdfc96fc	-0.123334855
60	0xc06f9e75	-3.7440464
61	0xbf833afc	-1.0252376
62	0xc05629fe	-3.346313
63	0xbfa5a818	-1.2941923
64	0x3f70177b	0.9378583
65	0x41025e33	8.147998
66	0x3f1952ec	0.59892154
67	0x3fb52028	1.4150438
68	0x407c945c	3.9465551
69	0xbf18b533	-0.5965149
70	0x4033589f	2.802284
71	0x406a3f7e	3.6601253
72	0x4094525e	4.6350546
73	0xc03766eb	-2.8656566
74	0x3ea138e9	0.31488732
75	0xbfa91cb7	-1.3211888
76	0xc002875e	-2.0395122
77	0x401dd019	2.4658263
78	0x4067a25b	3.6192844
79	0xbf15f0cd	-0.5857056
80	0x4119215e	9.570646
81	0x3f16b5e1	0.58871275
82	0xbfbb6c16	-1.464236
83	0x3f3d7c29	0.7401758
84	0xbf4de11b	-0.8042161
85	0xbf4f54d6	-0.80988824
86	0x409d4301	4.914429
87	0xbf8da991	-1.1067373
88	0x40bb0ae2	5.8450785
89	0xbe907ca3	-0.2822009
90	0xc07a9745	-3.9154828
91	0xc011515c	-2.2705908
92	0x3fc51708	1.5397654
93	0xbf91a2c6	-1.13778
94	0xc035db7d	-2.8415215
95	0x3eb1154c	0.3458656
96	0x3f8910ad	1.0708214
97	0x4105ec4e	8.370192
98	0x40554c9c	3.3328009
99	0x3f9b99bc	1.2156291
100	0x4109ebb0	8.620041
101	0x3e96cecc	0.29454648
102	0xbf99cd8b	-1.2015852
103	0x3faaee1a	1.3353913
104	0x3f2f625e	0.6850947
105	0xbdd806b2	-0.10548152
106	0xbefa5acb	-0.48897395
107	0xbe385194	-0.1799987
108	0xbfa9a717	-1.3254117
109	0x3fe0234f	1.7510775
110	0x3fddefde	1.7338827
111	0x4118cb48	9.549629
112	0x400da768	2.2133427
113	0x3f535db5	0.8256486
114	0xc0780f60	-3.8759384
115	0xc062d9d1	-3.5445445
116	0xbf3bad9c	-0.7331178
117	0xc035b37b	-2.8390796
118	0x3f87edb3	1.0619415
119	0xbee6952f	-0.45035693
120	0x3f3817fa	0.71911585
121	0x402be9e5	2.6861508
122	0xc158cbb2	-13.54973
123	0x40b51cf9	5.6597867
124	0x403b0768	2.922327
125	0x40961279	4.689755
126	0x3d5a6561	0.05331934
127	0x3f54d5e7	0.8313889
128	0xc0a2ef66	-5.0917234
129	0x4079c544	3.9026651
130	0x40043c98	2.0661983
131	0xbf0cbb9e	-0.5497378
132	0x3f1e0a48	0.6173444
133	0x407ca469	3.9475348
134	0xbed31ce6	-0.41232985
135	0x3ef387ed	0.4756464
136	0xc02796ce	-2.6185794
137	0x3f5eeed4	0.8708317
138	0x3fa2da90	1.272295
139	0x3e1dbfe8	0.15405238
140	0x4011795c	2.2730322
141	0x3ed03765	0.40667263
142	0xbf7af4d4	-0.9802983
143	0x404aa8f9	3.1665633
144	0x3fba4c02	1.4554446
145	0x3f80bb4e	1.0057161
146	0xbe6dff8a	-0.23242012
147	0x3fac5d07	1.346589
148	0x3f102dc2	0.5631982
149	0xbf60e3c8	-0.87847567
150	0x40e6aa6e	7.2083044
151	0xbfcd6faf	-1.6049708
152	0xbf52d2a4	-0.8235266
153	0xc0014f13	-2.0204513
154	0xbfc733b4	-1.5562654
155	0x3f26bd63	0.6513273
156	0xbf777ce5	-0.9667495
157	0x3eb8b2e6	0.3607399
158	0xc0653428	-3.5813084
159	0x3f1c36b7	0.6102099
160	0x3ef9b5af	0.48771426
161	0x3f30291f	0.68812746
162	0xbf51973d	-0.81871396
163	0xbf416ed6	-0.7555975
164	0xbef94849	-0.48687962
165	0xbeb48ab2	-0.35262066
166	0x3f378dc8	0.71700716
167	0xc047eced	-3.1238358
168	0x3fcf0211	1.6172506
169	0x3fe093b4	1.7545075
170	0x3fb9b319	1.4507781
171	0xbc8e3090	-0.01735714
172	0x40ca46ff	6.3211665
173	0x3d1a2481	0.03763247
174	0xbef71a71	-0.4826236
175	0xbe959562	-0.29215533
176	0xbeacbc39	-0.33737352
177	0xbe4ec601	-0.2019272
178	0x3f48204f	0.781743
179	0xbf2726cc	-0.65293574
180	0x3f834e82	1.0258334
181	0xbfc4abd9	-1.5364944
182	0xbef40570	-0.47660398
183	0x3de24ddc	0.11050007
184	0x3e88508d	0.26623955
185	0x3d7c1c08	0.06155017
186	0x40b0851f	5.51625
187	0x40087995	2.1324208
188	0xc072cfda	-3.7939363
189	0xc0d1e46b	-6.559133
190	0xbed442ff	-0.41457364
191	0xbf427820	-0.75964546
192	0xbfb2d603	-1.3971561
193	0xbf4d2221	-0.801302
194	0xbfac1307	-1.3443307
195	0xbf7cb16c	-0.98708224
196	0x3d088b04	0.0333357
197	0xc08caabc	-4.3958416
198	0xbfb22b89	-1.3919536
199	0xbeb1e81a	-0.34747392
200	0xc009717e	-2.147552
201	0xbdca995d	-0.09892533
202	0x3e5b2746	0.214017
203	0x4033ab51	2.8073313
204	0xbf964fb0	-1.1743069
205	0xbf49708e	-0.7868737
206	0x3e7dd28e	0.24787351
207	0xbf3c4409	-0.73541313
208	0x3e05969b	0.13045733
209	0x3eaec4a7	0.3413441
210	0xc0d0bcb1	-6.5230336
211	0x3fd2ea53	1.647776
212	0xbef2f65a	-0.47453576
213	0xbffeb9aa	-1.990041
214	0x3ec2ae02	0.38023382
215	0x3e785333	0.24250488
216	0x40262057	2.5957239
217	0x400e49aa	2.223246
218	0xbe10fd4f	-0.1415913
219	0x3f21cc9f	0.6320285
220	0xc010a5f7	-2.2601297
221	0x408b0bbd	4.345183
222	0xbf2220e4	-0.6333144
223	0x3fbc5939	1.4714729
224	0xc0a4e8ba	-5.153409
225	0x3f43ede4	0.7653487
226	0x3fd12b01	1.6341249
227	0xbedf251d	-0.43583003
228	0x3e8dbd70	0.27683592
229	0xc091d1be	-4.5568533
230	0xc001d88b	-2.0288417
231	0xc058637d	-3.3810723
232	0xbef7db48	-0.48409486
233	0xbeeda0a1	-0.46411613
234	0x3f2acbe2	0.6671735
235	0xbc879b90	-0.01655367
236	0x3ea18463	0.31546316
237	0xbeef0df3	-0.4669033
238	0x3ddd773e	0.10813759
239	0xbe9c1ba2	-0.30489832
240	0xbf3be325	-0.7339347
241	0xc0415e5b	-3.021384
242	0x400bb8b9	2.1831496
243	0xc0324ac5	-2.7858136
244	0xbde1b60e	-0.11021052
245	0xc002647b	-2.0373828
246	0xbef1529b	-0.47133335
247	0xbff2a992	-1.8957999
248	0x3b4ea1dd	0.0031529584
249	0x3e23c1e2	0.15991929
250	0xbf4863a6	-0.7827705
251	0xbf7ec3fd	-0.99517804
252	0xbf846ea7	-1.0346268
253	0x4059213e	3.392654
254	0xbf788040	-0.97070694
255	0xbe111cf1	-0.14171197

decoder.lstm.weight_hh_l0 f4 [52, 13]
0	0x3e499f1d	0.19689603
1	0x3dcc2386	0.09967713
2	0x3c8a6318	0.016892955
3	0xbe9dd6dd	-0.3082799
4	0xbf7b879a	-0.98253787
5	0x3d94c739	0.07264561
6	0xbdfe7116	-0.12423913
7	0xbe37c38c	-0.17945689
8	0x3e89c4c7	0.26907942
9	0xbf486b2e	-0.78288543
10	0x3ac20202	0.0014801624
11	0xbe3e66e7	-0.18593942
12	0xbd1dd993	-0.038537573
13	0x3f93050d	1.1485916
14	0xbd5be64e	-0.053686433
15	0xbc3aaa59	-0.011393153
16	0xbe30049b	-0.17189257
17	0xbf334fe1	-0.7004376
18	0xbddbb216	-0.107273266
19	0x3eb2baac	0.34908044
20	0xbeddae57	-0.43297073
21	0xbe437946	-0.19089231
22	0xbc74fba4	-0.014952574
23	0x3cd212dd	0.02564376
24	0xbe130db9	-0.14360704
25	0xbe923cde	-0.28562063
26	0xbcd241d1	-0.02566615
27	0xbe774554	-0.2414754
28	0xbf07ef3d	-0.53099424
29	0x3e68e9e9	0.2274548
30	0x3fd66028	1.6748095
31	0xba7f8c32	-0.0009748369
32	0x3e908232	0.2822433
33	0xbef2beb7	-0.4741113
34	0xbf639b52	-0.88908875
35	0xbda33d42	-0.079706684
36	0x3f1bcd05	0.6085971
37	0xc006d7b6	-2.106916
38	0x3e9a49b3	0.30134353
39	0xbda840a7	-0.082154565
40	0x3efd53b3	0.4947792
41	0xbe708bd1	-0.23490836
42	0xbea0c0e1	-0.31397155
43	0x3fa9b939	1.325965
44	0x3d932443	0.07184651
45	0x3b166451	0.0022947977
46	0xbe57f3e0	-0.21089125
47	0x3de535c4	0.111918956
48	0x3d55288e	0.05204063
49	0x3e122d20	0.14275026
50	0xbea6ded8	-0.3259189
51	0x3e48619c	0.19568485
52	0x3d49e6a2	0.049292214
53	0xbb73cdaf	-0.0037201454
54	0x3d7edc14	0.0622216
55	0xbb213645	-0.0024598998
56	0x3f17bf85	0.5927661
57	0x3cacfa84	0.021115549
58	0xbb1caaa3	-0.0023905418
59	0xbcc77ea2	-0.024352375
60	0x3cc10328	0.023561075
61	0xbde7fe8e	-0.11327849
62	0xbb30e19c	-0.0026989942
63	0x3dc0b8e3	0.09410264
64	0xbc996732	-0.018725965
65	0xbe5bfe8e	-0.21483824
66	0xbf8914fa	-1.0709527
67	0x3d2275a6	0.03966298
68	0x3f5f59db	0.87246484
69	0x3f5eaa32	0.8697845
70	0x3fd12a0b	1.6340955
71	0x3f6ac9d5	0.9171422
72	0x3fb0fd13	1.3827232
73	0xbf7b871d	-0.9825304
74	0x3ef24618	0.47319102
75	0xbf8c2af8	-1.0950613
76	0x3f555271	0.8332892
77	0x3fc0af2f	1.5053462
78	0xbf665af5	-0.8998254
79	0xbf6392aa	-0.88895667
80	0xbce2ca5b	-0.027684381
81	0x3fcf6bcc	1.6204772
82	0xbf823b12	-1.0174277
83	0xbdaa74cd	-0.08323059
84	0x3fb566d1	1.4172002
85	0x3f6f40c2	0.9345819
86	0xbfd24e86	-1.6430213
87	0x3fca8f50	1.5824986
88	0x403f1667	2.9857423
89	0xc00a354f	-2.1595037
90	0x401ac18c	2.4180632
91	0xbca5139a	-0.020150948
92	0xbe10f210	-0.1415484
93	0x3ca2fc30	0.019895643
94	0x3dac64b3	0.08417644
95	0x3ea43bec	0.32076967
96	0x3d13e6ef	0.036108907
97	0x3c937418	0.017999694
98	0xbd593891	-0.05303246
99	0xbcb83be8	-0.022489503
100	0xbd0cc41e	-0.03436672
101	0xbe15287b	-0.14566223
102	0x3d97954e	0.074015245
103	0xbdd83262	-0.10556485
104	0x3e09a9b9	0.1344365
105	0xbdf89e0b	-0.12139519
106	0x3c8c5064	0.017128177
107	0xbd2e43a6	-0.042544983
108	0x3d8c2136	0.06842272
109	0x3db4fb86	0.08837037
110	0x3e131db0	0.14366794
111	0xbe2ff48a	-0.17183128
112	0x3df87814	0.12132278
113	0xbf06b5c2	-0.5262109
114	0xbe6de49d	-0.2323174
115	0xbd71ad89	-0.059003387
116	0xbe65c051	-0.22436644
117	0x3d85bc46	0.06530051
118	0x3d075746	0.033042215
119	0xbe827c9b	-0.2548569
120	0xbc3a068c	-0.0113541
121	0x3e649bea	0.22325101
122	0xbd80292b	-0.06257852
123	0x3cf62f38	0.030051813
124	0xbdcf5f8d	-0.10125647
125	0xbdb40fc2	-0.08792068
126	0xbed37b7d	-0.41305152
127	0x3e386049	0.1800548
128	0xbec91bcb	-0.39279017
129	0x3e2daaed	0.16959734
130	0xbedd7490	-0.43252993
131	0x402e0f20	2.7196732
132	0xbeab0e5b	-0.3340939
133	0x3f455f7a	0.7709881
134	0x3db4761c	0.0881159
135	0x3e6a606d	0.22888346
136	0x400db1e9	2.2139838
137	0xbf90b8d9	-1.1306411
138	0xbfd66bf7	-1.6751698
139	0x3f21e178	0.63234663
140	0x3dd368af	0.10322701
141	0xbe3badf5	-0.18328078
142	0x3f991a14	1.1961083
143	0x3fe2ed4b	1.7728666
144	0xbfcc0b51	-1.5940953
145	0xbf1f8b65	-0.62322074
146	0x3d456c66	0.04819908
147	0xbc9249b1	-0.017857404
148	0xbf8f47a2	-1.1193736
149	0x3f448b36	0.7677492
150	0x3ec3f70e	0.38274425
151	0xbfa6548b	-1.299455
152	0x3eeff3b7	0.46865627
153	0x3f250880	0.64466095
154	0xbebf15dc	-0.37321365
155	0x3e88d304	0.26723492
156	0xbe8cdefc	-0.27513874
157	0x3f249dea	0.6430346
158	0x3ed7374b	0.42034373
159	0xbe9ae90e	-0.30255932
160	0x3ffbc384	1.9669042
161	0x3f838d1d	1.0277439
162	0xbe441ecb	-0.19152372
163	0x3e1d124e	0.15339014
164	0xbf02a34b	-0.51030415
165	0x3db3e573	0.08783998
166	0x3f0fdf64	0.5620024
167	0x3eca46f8	0.3950727
168	0x3df9fd11	0.12206472
169	0x3fe922c4	1.8213735
170	0x3f5ce065	0.862799
171	0x3e3ed5c4	0.18636233
172	0xbef4a53e	-0.4778232
173	0xc0998bb6	-4.7983046
174	0x3eead656	0.4586665
175	0xbf96862d	-1.1759697
176	0x3f74a185	0.9555896
177	0xbfa5c8a0	-1.2951851
178	0xbff87ffe	-1.941406
179	0xbebf8c16	-0.37411565
180	0x3fdae331	1.7100583
181	0xbe757bca	-0.23973003
182	0x3fded659	1.7409164
183	0x3f9bdc39	1.2176582
184	0xbfc9fe12	-1.5780661
185	0x3f460bb2	0.77361596
186	0x3fbc1271	1.4693128
187	0x3f564501	0.8369904
188	0xbeb3ba21	-0.35102943
189	0xc01b958f	-2.4310033
190	0x3f6fce47	0.9367413
191	0xbef518eb	-0.47870573
192	0xbf57014c	-0.83986354
193	0x4005bc2f	2.0896108
194	0xbf0ce1af	-0.55031866
195	0xbfcf61ee	-1.6201761
196	0x3e2e8fe5	0.17047079
197	0x3de13dd4	0.10998121
198	0xbf970660	-1.179882
199	0x41010fca	8.066355
200	0x3f0fee81	0.56223303
201	0xbfdbc06f	-1.7168101
202	0xbd9f4e33	-0.07778587
203	0x3fb7b2b2	1.4351408
204	0xc02af183	-2.6709907
205	0x3da98109	0.08276565
206	0x3e948f57	0.2901561
207	0xbece8bb1	-0.4034095
208	0xbdfaa13a	-0.12237783
209	0xbf59fcbd	-0.85151273
210	0xbeca16b7	-0.39470455
211	0xbf54ffd3	-0.83202857
212	0xbfa46826	-1.2844284
213	0x3e737bec	0.23777741
214	0xbe8b7a1e	-0.27241606
215	0xbf55ac50	-0.83466053
216	0x3ec6b0ba	0.38806707
217	0xbe36c6e6	-0.17849311
218	0xbef941c8	-0.48683
219	0x3f2ea17d	0.6821516
220	0xbf2bf3ab	-0.6716868
221	0xbe223e6b	-0.15844123
222	0x3e2d036b	0.16895835
223	0x3c905d69	0.017622666
224	0x3de89102	0.11355783
225	0x3eb8c186	0.36085147
226	0xbc60c22a	-0.013718167
227	0xbd0ddb3e	-0.034632914
228	0x3e272dad	0.16326018
229	0x3ce190da	0.02753489
230	0x3e060e5a	0.13091412
231	0x3e0ed775	0.13949378
232	0xbe019bc8	-0.12657082
233	0x3d5bfa7a	0.05370567
234	0xbfcb2705	-1.5871283
235	0xbf5ae9a2	-0.85512745
236	0xbf517e1a	-0.8183304
237	0xbf5c3bfc	-0.8602903
238	0xbdd10c5e	-0.10207437
239	0x3ff35945	1.9011618
240	0xbd82e715	-0.06391732
241	0xbf6a795e	-0.9159144
242	0x3ebed164	0.37269127
243	0xbf2c8a95	-0.6739896
244	0xbed9ab27	-0.4251339
245	0x3f46071b	0.7735459
246	0x3f21f948	0.63271
247	0xbff5d1a0	-1.9204597
248	0xc045b984	-3.089448
249	0xbdb6bb79	-0.08922476
250	0xbee990a9	-0.4561818
251	0xbebf1310	-0.3731923
252	0x3f80cce7	1.0062531
253	0xbea7971a	-0.3273247
254	0x3fb96561	1.4484063
255	0x3f4e7fdd	0.80663854

decoder.lstm.bias_ih_l0 f4 [52]
0	0xbdcd0230	-0.10010183
1	0xbd341388	-0.04396394
2	0x3f623b07	0.8837132
3	0x3f638af5	0.88883907
4	0xbe0b3f13	-0.1359828
5	0x4019307c	2.3935843
6	0x403e5070	2.9736595
7	0x3d41e71a	0.047339536
8	0x3f934a2c	1.150701
9	0x3f2ed9d0	0.68301105
10	0x401b2d90	2.424656
11	0x3fa556b5	1.2917086
12	0x4003cf79	2.0595381
13	0xbfe0dbc7	-1.7567071
14	0xbf78acd6	-0.97138727
15	0xc021de5a	-2.5291963
16	0xbfb1bea8	-1.3886309
17	0xbf6d67df	-0.9273662
18	0xbfc1afca	-1.5131772
19	0x3e37d4c8	0.17952263
20	0xbf22d3d0	-0.6360445
21	0xbfe72b9b	-1.8060182
22	0xbf7032d6	-0.9382757
23	0xbd1222d1	-0.035677735
24	0xbe5268f2	-0.20547846
25	0xbf7c6569	-0.9859224
26	0xbe32af32	-0.17449644
27	0x3dad9a9d	0.08476756
28	0xbdeea2f2	-0.11652173
29	0x3f0c92cd	0.549115
30	0x3d84c613	0.06483092
31	0xbfb94f63	-1.4477352
32	0x3fabf966	1.3435485
33	0x3e918f25	0.28429523
34	0xbeae56f6	-0.3405072
35	0x3f829c8a	1.0204022
36	0x3fa20429	1.265752
37	0xbf8820c3	-1.0634998
38	0x3f93c301	1.1543885
39	0x3f74553b	0.9544255
40	0x3f48ab7f	0.7838668
41	0x3f864955	1.0491129
42	0x3f5ba774	0.8580239
43	0x401d6745	2.459428
44	0x401a6e5e	2.4129863
45	0x3ecc62b6	0.3991906
46	0xbf6351f5	-0.8879693
47	0x3f9ecae4	1.2405667
48	0x3e5e400a	0.21704116
49	0x3f4ebdc6	0.8075832
50	0xbe00da0e	-0.12583181
51	0x3ecdb5e7	0.40177843

decoder.lstm.bias_hh_l0 f4 [52]
0	0x3e3a2d44	0.1818133
1	0xbe9f6def	-0.3113856
2	0x3f744ab5	0.95426494
3	0x3f459b2c	0.771899
4	0xbd901318	-0.07034892
5	0x4019fa44	2.4059
6	0x403a0ce5	2.907037
7	0x3d8f5992	0.06999506
8	0x3f8a4ead	1.080526
9	0x3f642e7a	0.8913342
10	0x40157db2	2.3357968
11	0x3f74ea5b	0.956701
12	0x40059b31	2.0875971
13	0xbfa8643b	-1.3155588
14	0xbf810cc8	-1.0082026
15	0xc01f0dce	-2.4852176
16	0xbf7788ea	-0.9669329
17	0xbf56a83f	-0.83850473
18	0xbfd7946f	-1.6842173
19	0x3cd53bdf	0.026029525
20	0xbeb800e8	-0.3593819
21	0xbfd8a0be	-1.6924055
22	0xbf235006	-0.6379398
23	0xbe9dd83e	-0.30829042
24	0x3e617f60	0.22021246
25	0xbfb3a915	-1.4035975
26	0xbe741515	-0.23836167
27	0x3d3f054c	0.04663591
28	0xbe5978c5	-0.21237476
29	0x3f4d08e0	0.8009167
30	0xbd0c091c	-0.034188375
31	0xbf93b3a7	-1.15392
32	0x3f84aa89	1.0364543
33	0x3ef1a35c	0.47194946
34	0x3e104b13	0.14091139
35	0x3f8ec322	1.11533
36	0x3fb62846	1.423104
37	0xbf87be9f	-1.0605048
38	0x3fab1f3b	1.3368906
39	0x3f491b3a	0.7855717
40	0x3f10bcca	0.5653807
41	0x3fbac5b0	1.459158
42	0x3f92dff1	1.1474591
43	0x3fffe4e6	1.9991729
44	0x402ea4d2	2.7288098
45	0x3f1a1513	0.60188407
46	0xbf64703a	-0.89233744
47	0x3fa74bd3	1.3070015
48	0x3e76d299	0.24103774
49	0x3f71d2e6	0.9446243
50	0xbc266ee6	-0.010158276
51	0x3e9effc5	0.31054512

decoder.lstm.weight_ih_l1 f4 [52, 13]
0	0xc06487db	-3.570792
1	0x405ae8a6	3.4204497
2	0x3efdbd15	0.4955832
3	0x3eea8a98	0.45808864
4	0x3e9178d8	0.2841251
5	0xbf1f0b1d	-0.6212633
6	0x402045eb	2.5042675
7	0x3f4f461c	0.80966353
8	0x40e7f5f7	7.248775
9	0xbe80d11f	-0.25159547
10	0xbfd3f7a3	-1.6559948
11	0xbde244dc	-0.1104829
12	0xbf7caaa7	-0.98697895
13	0x40cbf738	6.373928
14	0xc009da00	-2.1539307
15	0x3f7074e5	0.93928367
16	0x404d290d	3.2056305
17	0xc157ac4e	-13.479567
18	0xc1569be8	-13.413063
19	0x3f8227c1	1.0168382
20	0x40e227cf	7.0673594
21	0x40beea7a	5.9661226
22	0x402b779e	2.6791759
23	0xbf86f225	-1.0542647
24	0x3f1b96b0	0.60776806
25	0x3f9b3e79	1.212844
26	0xbef977d3	-0.4872423
27	0x3e91e5af	0.28495547
28	0x3da9d775	0.08293048
29	0xbf8787f3	-1.0588363
30	0xbf2bb0fb	-0.67066926
31	0xbd6a3963	-0.057183634
32	0x3eb48bf0	0.35263014
33	0x412c3411	10.762712
34	0xc0821dd1	-4.0661397
35	0xbef3f049	-0.4764426
36	0xbda6a6f3	-0.08137312
37	0xbf99646f	-1.1983775
38	0x3ed6c0fc	0.4194411
39	0xc107d68b	-8.489879
40	0xc11a4343	-9.641421
41	0x3f1cfa21	0.61319166
42	0xbd16fd4c	-0.036862656
43	0xbfc45579	-1.5338584
44	0x405bdf05	3.435487
45	0xbed72859	-0.4202297
46	0x4022d692	2.5443463
47	0xbf86282d	-1.0481011
48	0xc0058c96	-2.0867057
49	0x40f72446	7.723178
50	0xc0d1d0d7	-6.556743
51	0xc005fb1c	-2.0934515
52	0x409c3e6e	4.882621
53	0xbe8ba608	-0.2727511
54	0xbc5a671b	-0.013330246
55	0x3ecd94e4	0.40152657
56	0x4028455d	2.6292336
57	0xbe9ce9e6	-0.306472
58	0x3e9746b6	0.29546136
59	0x416d3731	14.825974
60	0xc102d92f	-8.178023
61	0x3f8b5ecb	1.0888304
62	0x3f93e0d3	1.1552986
63	0x3fcc6449	1.5968105
64	0xbd970898	-0.07374686
65	0xc081d76e	-4.0575476
66	0xbf852a4e	-1.0403535
67	0xbe8a6303	-0.27028665
68	0x3ed34864	0.41266167
69	0xbebb3db3	-0.3657051
70	0xbf01dcd8	-0.50727606
71	0x3ef72be4	0.48275673
72	0xbf2df853	-0.6795704
73	0x3f00c807	0.5030522
74	0x3f1c956a	0.6116549
75	0x3f2aead7	0.6676459
76	0xbf8a988c	-1.0827804
77	0xbed507ec	-0.41607606
78	0x3f88236f	1.0635813
79	0xbe9f63b5	-0.31130758
80	0xbd207593	-0.039174628
81	0xbec9249e	-0.3928575
82	0xbf16e79f	-0.58947176
83	0x3d10184d	0.035179425
84	0xbf43e76e	-0.7652501
85	0xbd0ce6a4	-0.034399644
86	0x3f913311	1.1343709
87	0xbf55de20	-0.8354206
88	0xbfddeb00	-1.7337341
89	0xbfc8bb58	-1.5682173
90	0xbe27a05d	-0.16369767
91	0xbf4ab96a	-0.7918917
92	0x3f1cd50c	0.61262584
93	0xc03521b8	-2.830183
94	0x3f85dceb	1.0458044
95	0xc04ac346	-3.1681685
96	0xc0c8d042	-6.275422
97	0x403554f7	2.8333108
98	0xbdcef694	-0.10105625
99	0xbfb970ce	-1.448755
100	0x40536e00	3.3035889
101	0x401a4393	2.4103744
102	0xbff5d41b	-1.9205354
103	0x402fb5e7	2.7454774
104	0x3c149385	0.0090683745
105	0xbdb25a88	-0.08708674
106	0x3eca9daf	0.39573428
107	0xbef777cf	-0.48333594
108	0xbf653304	-0.8953097
109	0xbe298c6b	-0.16557471
110	0xbdede54b	-0.11616
111	0x3d197251	0.037462536
112	0x3e992bc4	0.29916203
113	0xbf984727	-1.1896714
114	0xbe0d71cd	-0.13812943
115	0x3f021460	0.5081234
116	0x3c1c3918	0.009535097
117	0xbe3f121e	-0.18659255
118	0x3f39d37a	0.7258831
119	0x3f6213ad	0.8831127
120	0x3f0a325f	0.5398311
121	0xc03e2cda	-2.9714875
122	0x3f6c26f3	0.9224693
123	0x3eaedd24	0.34153092
124	0x3f3f0dd6	0.74630487
125	0x409029cd	4.5051026
126	0x3f9f8daf	1.2465113
127	0xbf871f73	-1.0556473
128	0xbf6bc133	-0.92091674
129	0x3f86ec51	1.0540868
130	0x3fa8537c	1.3150477
131	0x3da91e27	0.08257704
132	0xbc9b549c	-0.018961243
133	0x3e66a53d	0.22523971
134	0xbf8939b6	-1.0720737
135	0xbd1e0431	-0.038578216
136	0x3c69db6a	0.014273504
137	0xbd4cbaa1	-0.04998267
138	0xbe22606b	-0.15857093
139	0xbf5456b8	-0.8294482
140	0xbec28eb8	-0.3799951
141	0xbfc02532	-1.5011351
142	0xbecfa2ce	-0.40553898
143	0x3e6a1d51	0.22862746
144	0xbf8a8866	-1.0822875
145	0xbdeeb256	-0.11655109
146	0x3f4e3afa	0.8055874
147	0x400346b3	2.0511901
148	0x40349e4d	2.822162
149	0x3ff91698	1.946002
150	0xbf8204a1	-1.0157663
151	0xbf93aaef	-1.153654
152	0xbf0eea86	-0.55826604
153	0x3f0824d6	0.5318121
154	0xbef422c9	-0.4768279
155	0xbf3a2c3c	-0.72723746
156	0xc0064cea	-2.0984445
157	0x402a4d6b	2.6609752
158	0x3ed781ea	0.42091304
159	0xbe57d4f7	-0.21077333
160	0x407a73b9	3.9133132
161	0xbf1ca198	-0.6118407
162	0x3fbda010	1.4814472
163	0x3ebd29f9	0.36946085
164	0x40429c33	3.0407836
165	0xbf8ae426	-1.0850875
166	0xbef2f275	-0.47450605
167	0xbf4b1574	-0.7932961
168	0x401fab04	2.494813
169	0x4047dc0c	3.1228056
170	0x3fad39b2	1.3533232
171	0x3f21da2b	0.6322352
172	0x3e3f6d9e	0.1869416
173	0xbf29831f	-0.662157
174	0xbfdda9c4	-1.7317433
175	0xbf183e2e	-0.5946988
176	0x3e9aedd5	0.30259576
177	0x41102cb7	9.010917
178	0xc08bf97a	-4.3742037
179	0xc00fd6da	-2.2474885
180	0xbf1bb2c0	-0.60819626
181	0xc01e104e	-2.4697452
182	0x3fb7ceb8	1.435996
183	0x3f51599b	0.8177735
184	0xc08d4308	-4.4144325
185	0xbfa879ff	-1.316223
186	0x3ed608fa	0.41803724
187	0x3f369c40	0.7133217
188	0x3fad9d6a	1.3563664
189	0xc1437883	-12.216922
190	0xc0cbd49c	-6.3697033
191	0xbef9da6a	-0.4879945
192	0xbca8be6e	-0.020598616
193	0x3f9bc575	1.2169634
194	0xbee71046	-0.45129603
195	0xc0df32ef	-6.9749675
196	0x3f4d8e8c	0.80295634
197	0x3ee6f9a4	0.45112336
198	0xc093aeea	-4.615102
199	0xbfffcf32	-1.9985106
200	0xbe6d0c35	-0.23149188
201	0xc00d074e	-2.2035708
202	0xc17d512a	-15.832315
203	0xc1144f32	-9.269335
204	0xbfafb410	-1.3726826
205	0xc03daaf4	-2.9635592
206	0xc0076122	-2.1153035
207	0xc021603b	-2.5214984
208	0xc014360d	-2.315799
209	0xc18f63d4	-17.923744
210	0x3ec21dc2	0.37913328
211	0xc028e411	-2.63892
212	0x40e9bbac	7.304159
213	0x3f039c56	0.51410425
214	0xc0c65eb6	-6.1990614
215	0x4090ea41	4.5285954
216	0xbfd290db	-1.6450456
217	0xbfd33b08	-1.650239
218	0x3fc4108a	1.5317547
219	0xbf8e4e84	-1.1117711
220	0x3ea33120	0.31873417
221	0x41ecc30b	29.595236
222	0xc059d4c6	-3.4036117
223	0x3ef6796c	0.48139513
224	0xbf164e5d	-0.5871332
225	0x40af81da	5.484601
226	0xbed49ad5	-0.41524377
227	0xbf75c1e7	-0.95998996
228	0x417facfc	15.9797325
229	0x40bff5aa	5.9987383
230	0xc0010f74	-2.0165682
231	0x3fdc1924	1.7195172
232	0x404de7a2	3.2172627
233	0xc00e9084	-2.2275705
234	0x4053dbc2	3.310288
235	0xc0189099	-2.3838255
236	0x3e781612	0.24227169
237	0xbf78ec14	-0.97235227
238	0x3f8f7316	1.1206996
239	0xbf234578	-0.63777876
240	0x3e48382a	0.19552675
241	0xbed0fc7b	-0.40817627
242	0xc0a2275e	-5.0673056
243	0xbf30b678	-0.69028425
244	0x3ec07895	0.37591997
245	0x3f0619b2	0.5238296
246	0xbfcb6f37	-1.5893315
247	0x408671c0	4.2013855
248	0x409143fa	4.539548
249	0x3e6e9fb1	0.23303105
250	0x3cf75f40	0.030196786
251	0x402bb8bd	2.6831505
252	0x400cc828	2.1997166
253	0x3fd647b4	1.6740632
254	0xbfd010d7	-1.6255139
255	0xc16c5da9	-14.772866

decoder.lstm.weight_hh_l1 f4 [52, 13]
0	0x3f46f0a9	0.7771097
1	0x40036153	2.0528152
2	0x3faa9250	1.3325901
3	0xbe4d6634	-0.20058519
4	0x3fee9a57	1.8640851
5	0xbe881653	-0.26579532
6	0xbf18e103	-0.5971834
7	0x3d7f771a	0.062369443
8	0x3fbe1c68	1.4852419
9	0x3edf8dee	0.4366297
10	0xbf548df0	-0.8302908
11	0xbf97216f	-1.1807078
12	0x3e2cbdac	0.16869229
13	0xc063ce9c	-3.5594854
14	0x40a21efd	5.0662827
15	0x3f938539	1.1525031
16	0xbf5744bb	-0.8408925
17	0xbe8b4c63	-0.27206716
18	0x3fc68ab5	1.551108
19	0xc0331c98	-2.7986202
20	0xc089c47b	-4.3052344
21	0xbfae7c2d	-1.3631645
22	0xc0689792	-3.634251
23	0x40bfacdd	5.9898515
24	0xc083947e	-4.1118765
25	0x3d96c0b2	0.073609725
26	0x3df89967	0.12138634
27	0x3d9227e9	0.071365185
28	0xbf09df4e	-0.5385636
29	0xbdc2505c	-0.094879836
30	0x3f0fdf73	0.5620033
31	0x3d1cb9e1	0.038263205
32	0xbfdae608	-1.710145
33	0xbda7c6fc	-0.0819225
34	0xbc72c34c	-0.01481707
35	0xbe5b747b	-0.21431153
36	0xbe7ed351	-0.24885298
37	0xbd88ca35	-0.06679193
38	0x3e761227	0.24030362
39	0xc044ff5d	-3.0780861
40	0xc1663d23	-14.389926
41	0xbfeb2466	-1.8370483
42	0x3fc2630c	1.5186477
43	0xc023ebf4	-2.5612764
44	0xbf95f82a	-1.1716359
45	0x409b9e6f	4.86309
46	0xbe597dc6	-0.21239385
47	0xc063a0a8	-3.5566807
48	0x4056906e	3.3525653
49	0xc047352e	-3.1126208
50	0xbfb7bb90	-1.4354115
51	0xbf904024	-1.1269574
52	0xbe876111	-0.26441243
53	0xbdc7de1b	-0.0975916
54	0x3f70eed6	0.94114435
55	0x3d82aa92	0.0638019
56	0x3f2c2c53	0.67255133
57	0x3ece648b	0.40311083
58	0xbedddba2	-0.4333163
59	0xbd12734f	-0.035754498
60	0xbc32b15c	-0.010906544
61	0x3de9cfbf	0.114165775
62	0x3ba61beb	0.005069246
63	0x3b24b605	0.0025132906
64	0x3e5078c9	0.20358576
65	0x3f515eae	0.81785095
66	0xc054f362	-3.327355
67	0x3fde6b26	1.7376449
68	0x3eb98023	0.36230573
69	0x406e1ae2	3.7203908
70	0x3fb0e5e5	1.3820158
71	0x3ffebbd4	1.990107
72	0x3d81f533	0.06345596
73	0x3f651606	0.8948673
74	0xbe96273e	-0.29326814
75	0x3f85367e	1.0407255
76	0xbed4396c	-0.4145006
77	0x3f564abb	0.8370778
78	0x3e97eb8f	0.29671904
79	0x3cdbd752	0.026836071
80	0x3eadf2bd	0.33974257
81	0x3dc27eaf	0.09496819
82	0x3dbbb99d	0.09166262
83	0xbccdaa9a	-0.025105763
84	0x3ee50808	0.4473269
85	0xbc05509f	-0.008136897
86	0xbde37f88	-0.11108309
87	0xbdc6e575	-0.09711734
88	0x3e23fe53	0.16014986
89	0xbdd96130	-0.1061424
90	0x3d6c3d8a	0.057675876
91	0x3f93a868	1.1535769
92	0xbf56efbb	-0.8395955
93	0x3f786f87	0.9704518
94	0x3e5c4730	0.21511531
95	0x3f77acc8	0.9674802
96	0xbf92fe5d	-1.1483876
97	0xbfbeb974	-1.4900346
98	0xbdec96ce	-0.11552201
99	0xbe3f4c9b	-0.18681566
100	0xbfaf6d9a	-1.3705323
101	0xc0216bb5	-2.522199
102	0xbea5137a	-0.32241422
103	0xbe80bc11	-0.25143483
104	0xbddd942a	-0.10819276
105	0xbf0030e9	-0.5007463
106	0xbe278539	-0.16359414
107	0xbcc3480c	-0.023838066
108	0xbb819089	-0.0039539975
109	0x3c29369b	0.01032796
110	0xbe8a103f	-0.2696552
111	0x3cdd6368	0.02702494
112	0xbe1be33c	-0.15223402
113	0xbdc9dd7c	-0.09856698
114	0x3b8b2240	0.0042460263
115	0xbe16755e	-0.1469321
116	0x3cc9f82c	0.02465447
117	0xbfc20f38	-1.5160894
118	0xbfcad4b4	-1.5846162
119	0xbf24db3b	-0.6439702
120	0x3e7cbe21	0.24681903
121	0xbf0a364b	-0.53989094
122	0xbe38332f	-0.17988275
123	0xbfb85f8b	-1.4404157
124	0x3e10a22a	0.1412436
125	0xbf84c620	-1.0372963
126	0xbfbf15a0	-1.4928474
127	0xc0264145	-2.5977337
128	0xc0308f1c	-2.7587347
129	0xbf4b095b	-0.7931115
130	0xbdddd654	-0.108318955
131	0x3d648dfb	0.055799466
132	0xbdf3e2d9	-0.11908502
133	0x3d3c80bc	0.04602121
134	0xbc9cc2b4	-0.01913581
135	0xbdbd8bb0	-0.09255159
136	0x3e5232a2	0.20527127
137	0xbc93aa30	-0.018025488
138	0x3f068585	0.52547485
139	0x3cd02c71	0.025411816
140	0x3e96b981	0.29438403
141	0xbe2f8b83	-0.17143063
142	0xbd18f5c8	-0.03734377
143	0x3e87dcf2	0.26535755
144	0x40356247	2.8341234
145	0x3e2f52d8	0.17121446
146	0xbf36b185	-0.71364623
147	0xbf269aec	-0.6508014
148	0x3ef5a07c	0.47974002
149	0xbf0b25f2	-0.54354775
150	0xbe139b2b	-0.1441466
151	0xbeea4d41	-0.45762065
152	0x3f6bfd33	0.92183226
153	0x3f0133da	0.50469744
154	0x3e8a2651	0.26982358
155	0xbdedad15	-0.116052784
156	0x40cf6181	6.4806523
157	0xc0b564aa	-5.668538
158	0xc0b646f4	-5.6961613
159	0xbf641769	-0.8909822
160	0x3f93f393	1.1558708
161	0x3ec89265	0.3917419
162	0xb9551c4d	-0.00020323806
163	0xbe8fc037	-0.28076336
164	0xbeba1d0b	-0.36350283
165	0xbe49825c	-0.19678634
166	0x3fc7e632	1.5617125
167	0x404e0417	3.2189996
168	0xbf31af9f	-0.694086
169	0xbf66d535	-0.9016908
170	0x3fe4b7b8	1.7868567
171	0x3fe3176f	1.7741526
172	0xbea5732b	-0.3231443
173	0x3f10da4c	0.56583095
174	0xbde8e888	-0.11372477
175	0xbf6443fd	-0.8916624
176	0x3d25bb0d	0.04046159
177	0x3fd1fc6a	1.6405156
178	0xbe1e3435	-0.15449603
179	0x3fa22d30	1.267004
180	0x3fb47888	1.4099283
181	0x3e4287ae	0.1899707
182	0x4020c646	2.5121017
183	0xc15d9ef4	-13.851307
184	0x3e2e4b6a	0.17020956
185	0xc0686847	-3.6313646
186	0x3fce6481	1.6124421
187	0x40052bb2	2.080792
188	0x40d62f25	6.693255
189	0xbc1916ec	-0.009343844
190	0x40bd2caf	5.9117045
191	0x40ea0801	7.313477
192	0x40b0274a	5.504796
193	0x40335b02	2.8024297
194	0x40379925	2.8687222
195	0x3f0c9971	0.54921633
196	0xc02adca4	-2.6697168
197	0xbf28456f	-0.6573095
198	0xbea1d157	-0.31605026
199	0xbf2a4de2	-0.6652509
200	0xbf2d6ff6	-0.67748964
201	0x403463a1	2.8185809
202	0x3e09e872	0.13467577
203	0xbe1a6a93	-0.15079717
204	0xbed0f001	-0.40808108
205	0x3f4922c5	0.7856868
206	0xbe055b65	-0.13023145
207	0xbf9292f0	-1.1451092
208	0xc0180449	-2.3752615
209	0x3ae54c6b	0.0017494088
210	0xbfc8ee42	-1.569771
211	0xc0256598	-2.5843258
212	0xc00e7a5c	-2.2262182
213	0xbf2fc091	-0.6865321
214	0xbf62851c	-0.8848436
215	0xbe9843db	-0.2973927
216	0x3e9ad118	0.3023765
217	0xbfde2b74	-1.7357011
218	0x4072897c	3.7896414
219	0x3d607bb4	0.054805472
220	0x3d1cd2fb	0.038287144
221	0xbf0fa12f	-0.5610532
222	0x3bb4e748	0.005520735
223	0x4047bdab	3.1209514
224	0x3f576f00	0.8415375
225	0xbf055510	-0.5208292
226	0x3f0d7f46	0.5527233
227	0xc04a8903	-3.1646125
228	0x3ddf3cd4	0.10900274
229	0x3f761fa7	0.9614205
230	0x3d5dffe9	0.054199133
231	0x400d00c1	2.203171
232	0x3ef26f82	0.473507
233	0x3fa31795	1.2741572
234	0x3f8fb386	1.1226661
235	0x40548910	3.3208656
236	0xbf756f96	-0.9587339
237	0xbf3daad9	-0.7408882
238	0x3f85719b	1.0425295
239	0x4040a76c	3.0102186
240	0xbfc4699d	-1.5344731
241	0x3e43aaa6	0.19108066
242	0x3fba2e45	1.454537
243	0x3e305936	0.17221531
244	0x3f838989	1.0276347
245	0x3fd00d07	1.6253976
246	0x3f3cacd3	0.7370121
247	0x40009e8e	2.0096774
248	0xbe52100d	-0.20513935
249	0xbff18067	-1.886731
250	0xbee76eca	-0.45201713
251	0xbfde9486	-1.7389076
252	0x3f2bcdf0	0.6711111
253	0xbf0a0092	-0.5390712
254	0x3d0bffba	0.034179427
255	0xc049cbac	-3.1530561
