py/model/autoencoder/res/21-08-2021_201019/epoch_76.model (torch, 17551 bytes, 18 tensors)

encoder.lstm.weight_ih_l0 f4 [24, 13]
00000000: bd01 a7be c08f 9cbe c809 ea3e c189 fbba
00000010: 7eb6 983e 5e02 173d f168 95be 9800 903e
00000020: 6b65 0cbd c367 b0bc e024 f6bd 43d1 c73f
00000030: c4fb 9bbf 64a6 d4bd f3e6 0dbf 95e5 0dbf
00000040: 6456 063d a630 be3d c681 17bf 97b6 1f3e
00000050: 776e 053e 375b 8c3d 4205 46bd 5131 87bc
00000060: 154c 37bf 2f3a 213e 8ed0 21be e05d 1abd
00000070: 0eb7 8f3b 5725 243e 272e 193e b32c 08bd
00000080: f6e8 913d e5e0 20be 92ae b3be f176 39bf
00000090: 5eae af3f 86e4 363e c72b ffbc fca2 3f3c
000000a0: ed04 863f 8843 023f f926 e0bd 5f20 80bd
000000b0: cdbb 683f 9a9b 24be 9d8c cfbd 41aa 04be
000000c0: c058 c43d da0a c03d ed79 89c0 56f7 a13d
000000d0: 5253 acbd 132b 47be c356 833e dc41 5f3d
000000e0: ff9d 84be 93a5 083d d9cf 76be 0c9e be3e
000000f0: acda 8bbe 92cc 753e 36d8 9639 b6c0 673e
00000100: 898e 593c c69f d7bd fc92 0cbd d257 8cba
00000110: a4b0 fcbf 1a9c 943d 61f7 53be 169b f93d
00000120: 9256 65bd 048c d2bd c445 d33c e3f5 4b3e
00000130: 88c8 633d 4e46 b43d 358a bbbe 3f06 063e
00000140: a30a f13c 8f30 213e 8458 863d 709b 4f3d
00000150: 986e 20c0 43b1 19c0 0db6 763e 91ad 16be
00000160: 6848 eebe c41b 43bf ebe6 e4bf 0e46 403f
00000170: 6d41 0040 d9ca c83f 7c0d 59be a6f8 803f
00000180: b07e 3e40 5261 21bf 14be 41be a3a0 b83f
00000190: d18e 823f a593 2840 2bc3 0540 ce14 7b3d
000001a0: a2f2 6dbc b7b1 e73d a84a 53be 9210 57be
000001b0: 690f 353e 3659 c6be 2c08 87be 50ab dbbe
000001c0: 2842 5340 14c8 2740 075b 9240 c998 9d3f
000001d0: 339a 0cbd e995 703d 495e 173f f5db 5b3f
000001e0: 34bc 323e 100e d13b 1595 473f 8dbe 08c0
000001f0: 389a d7bf 9af8 b8bc 0183 273e affb c33c
00000200: 8d93 9cc0 af59 893f 5867 f6bf 5464 1e3e
00000210: 4310 9d3d 3131 233d f2ca a0bf 172d d9bc
00000220: c73b 003f 9b23 8a3c e45f a9bd d313 413e
00000230: 5509 07be 3260 d03f 6b24 8abe 9aa9 f33e
00000240: 8337 4640 e6b7 7640 b730 e9c0 939f d23d
00000250: 0695 d9c0 caaa 163e c734 0e3f 453b e5bd
00000260: 0668 0abe 1792 473e cea8 d73e 607c 943e
00000270: 95c6 5a3e 70f0 b03d 684a 3a3d 29c6 ed3d
00000280: cd86 dabd 54f9 4d3e 31e7 c03f 9210 543f
00000290: 9bac fc3d 183b 9fbe be64 363e f156 1240
000002a0: 98ab e63e 8e21 2abc d3d8 863f 69bb a13f
000002b0: 619e 09bf 91e6 d93d 84f8 f2bd 8727 a3be
000002c0: f5b0 d9be 1d6f 6ebe 83e5 2c3d 6425 993e
000002d0: 2c10 a43f 0ac9 2abf 5092 88bd 64ad 833c
000002e0: d29b 9ebc 1c4e f5bd 8764 2b3e 8383 12be
000002f0: 1c46 e0bb e754 34be 5117 a73f 5a38 db3f
00000300: a5a6 cbbf 9a93 103f 4f16 a4bd 7909 4e3e
00000310: 86b5 b1be cb6d a7be b168 e73d 1fac 95be
00000320: e75d 38be e357 283d 2e63 5f3c 5e4f 40bd
00000330: 1877 28bd 2063 cbbd 762b 98bf f884 1640
00000340: 7484 683f 02e9 71bd f946 aebd 9b9d 283b
00000350: 8fba 493f 855d 46bd 6fea 4c3d cc9a b2bd
00000360: ff29 293d 9ec8 053d 8966 b83d b420 f33c
00000370: 4885 23bc 82da abbe 011b f63d e42b d53d
00000380: 596b 7740 66e9 0e3e ef4b 393f a9ad 873d
00000390: 9076 3fbe 76e0 923c a008 1e3e d0a0 fabe
000003a0: 82fe 1bbe 2e13 40bd d693 acbd 173c 21bd
000003b0: 37b6 25be 3091 8dbd 38b0 8e3d 44df f4bd
000003c0: 4b3d 04bf 352e 06bf eed6 aebd 2bc5 ee3d
000003d0: 956e 7bbd a9e4 12bf 487e 89be f22e 11be
000003e0: 4726 f6bf c0d8 c1bf f8fd aa3e c01e 003c
000003f0: 5774 4fc0 91d3 323f c534 9a3e 8553 873e
-0.32618514 -0.30578423 0.45710588 -0.0019190834 0.2982673 0.036867492 -0.29181626 0.28125453
-0.034276407 -0.021533852 -0.12018752 1.5610737 -1.2186208 -0.10383299 -0.55430526 -0.5542844
0.032797232 0.09286623 -0.59182394 0.15596996 0.1303042 0.06853335 -0.048344858 -0.016503008
-0.71600467 0.15744852 -0.15802214 -0.037687182 0.0043858355 0.16029869 0.14959012 -0.033245753
0.07124512 -0.1571079 -0.35094124 -0.72447115 1.3725088 0.17860612 -0.031148804 0.011696573
1.0470253 0.50884295 -0.109449334 -0.06256174 0.9091156 -0.16074982 -0.10134242 -0.12955572
0.0958724 0.0937707 -4.2961335 0.07908504 -0.084143296 -0.19450025 0.2565213 0.054506168
-0.2590179 0.03336103 -0.24102725 0.37229955 -0.2731527 0.24003819 0.0002877132 0.22632107
0.013278612 -0.10528521 -0.034319863 -0.0010707325 -1.9741406 0.072563365 -0.20699836 0.121877834
-0.055990763 -0.10280612 0.025790103 0.19918017 0.055611163 0.08802472 -0.3662888 0.1308832
0.029424017 0.1574118 0.06559852 0.050685346 -2.50675 -2.4014442 0.24092884 -0.14714648
-0.46539617 -0.7621424 -1.788297 0.75106895 2.0039933 1.5686904 -0.2119655 1.0075881
2.9764824 -0.63039124 -0.18920165 1.4424022 1.0199834 2.6340115 2.090037 0.061299138
-0.01452318 0.11313193 -0.20633948 -0.21002415 0.1768166 -0.38739938 -0.26373422 -0.4290414
3.3009129 2.6215868 4.5736117 1.2312251 -0.034326743 0.058736715 0.5912824 0.858825
0.17454606 0.00637985 0.77961856 -2.1366303 -1.6843939 -0.02257948 0.16358568 0.023923723
-4.8930116 1.0730494 -1.9250288 0.1546796 0.07669117 0.039841834 -1.2561934 -0.026510758
0.50091213 0.016862681 -0.08270243 0.18855219 -0.13187154 1.6279356 -0.2698091 0.47590333
3.0971382 3.8549743 -7.2871966 0.102843426 -6.7994413 0.14713588 0.5554928 -0.111929454
-0.13516244 0.19489323 0.42120975 0.2900114 0.21364816 0.0863961 0.045481116 0.11610062
-0.106702425 0.20114642 1.5070554 0.82837784 0.123376094 -0.31099772 0.17811868 2.2865565
0.4505279 -0.010383977 1.053492 1.2635318 -0.5375729 0.1063968 -0.11863807 -0.31866094
-0.4251782 -0.23284574 0.042211067 0.2991134 1.2817435 -0.6671301 -0.06668532 0.01607389
-0.01936141 -0.11977789 0.16737567 -0.1430798 -0.006844295 -0.17610513 1.3053991 1.7126572
-1.5910231 0.5647522 -0.080120675 0.20120801 -0.34708804 -0.32700953 0.11299265 -0.2923288
-0.18004571 0.04109944 0.013634486 -0.04695069 -0.0411292 -0.09931016 -1.1888263 2.3518658
0.9082711 -0.059060104 -0.08509631 0.0025728706 0.7880029 -0.04842903 0.05002826 -0.087209314
0.041299816 0.032662027 0.09003932 0.02967868 -0.009980507 -0.33565146 0.12016869 0.10408762
3.865927 0.13956222 0.7238149 0.0662492 -0.18697572 0.017929297 0.15432978 -0.48950815
-0.15233806 -0.04689329 -0.08426635 -0.039363947 -0.1618279 -0.06912458 0.06967205 -0.11956647
-0.51656026 -0.52414256 -0.08537088 0.116587006 -0.061384756 -0.5738016 -0.26854157 -0.14178064
-1.9230431 -1.5144272 0.33396888 0.007819831 -3.2414758 0.69854075 0.30118385 0.26430908

encoder.lstm.weight_hh_l0 f4 [24, 6]
00000000: dbaa 12bd 5406 ccbd bc41 fabc cebf 143e
00000010: ec6a abbb 7515 0cbd 78d6 ee3b f7a6 60bc
00000020: c847 2bbc dda8 a5bb c0f5 d43b 1f82 38bc
00000030: a246 b7bc 58e1 46bd 3c7a 6ebb 34ab 813c
00000040: be3b a9bd 334e 793d 4680 efbd 399b 113d
00000050: 11ac 113c 2dcf cd3d 62f2 1dbd 18c0 0fbd
00000060: c494 d3b9 dc2d 2b3c a300 733c e21a 88bc
00000070: 1d90 643c a74c a23b aded bc3c 1a31 1ebb
00000080: a13c 8f3d 704a d6bd fd6c 973d 3301 bf3c
00000090: 0b99 e53c 5a2b 62bf a360 f9be 51b9 0b3e
000000a0: 41ef 86bf 11b1 7dbf dad1 42bf c4bb b7bd
000000b0: 981e a9bf 8463 2340 38a7 cabe b7b5 ddbe
000000c0: a079 aabf 4283 96bf 912b f5bd 0879 813f
000000d0: ccee 23c0 40e1 4e3f b025 6ebd cade 3cbf
000000e0: 9a09 43bf 2eb5 9ebf 013a c8bf 6aee bebd
000000f0: b5da c9be d629 c7be bafb 96be 67d2 ed3e
00000100: 4f8b 14bf 6a90 74bd 133a 04bf 5bd0 f3be
00000110: a0e6 66bf f316 ba3d 7d68 d5bf f2fa 48be
00000120: c636 fbbd 9496 f2bd e4f9 babb 9468 9f3d
00000130: ae7d 47bd c52a 993c c788 363d 46db 213e
00000140: 3e2f 3a3e 72e2 313c a19e c23d 93d2 a73d
00000150: c671 9bbe 0767 92be 4d1d 19be 2769 6f3e
00000160: 9d68 a3be 95e2 de3d 28dc 1cbd 9e61 4d3d
00000170: dee3 99be c4a9 723e e483 a3be a765 443e
00000180: 066a d43c 65b0 aebc 655a 7abc e190 693c
00000190: 71ec 17bd 4050 9eba 18c5 85bd a84f a8bd
000001a0: e635 623d 715b febd 0c3a a63d 85c1 533d
000001b0: 8c46 68ba eca0 e43b c281 92b9 4242 15bb
000001c0: 90be 1139 c39e 323a 5df4 83bd 3b5c ed3e
000001d0: 624b adbc 4070 853e c352 69bd b1ea 3c3d
000001e0: b966 06b9 506f 853b b074 c5ba 7b47 b2ba
000001f0: 6cd2 e63b 6398 bbbb ae67 373c 92f0 4dbb
00000200: 4809 d33b 262c 33bb 7641 ed3b 73c8 ffba
00000210: b48f 073b a3dc eabc 6bae f3bc bcd4 2d3d
00000220: e5b1 35bd e9df 47bc 7c60 4bbd 8f8a d33c
00000230: 0daa 2ebe 72ce 3b3e 2e1b 28be 392b 27bd
-0.03580747 -0.099621445 -0.030548923 0.14526293 -0.005231252 -0.03420015 0.0072887503 -0.0137116825
-0.010454126 -0.0050555305 0.0064990222 -0.011261492 -0.022372548 -0.04855475 -0.0036388775 0.015828706
-0.08263348 0.060865592 -0.11694388 0.035548422 0.0088911215 0.10049281 -0.038561232 -0.035095304
-0.00040355895 0.010447945 0.014831695 -0.016614381 0.013950375 0.0049529853 0.023062551 -0.0024138154
0.06993986 -0.104634166 0.07393835 0.023316002 0.028027078 -0.883474 -0.4870654 0.13644911
-1.0541764 -0.99098307 -0.7610146 -0.0897136 -1.3212461 2.552949 -0.39580703 -0.433027
-1.3318367 -1.1758807 -0.119712 1.0115061 -2.56145 0.80812454 -0.05814141 -0.7377745
-0.76186526 -1.2399042 -1.5642701 -0.093228176 -0.39424673 -0.38899106 -0.29488927 0.46449587
-0.5802507 -0.059708036 -0.51651114 -0.476199 -0.90195656 0.090864085 -1.6672512 -0.19626978
-0.122663066 -0.11845127 -0.005706059 0.077836186 -0.048703842 0.018697152 0.044564035 0.15806302
0.18182084 0.010857211 0.09502912 0.08194461 -0.3036024 -0.2859423 -0.14952584 0.23379956
-0.3191575 0.10883061 -0.038295895 0.050141923 -0.3005666 0.23697573 -0.31936562 0.19179402
0.025929462 -0.021324346 -0.015280341 0.014255733 -0.037090722 -0.001207836 -0.06531733 -0.08218318
0.055227183 -0.12419785 0.0811654 0.051698226 -0.000886061 0.006977191 -0.00027943967 -0.0022775088
0.00013899268 0.00068138185 -0.06443093 0.4635943 -0.02115411 0.26062202 -0.056963693 0.046122257
-0.00012817503 0.0040721074 -0.0015064683 -0.0013601625 0.007044127 -0.005724953 0.011194153 -0.0031423909
0.0064403154 -0.0027339547 0.0072404696 -0.0019514695 0.002068502 -0.02866966 -0.029746255 0.042439207
-0.044359107 -0.01219938 -0.04965256 0.025822906 -0.17057057 0.18340471 -0.16416618 -0.040812705

encoder.lstm.bias_ih_l0 f4 [24]
00000000: a399 e03f 76f3 1ebf 8140 f93f 9b73 0d40
00000010: 60c0 75be 24f9 15bf 5e9f a6c0 2ae5 8ac0
00000020: 8a3b c3bf ea1e a9c0 1c49 85c0 20e0 dcc0
00000030: 897e 43bf 23c4 a0bf f602 24c0 f657 c73f
00000040: fa85 e0bf a033 d4bf cd58 2dbf 4d64 983f
00000050: f7e1 283e 5409 50be 271a 4a3f b142 1b3f
1.7546886 -0.6209024 1.947281 2.210181 -0.23999166 -0.58583283 -5.206954 -4.340474
-1.5252545 -5.2850237 -4.1651745 -6.902359 -0.7636495 -1.2559856 -2.5626807 1.5573719
-1.7540886 -1.6578255 -0.67713624 1.1905609 0.16492449 -0.20316058 0.78946155 0.6064864

encoder.lstm.bias_hh_l0 f4 [24]
00000000: 27ba fd3f 4b71 33bf 35e7 ba3f 1746 d23f
00000010: c6de ba3e 95b3 6fbf 0494 a9c0 2727 89c0
00000020: 8ffb 90bf 710f a7c0 db6d 79c0 c958 d4c0
00000030: 9a3b bebf d33c e7bf b27d 0bc0 3b14 a53f
00000040: 35cd a9bf 36fc b4bf 3c57 11bf 4cd7 b13f
00000050: dcb3 2e3e 96bf 1a3e 3235 fb3e 882d 843f
1.9822434 -0.70094746 1.4601809 1.642764 0.36498088 -0.93633395 -5.2993183 -4.2860293
-1.132677 -5.220635 -3.89733 -6.635838 -1.4861939 -1.8065437 -2.1795468 1.2896799
-1.3265749 -1.4139469 -0.56773734 1.3893828 0.17060798 0.15112147 0.49064022 1.0326395

encoder.lstm.weight_ih_l1 f4 [24, 6]
00000000: 27b8 e03d 087b c6be b586 113f 2467 77bf
00000010: 1680 a13f 0a1c 21bf d359 683e 13f3 6f3d
00000020: 1ce7 ad3e 1f47 f9be 6f41 9cbd 22a6 67bc
00000030: 0f36 5cc0 ed2e 833f 09ea 3440 2f8b ab3f
00000040: 921d 953e 7a46 21c0 e148 3b40 b173 043f
00000050: 2f8f 5cc0 8f0e bf3f 9698 293f 329b 71c0
00000060: 0c94 483e 4154 5a3f c177 29c0 bc2e c6bf
00000070: 20ce 863c ffba d4be fbb7 043e 24f2 4b3f
00000080: 5396 da3e f087 e93b 93f2 dabe 036d 2abf
00000090: 970e f140 4c07 49bf d4a8 5341 2158 7dc0
000000a0: 0d52 5340 0462 b23f 6841 26bf 90c4 54be
000000b0: af39 78be c309 e2c0 ad8e 983f 39d6 8bc0
000000c0: 95f2 6bc0 ba6a 0741 4fee a93f 5377 46c0
000000d0: 00af e03f c211 9f3f d110 3940 11cd 7dbf
000000e0: dc52 cf3f 9531 78bf 7e58 e13f 8cb7 38c1
000000f0: ea4f c940 bee4 0341 cc74 c1bf 2bd3 f8c0
00000100: deea 2640 0b57 6a3f 882e b840 dc83 5abf
00000110: 5212 06bf 9de1 2bc0 c5c3 d03f 4d3a 9040
00000120: ee85 79bf 61bb 0cbe 7760 843e 2eae 373e
00000130: 3685 00bf 0d00 b6be 28d6 21bf a648 17bd
00000140: 0c2b e53d feb3 fdbd 59b3 a63f c8e4 3cbe
00000150: d9d8 39be 5239 0fbf 1f38 b43d fd04 923f
00000160: e33f 1e3e 5c97 3e3e 3908 45c0 c79a b73e
00000170: b4ec abbf f260 abbf 561d 38be ed5d cc40
00000180: cc13 7f3e 94ea eb3d eab1 c93f fea0 21be
00000190: 2cff e0bd 3c7b 4c3d 2c0f ed3e edb6 cfbf
000001a0: 179d 71bd 02bb 57bf 2de0 393d 5030 0a3e
000001b0: 9886 1d3f d252 5d40 de96 70be 6ab6 afbe
000001c0: ecaf b23e 7ead 64c0 00bb 74bf 4d23 d93e
000001d0: 9026 ddbf 761b b43f b6e5 b2bf 58b8 4cc0
000001e0: e1e6 20c0 9f24 76c0 3f15 c1c0 4974 2740
000001f0: 79f9 eabe d530 4dc0 727d 1640 2745 6abe
00000200: 0262 c93f 7a5f 8d3f 9f68 923e 3349 8cc0
00000210: 3654 60c0 6943 d6bf f42e 4b3e 7dd3 3e40
00000220: 96c8 7ebf c9a7 68bb 5afc 18c0 09de e0bf
00000230: d068 dabf d8fe 923d b8ba ddbe a932 9f40
0.10972624 -0.3876574 0.5684617 -0.96641755 1.2617214 -0.6293341 0.22690515 0.058581423
0.33965385 -0.48687074 -0.07629668 -0.01413873 -3.4407995 1.0248696 2.8267844 1.340185
0.29124123 -2.5199265 2.9263232 0.5173903 -3.4462392 1.4926318 0.6624845 -3.7750974
0.19587725 0.8528481 -2.6479342 -1.5483012 0.01645571 -0.41548917 0.12960808 0.7966635
0.42692813 0.0071268007 -0.42763194 -0.6657259 7.533031 -0.7852676 13.228718 -3.958504
3.301883 1.3936162 -0.6494355 -0.20778108 -0.24240755 -7.0636916 1.1918541 -4.3699
-3.686681 8.463556 1.3275851 -3.101033 1.7553406 1.2427294 2.8916514 -0.9914103
1.6197162 -0.96950656 1.7605131 -11.544811 6.291005 8.243345 -1.5113769 -7.7757773
2.6080852 0.9153907 5.75568 -0.8535745 -0.52371705 -2.6856453 1.6309744 4.507117
-0.97469985 -0.13743354 0.25854847 0.17937538 -0.50203264 -0.35546914 -0.632174 -0.036934517
0.11189851 -0.123878464 1.3023483 -0.18446648 -0.18149127 -0.5594684 0.08799767 1.1407772
0.15454058 0.18612427 -3.0786269 0.35860273 -1.3431611 -1.338896 -0.17979941 6.3864655
0.24909896 0.115193516 1.575742 -0.1578407 -0.1098617 0.049922213 0.46300638 -1.62277
-0.058987703 -0.84269726 0.045379806 0.13494992 0.615335 3.45818 -0.23495051 -0.34318858
0.34899843 -3.5730891 -0.9559784 0.42409745 -1.7277393 1.407088 -1.3976352 -3.1987514
-2.5140917 -3.8459852 -6.0338435 2.6164725 -0.45893458 -3.2061055 2.3514066 -0.22877942
1.5733035 1.1044762 0.28595445 -4.3839355 -3.5051398 -1.6739322 0.1984213 2.9816582
-0.9952482 -0.0035500398 -2.3904023 -1.756776 -1.7063236 0.07177514 -0.43306518 4.974934

encoder.lstm.weight_hh_l1 f4 [24, 6]
00000000: 671d b73d 4599 3cbd ab8e 03bc 5099 8bbc
00000010: 4ac6 f93c 3801 c83c 320e 6a3b 7c24 53bc
00000020: 4f31 ae3b e947 333b ab66 babc 8e0e 66bb
00000030: 359d 8e3d 261e 483d 6d30 bdbd 956c 803d
00000040: fe17 babd a55c e7bd 70bb 8e3e e385 6ebc
00000050: 8332 e23d 972a 1bbe 0650 adbd 20d3 2f3e
00000060: 4dd0 ca3c 15f3 a43c 6d8b 253d ec4e e4bc
00000070: 3f12 443b 8e48 12bc 097d 053d c44b cd3c
00000080: 503b 1a3e 8470 653d 3006 003d f18a 993d
00000090: 0a3f 3dbe aae2 e03e 6d38 84bf 6e47 3abf
000000a0: 7f05 af3f de7e 44bf f3ef 6dbf f53f a5be
000000b0: 8855 eebe f7f3 c6bf e8bd 8d3e c465 84bf
000000c0: 462b 47bf c344 753e ce14 24bc 67d4 10c0
000000d0: fa5a 5a3d ff62 3ebd 8dc5 a3bf 44b2 94be
000000e0: d6e9 24be bed2 46bc 93da 823f 6c20 023f
000000f0: 92f7 493f 7e99 92be ea73 1c3f 837b 3b3f
00000100: 471a 1e3e 826d f7be 3829 85bc 9dc3 c1be
00000110: 354e 243f 0d47 5bbe 9bcb d03e 2291 2640
00000120: 3960 1d3b 4eb5 54ba cd59 61bb 0c1b 8bba
00000130: 4975 1c3b 075f d23a 4aba 1b3a 2e6f 75ba
00000140: d9b3 d3ba 5cd6 9e3a eec1 4eba d8fd 863a
00000150: b97a 933b e30f 05bb 606f a6b9 f6da 5fb9
00000160: c81a 413b d315 43ba 062d 6e3d a1a8 0c3d
00000170: 514a 89bd 1cb5 11bd bd4f 99bc e3a4 1cbb
00000180: 0fc6 1d3a afe5 1cb8 7110 f339 e3db 4e38
00000190: 4f92 bf3a 2078 bab3 a8dc d03a 9a94 b23a
000001a0: 22d7 2a3b 7501 89b9 80a5 f7ba b49a 93bb
000001b0: 8f82 bf39 d47f 783e bbde 9bbd dfab 34bd
000001c0: fb4e 393d 1be6 cbbb fb1a 6f3b 227e 553e
000001d0: dc71 0abd ca79 723e dd6e b43d a15e 443e
000001e0: bde2 9ebf 7901 44be 4b8e 7ebf 40b7 523f
000001f0: fcc1 a6be 626d 963f 68e4 043c c318 a33c
00000200: 648a c8bc 3d8d abbb c6b1 6dbb 79ed 94bc
00000210: 6a31 8bbd 5002 febd 45af 28be 3128 d2bc
00000220: b2ec 6bbe 172e 3f3e b9f1 2e3e 07ce c63e
00000230: f649 083f c5cb 8bbe c7e8 99be 1967 893e
0.08941155 -0.046044607 -0.00802962 -0.017040879 0.03049006 0.024414644 0.0035714027 -0.0128871165
0.0053159366 0.0027356094 -0.022754034 -0.003510389 0.069635786 0.048856877 -0.09237752 0.062707104
-0.090866074 -0.112969674 0.27877378 -0.014558288 0.110447906 -0.15152965 -0.08462529 0.17170382
0.024757529 0.020135442 0.04041617 -0.027869664 0.0029918102 -0.008928431 0.032589946 0.025060542
0.15061688 0.056015506 0.0312559 0.07497204 -0.18481079 0.4392293 -1.032972 -0.72765243
1.3673552 -0.76756084 -0.9294426 -0.32275358 -0.4654963 -1.5543202 0.2768395 -1.0343556
-0.77800405 0.23952012 -0.010014726 -2.262964 0.05330942 -0.04648113 -1.2794663 -0.29042256
-0.16104826 -0.012135206 1.0222954 0.5083072 0.7889339 -0.2863273 0.6111437 0.7323534
0.15439712 -0.48325735 -0.016255006 -0.37844554 0.64181834 -0.21413822 0.4078034 2.6026082
0.0024013652 -0.00081141747 -0.00343858 -0.0010612919 0.0023873618 0.0016050049 0.000594054 -0.00093625754
-0.0016151621 0.0012118327 -0.0007887174 0.001029904 0.0045007137 -0.0020303659 -0.00031744968 -0.00021348507
0.0029465426 -0.0007441912 0.058148406 0.034340505 -0.06703628 -0.03557311 -0.01871478 -0.002390199
0.0006018588 -3.7407208e-05 0.00046360822 4.9319013e-05 0.0014615747 -8.6831506e-08 0.0015934901 0.0013624609
0.002606817 -0.00026131762 -0.0018893927 -0.004504526 0.00036527633 0.24267513 -0.07610842 -0.04410922
0.045241337 -0.006222499 0.0036484587 0.20848897 -0.03379999 0.23679271 0.08810208 0.19176723
-1.2412945 -0.19141187 -0.9943587 0.8231087 -0.32569873 1.1752131 0.008111097 0.019909268
-0.024480052 -0.005235343 -0.0036269291 -0.018179642 -0.06796534 -0.12402785 -0.1647311 -0.02565393
-0.23039511 0.18669926 0.17084397 0.3882906 0.53237855 -0.273039 -0.30060408 0.2683647

encoder.lstm.bias_ih_l1 f4 [24]
00000000: 27d1 d93f 3b71 3c3e d910 1540 5fcb 833e
00000010: 32e5 fa3e 6529 d13e e5c1 1ac0 b306 82c0
00000020: b056 d9bf 1cf7 73c0 8b51 91c0 fcb0 2ec0
00000030: 1f7b 5dbe 50d0 213e 6025 2abe c9c4 37bf
00000040: bcb6 bd3d b0b7 5d3d 366a 0740 8b7a 043f
00000050: a89d 9b3f 249b a7be 686c 333f e229 df3f
1.7016953 0.18402569 2.3291533 0.25741097 0.49002987 0.40851894 -2.4180844 -4.063318
-1.697958 -3.8119574 -4.541204 -2.7295523 -0.21628998 0.15802121 -0.1661582 -0.71784645
0.092633694 0.054130256 2.1158576 0.51749486 1.2157488 -0.3273555 0.7008729 1.7434657

encoder.lstm.bias_hh_l1 f4 [24]
00000000: 6914 6c3f 8697 e93e 20f4 cc3f c355 193f
00000010: 30f2 503f 7b22 693f 5fd5 2bc0 2959 82c0
00000020: ac24 ffbf 3ab5 6ec0 71d5 7cc0 e33a 35c0
00000030: 10a1 c7be 4e7c 263e 8152 7fbe 9cf5 04bf
00000040: 3745 133f 31de 61bd a139 0f40 395b ba3e
00000050: a764 183f eee9 c0be fec3 403f 0477 0c40
0.92218643 0.45623416 1.6012001 0.59896487 0.8161955 0.9106824 -2.6848981 -4.073384
-1.9933066 -3.7298112 -3.9505274 -2.8317192 -0.38990068 0.16258356 -0.24933816 -0.5193727
0.5752749 -0.05514354 2.2378924 0.36397722 0.59528583 -0.37678474 0.7529906 2.1947641

decoder.lstm.weight_ih_l0 f4 [52, 6]
00000000: 1c0c 163f f0b0 14bf b6f6 ed3f 9f0d 66bd
00000010: 0456 cc3c f833 823e 1f32 62c0 a3d5 42c0
00000020: 4bc7 40be b849 9ebf 34b2 6a3f 8663 fac0
00000030: 88ef 0ebf 039d 6dbe e3bf 56bf 6227 083f
00000040: 4693 42c0 0fc0 69bb 9b93 08bf 005d 8f3f
00000050: 389f 6fbf 9533 3b3f fa41 8140 8bee 7abe
00000060: 62cb 9b3e d1dd 493f d2ce 2c3f 8935 e83c
00000070: bfc2 0bbe 9507 163e a9d7 60bf 036b 07c0
00000080: ba69 8f3e 02c1 9040 44a8 ffbf 0432 2cc0
00000090: d1e5 84c0 11de 3e3f a61f 47bf de9a 0240
000000a0: 9b4c 97c0 8d95 27c0 0097 93c0 8b13 77bf
000000b0: def9 17c1 47d0 90be f5b0 e23f 1891 2f40
000000c0: cd6e 17bf 35cc 40bc 2f2c 83bf 1d9b 66be
000000d0: 9ada a9be ea2c ab3e 23c1 d4bf dc23 d83f
000000e0: b24c 52c0 795d b3be 3054 abbf 1653 323f
000000f0: dd0b b4c0 74fc 8fc0 fa83 b6c0 5b91 58be
00000100: 5f26 8040 62c2 7b40 b887 363f dac4 0ec0
00000110: 0b32 4a3f df53 3d40 fdd2 4e3f 43ea 3140
00000120: 3ff0 c440 1b3c 1640 e427 ecbf 54dd 1a40
00000130: 741a b3bf 4925 00c0 f3c6 e43d 4d1d 21c0
00000140: 76df 7a41 4fda 1240 ab11 833f 4f43 5f40
00000150: 7ebc 23c0 f8f2 bbc0 d105 6840 8549 1b3e
00000160: 858b 8740 fde4 75bf 19aa 3cc0 3ece 3ac0
00000170: 2aa5 7640 2bf0 ddbe ef3b 19c1 6a4c 743f
00000180: afad 7e3f 12ea e040 30ca 58bf 6e0f 933f
00000190: 594b 4841 5a58 abbd fc7d 99bf c891 fa3f
000001a0: 6c94 763f d1ae 96be 8e54 eb3c 4fa1 da3c
000001b0: 4482 0b3f 9853 aa40 3e62 79be 12b9 3841
000001c0: cde3 9940 a941 b83f 6f16 eebf 339a e4bf
000001d0: be68 913d ff0f 4fc0 35f1 92bf 1792 83c0
000001e0: 0490 4ac0 a987 f340 8362 81c1 cdb2 f340
000001f0: 184b 9340 bb2b e240 5766 a740 442c b640
00000200: 63ce f5bf 54ea 5f40 3e28 a040 49a2 4f40
00000210: 7460 21c0 e8bc 9e40 ced6 0fc0 df16 88bf
00000220: e388 d2c0 1ae5 8b3f 2720 cc3f acf4 a43f
00000230: f258 00bf 18b7 1b3f 370d 143e 1f49 5e40
00000240: 4777 663f 4a1f 963d 66ff 1f40 5930 7dbf
00000250: 3157 2a40 4933 f7bf fb79 5441 cc74 00c1
00000260: 9372 ed3f 8b3c af3f bd8c 91c0 ce39 a33f
00000270: 060e d7bf cae7 573f 242d d6c0 d92f 523f
00000280: 5c8e 2e3f 6a9b aa3f ed65 aebf 2020 08c0
00000290: d63d 6fbf 5c48 8b3c e777 7940 c5a7 a4c0
000002a0: 2f3d 9d3f 4ca6 0440 aa1c 403f c78f 603d
000002b0: 31b1 0641 4f2c 3d3e 0c83 a7bf 3542 47be
000002c0: 6045 bc3e 9138 253e 1da5 973f 8937 91bf
000002d0: 35a2 9c3f d4c6 02c0 ae7e 23bf 7866 443e
000002e0: e9b3 793d 465a a33d 2f1e c440 8c53 4940
000002f0: 99fb 34c0 4a26 0dc1 5128 7abd caa8 5ebf
00000300: 61f0 2abf 9243 5d3f 3891 18c0 9b00 b4be
00000310: 2ff2 9dbf 8c63 cac0 e1e5 a2bf 20b9 77bf
00000320: 8d2d b9bd 9b63 8cbe 9414 9c3e 5ce2 1b40
00000330: 5d46 cabf 7d4f 6ebf f1c8 833e 4a26 59bf
00000340: 4a54 1e3e 7dde c43e 73e3 86c0 e488 d640
00000350: 3fbf 36c0 6142 19bf a162 b1bf 5f11 48bd
00000360: 031e f73f a3d0 0f40 3cd8 45be 9324 4a3f
00000370: 504d 3dbe ec34 ba40 5241 4140 8946 2a40
00000380: 3245 bdbf bbe3 1abf 51ea 933f 72f2 6cbe
00000390: dadd 2440 f5fd cbbf 53c7 31c0 5f4f aec0
000003a0: 4c96 68c0 d43d 033f 8040 8240 bd32 0740
000003b0: f9bc 97bf 110f a73f 696b a93e 0f4d f93e
000003c0: 5ea8 86bf 9128 ecbf 198f 013f 9892 5b3f
000003d0: 13f6 fdbe 1bce 5dc0 6d8f 45bf 70a7 fbbe
000003e0: 90fb 06bf 4716 643e a6d0 26c0 8597 7ebd
000003f0: 34c2 bbbf c9ba 6040 70ac b0bf ed99 103f
0.5861223 -0.58082485 1.8590915 -0.056165334 0.02494336 0.25430274 -3.5343091 -3.0442894
-0.18826024 -1.2366247 0.91678166 -7.824649 -0.55834246 -0.23204426 -0.83886546 0.53185093
-3.0402389 -0.0035667454 -0.5335023 1.1200256 -0.93602324 0.7312558 4.039304 -0.2450506
0.30428606 0.7885409 0.6750308 0.02834584 -0.13648508 0.1465133 -0.8782907 -2.1159065
0.2801035 4.5235605 -1.9973226 -2.6905527 -4.1530538 0.74557596 -0.77782667 2.0407023
-4.7281013 -2.6185029 -4.6121826 -0.96514195 -9.498503 -0.28283903 1.7710253 2.7432308
-0.59153444 -0.011767437 -1.0247859 -0.22520109 -0.33174592 0.33432704 -1.6621441 1.6885943
-3.285931 -0.3503225 -1.3385067 0.6965803 -5.626448 -4.499567 -5.7036104 -0.21149199
4.004684 3.9337392 0.7130084 -2.2307649 0.7898261 2.958244 0.8079069 2.7799232
6.154327 2.3474185 -1.8449674 2.4197588 -1.3992448 -2.0022757 0.11170759 -2.5174134
15.679556 2.2945745 1.0239767 3.4884832 -2.5583797 -5.8734093 3.625355 0.15164764
4.235781 -0.96052533 -2.947882 -2.918838 3.8538308 -0.43347296 -9.577132 0.954291
0.9948377 7.028573 -0.84683514 1.1489084 12.518395 -0.08366461 -1.1991572 1.9575739
0.96320224 -0.2943025 0.028726842 0.026688246 0.54495645 5.3227043 -0.24353883 11.545183
4.8090577 1.4395038 -1.8600596 -1.7859558 0.07100056 -3.2353513 -1.147986 -4.111583
-3.16504 7.61031 -16.173101 7.6155763 4.6029167 7.067838 5.2312427 5.6929035
-1.9203609 3.4986773 5.0049124 3.24428 -2.521512 4.96056 -2.2474856 -1.063198
-6.57921 1.0929291 1.5947312 1.2887168 -0.5013572 0.60826254 0.14458166 3.473213
0.9002575 0.07330187 2.4999633 -0.989019 2.6615717 -1.9312526 13.27978 -8.028515
1.855059 1.3690351 -4.54843 1.2752016 -1.6801155 0.8433806 -6.6930103 0.8210426
0.68185973 1.3328679 -1.3624855 -2.1269608 -0.9345373 0.017002277 3.8979433 -5.1454797
1.2284297 2.07265 0.7504374 0.054824617 8.41826 0.18473934 -1.3086867 -0.1945885
0.3677168 0.1613486 1.1847264 -1.1345073 1.2237002 -2.0433855 -0.6386517 0.19179714
0.06096259 0.07976203 6.1286845 3.1457243 -2.8278563 -8.821848 -0.061073605 -0.869763
-0.6677304 0.8643123 -2.3838634 -0.35156712 -1.2339534 -6.3246517 -1.2726403 -0.96766853
-0.09041891 -0.27419743 0.3048445 2.4356909 -1.5802723 -0.9309004 0.25739244 -0.8482405
0.15461841 0.38450995 -4.215265 6.7042103 -2.8554227 -0.5986691 -1.3858224 -0.04884469
1.9306034 2.2471092 -0.19320768 0.7896206 -0.18486524 5.81896 3.0196118 2.6605551
-1.4786742 -0.6050374 1.1555883 -0.2313936 2.5760407 -1.5936877 -2.7777908 -5.447189
-3.6341734 0.5126622 4.0703735 2.1124718 -1.1854545 1.3051473 0.3308976 0.48691604
-1.0520132 -1.844988 0.50608975 0.8577056 -0.49601802 -3.4657047 -0.77171975 -0.49151182
-0.52727604 0.22274123 -2.606485 -0.06215622 -1.4668641 3.5114005 -1.3802624 0.5648487

decoder.lstm.weight_hh_l0 f4 [52, 13]
00000000: 5497 5b3e 3348 10be 8b94 a53d decf 35bf
00000010: 12a4 57bf 08cf 6b3d 7423 71be d953 c3bd
00000020: 5a6f ea3e a920 83bf 65bc d5be b89b 303d
00000030: 09dd 23bd da9c 93bd 8d4d 40be 482f 68bf
00000040: d87d c0be 9cfa b8be a6de 443e b7ce 4f3c
00000050: dc65 a93e 931b 003f e60a a9bf 7f4a 9bbe
00000060: 474a b43e 8ca4 e5be eef4 a03e 4002 07bf
00000070: 3168 6ebe a660 f03d 2e73 8e3f e969 e53d
00000080: b232 703e 7262 9cbd 11ca 1fbf 153f c63d
00000090: 9b8b e93c 8259 f3be 5032 9abd d714 c2bd
000000a0: 629e 9b3e 6b39 13bd 9307 bebd 3104 f83e
000000b0: 811f 2dbd e398 59bd a430 5abe 0302 f7bd
000000c0: 7d5a a53d 62d0 31be 90d4 87be 272d 003e
000000d0: 137a 80bc b70b 4dbd 4731 48bd 0fc0 bd3c
000000e0: 71b1 d13e e57d c0bb c341 6cbb 2f8c 6d3c
000000f0: 47b9 533d 461b b5bd f16a 7fbd 42b9 883c
00000100: c6c5 643c 7f3b 4d3f e455 97bf be9e 1d3b
00000110: 3d2d 1c3f 81da b83f c956 b3be 93e7 823d
00000120: 1961 82be 261d a4be 1dc0 c3be 6677 7dbf
00000130: 7a73 49be 0c67 123f ed96 6bbf b204 63bf
00000140: 65b8 15bd c243 d43f 4d48 82bf a85d f6bd
00000150: 1158 b93f e498 753f e177 d0bf 337a ce3f
00000160: 1b05 4240 89dd 0bc0 2987 1d40 0a86 323e
00000170: 53fc 94bd fa7d 043d 88f7 9ebd 0c63 63be
00000180: 46c9 993c 4823 fabc 53e7 34bd 7fcc 293e
00000190: fbc8 6cbe 61e1 05be 0e81 143d f775 8ebd
000001a0: 6bb7 5a3e 9f1a aabd 1848 d03d 90b3 4ebe
000001b0: a22c 22bf fd0a 013d e03e bfb9 4481 e0bc
000001c0: 8e9f db3e a826 21bf efca 79be 00bc 2e3e
000001d0: c12a 8bbe d679 183e 9d7b 5cbc 70de a03d
000001e0: 7f7a c4bd 4a0c e03e bede de3d 1b3d debd
000001f0: 1641 e0bd 2822 1f3e 5953 e1be 2a39 a23c
00000200: c1c0 3e3d 8593 333d 0dd0 93c0 7909 f63e
00000210: fc42 9cbf f463 ce3d 1416 e83e dd6a 843d
00000220: 86e5 fe3d 9748 eebf 13d1 e5bf 3843 ff3e
00000230: ddb4 e63d bed5 a4bf eec4 c33f dcba 28bf
00000240: 2cfe b33e e52c c1bf 7d8f 803e ba0a e8bf
00000250: bd83 843f c230 a83f 82d6 22c0 a803 ad3e
00000260: 30ce a73f 0a6b fc3e 1d5b 59be 5e57 fe3f
00000270: ad5b c3bc 979e 0b3d 2596 263f 256b f2be
00000280: f36d 3f3f cbd0 a7bd 5661 4d3d d634 21be
00000290: cbae 95be d0d6 593e c96a d13e 2b31 0b3f
000002a0: fdeb 863c 5b5c 5940 a0d2 8abd a653 a13f
000002b0: d760 35bf ec66 363c 9c93 1d3f 532c 4bbf
000002c0: f758 1840 68da a0bf 2dd2 38c0 f9b8 033f
000002d0: b20b a53f 3650 63bd 5fed b53d 842e 10bf
000002e0: c72a bbbf 1de4 8c3f 95de c240 5f22 3d3f
000002f0: 7609 1cbf a24e c3c0 ec38 0940 75e4 fbbf
00000300: 7753 ae3f f8dd 6e3e 0c9b 25be babc 71bf
00000310: f27f ca3f df4e d13e fd50 dfbe f399 4a40
00000320: 6daf e63e c2f6 08bf 1f2f 5d3f 0490 3f40
00000330: e26a fdbf e5cc 5cbf b131 af3f 3082 ec3e
00000340: 77b2 33bf 79f7 1a3d 157c 9f3c 5045 1fbf
00000350: b973 15bf d984 c4be 2d57 fdbe aa7a 59bd
00000360: de0c 173f d38c 22be 46f8 5abf b5b3 ab3e
00000370: b312 34be a3ea 743b 18c0 ca3d 1cab 68bd
00000380: 277b 21bd a0d4 463f 38e1 ccba bbb6 c03d
00000390: 7e65 973b 8659 07be 640b 403e c797 ba3d
000003a0: 15dd 41be a1f9 e33c 8b2e 15c0 7f95 6ebf
000003b0: a635 39be 8ab8 77be f374 0141 d0ee 0040
000003c0: cdad 893f 4907 9a3c bd3a 05bc c42d b7bf
000003d0: e522 7fbd 8714 0bbf d464 cf3c f23d 25bf
000003e0: af8d 2dc0 da49 cbbe 8f13 bebe d2d5 0ebf
000003f0: 6a18 b8be 7c59 37bf 9c14 6640 2261 8f3f
0.21444446 -0.14090042 0.08084973 -0.71020305 -0.84234726 0.057570487 -0.2354868 -0.09537477
0.4578808 -1.0244342 -0.41745296 0.043117255 -0.040005717 -0.072076514 -0.18779583 -0.90697145
-0.3759601 -0.361287 0.19225559 0.012683562 0.33085525 0.50042075 -1.3206451 -0.30330274
0.3521292 -0.44852102 0.31436867 -0.5273781 -0.23281933 0.11737184 1.11289 0.112018414
0.23456839 -0.076359645 -0.62417704 0.09680001 0.028508952 -0.47529227 -0.075291276 -0.09476631
0.30394274 -0.03594343 -0.092787884 0.48440698 -0.042266373 -0.05312432 -0.21307617 -0.120609306
0.080739 -0.17364648 -0.2652936 0.12517224 -0.01568321 -0.05006 -0.04887512 0.02316287
0.4095569 -0.005874383 -0.003604994 0.014498754 0.051690366 -0.088430926 -0.062357847 0.0166899
0.0139631685 0.8016891 -1.1823087 0.0024050917 0.6100653 1.4441682 -0.3502715 0.063918255
-0.25464705 -0.32053488 -0.38232508 -0.9901031 -0.19672957 0.5718849 -0.9202717 -0.8867904
-0.036552805 1.6583178 -1.0178314 -0.12029582 1.4480001 0.9593642 -1.6286584 1.6131042
3.0315616 -2.1853964 2.4613745 0.17433944 -0.072746895 0.032346703 -0.077620566 -0.22205752
0.018772732 -0.030534402 -0.04416592 0.16581915 -0.23123543 -0.13074256 0.03625589 -0.06956094
0.21359031 -0.08305859 0.10170001 -0.20185685 -0.63349354 0.03150462 -0.00036477204 -0.027405389
0.42895168 -0.6294961 -0.2439382 0.17063904 -0.27181056 0.14890227 -0.013457206 0.078549266
-0.09593677 0.43759376 0.108823285 -0.10851499 -0.10949914 0.15540373 -0.44008902 0.019802649
0.046570543 0.043841857 -4.619147 0.48054102 -1.2207942 0.10077658 0.45329344 0.06465695
0.12446122 -1.8615903 -1.7954429 0.4985597 0.11264966 -1.2877729 1.5294473 -0.65910125
0.35154855 -1.5091826 0.25109473 -1.8128273 1.0352703 1.313988 -2.5443425 0.33791852
1.3109798 0.49300414 -0.21226163 1.9870412 -0.023847425 0.03408679 0.6507285 -0.4734737
0.74777144 -0.08194121 0.050141655 -0.15742812 -0.2923492 0.2127335 0.40901783 0.543719
0.01646995 3.396262 -0.06778455 1.2603652 -0.7085089 0.011132937 0.6155336 -0.7936451
2.38043 -1.2566652 -2.887828 0.5145412 1.2894194 -0.055496417 0.088831656 -0.5632098
-1.462243 1.1007115 6.0896707 0.7388057 -0.60951936 -6.1033487 2.1440992 -1.9679095
1.3619221 0.23326862 -0.16172427 -0.944286 1.5820296 0.40880486 -0.43616477 3.1656463
0.45055714 -0.5350152 0.86400026 2.993165 -1.9798243 -0.86250144 1.368704 0.46193075
-0.7019419 0.037833665 0.019468347 -0.6221514 -0.58379704 -0.38382605 -0.49480572 -0.053095497
0.5900401 -0.15874033 -0.85535085 0.33535543 -0.17585258 0.00373713 0.0989992 -0.056803808
-0.039424088 0.7766819 -0.0015631085 0.09409853 0.004620253 -0.13217744 0.18754345 0.091109805
-0.18931992 0.027828993 -2.3309658 -0.9319686 -0.18086872 -0.2419149 8.091052 2.014576
1.0756165 0.018802302 -0.00813168 -1.4310842 -0.062289137 -0.543282 0.025316633 -0.64547646
-2.7117727 -0.39704782 -0.37124297 -0.55795014 -0.35956126 -0.7162092 3.595008 1.1201518

decoder.lstm.bias_ih_l0 f4 [52]
00000000: 5f5c 4cbe 2917 09bf 4f34 b23e fba8 8f3f
00000010: 673e 7ebe 72a8 2040 2a94 bd40 8101 6ebe
00000020: 2b56 653f 8a8e 5b3f 08af 4140 d2c2 933f
00000030: 17a7 1640 a75f 1dc0 a790 0bbf 9fe3 50c0
00000040: 0f2d a1bf c4d8 88bf 497a 78bf 40d0 44be
00000050: 805a bfbf b447 f3bf 282c b1bf d4fb 983e
00000060: c103 9bbe c5b5 cdbf 3372 babe 5369 343f
00000070: 417b 41be 6623 b13f 5c03 8bbc 01e4 06c0
00000080: 1a4d d13f 8a85 1f3f c130 87be aab2 a13f
00000090: 0e93 bc3f f2bf 74bf 6a49 693f 1199 a93f
000000a0: 5799 383d cd57 12be 6c7a 3d3f 9ffa 4540
000000b0: 34de 0d40 61e3 a73e 3800 d53d 999b 9e3f
000000c0: d113 a73e b716 7f3f cf04 51bb 3515 35be
-0.19957112 -0.53550965 0.34805533 1.1223444 -0.24828492 2.510281 5.9243364 -0.23242761
0.89584607 0.8576437 3.026308 1.154383 2.3539484 -2.4589632 -0.54517597 -3.263893
-1.2591876 -1.0691152 -0.9706159 -0.19220066 -1.4949493 -1.9006257 -1.38416 0.2987963
-0.30276302 -1.6071097 -0.36415252 0.7047321 -0.18894674 1.3838928 -0.016969375 -2.1076663
1.6351655 0.6231314 -0.26404384 1.2632649 1.4732378 -0.95605385 0.91127646 1.3249837
0.04506811 -0.14291306 0.74014926 3.0934217 2.2166872 0.32790664 0.10400432 1.2391235
0.32632306 0.99644035 -0.0031893735 -0.17683871

decoder.lstm.bias_hh_l0 f4 [52]
00000000: 6fa4 a83d a68c 4dbf ab52 d63e 44b0 803f
00000010: 460a 3bbe 3a72 2140 7372 bb40 74ce 56be
00000020: 6861 533f ff71 883f 2aff 3b40 84c3 513f
00000030: bc72 1840 7624 01c0 69fd 14bf 1313 4ec0
00000040: 2167 56bf 75f0 7abf a821 92bf a6fe b0be
00000050: 46f1 9bbf f3bc e4bf 79ba 8abf 4b76 d63c
00000060: 7cbc fb3d 7795 01c0 5325 dbbe 34a6 2a3f
00000070: edd1 91be f65e d13f ef8a edbd 292b e8bf
00000080: 40fe a93f b98f 4f3f b294 5e3e 34d9 ad3f
00000090: 2bb7 d03f a6fb 73bf 6c00 8c3f f1fb 933f
000000a0: 5693 31be 10c3 883e b5c8 833f de85 2840
000000b0: a814 2240 5ed6 073f df0d cc3d 881c a73f
000000c0: de5d b33e 0116 913f 6c5e e63d 5f40 89be
0.08234488 -0.8029274 0.41859946 1.0053792 -0.18265638 2.5225968 5.857721 -0.20977193
0.82570505 1.0659789 2.937449 0.8193896 2.3820028 -2.0178504 -0.58199173 -3.2199142
-0.8375111 -0.9802316 -1.1416521 -0.3456928 -1.2183006 -1.7870163 -1.0838157 0.026179453
0.1229181 -2.0247476 -0.42801914 0.66659856 -0.28480473 1.6357105 -0.11598765 -1.8138171
1.3280716 0.8107868 0.2173641 1.358191 1.6305898 -0.9530586 1.0937629 1.1561261
-0.1734136 0.2671132 1.0295626 2.6331706 2.5325108 0.53061473 0.09963583 1.3055582
0.35032552 1.133484 0.11248478 -0.26806924

decoder.lstm.weight_ih_l1 f4 [52, 13]
00000000: 9ef0 d8bf 8bc6 b140 b0af 913d 72f6 4b3f
00000010: 6c76 5cbf ecfc 58bf 134b 4e40 55bc d83e
00000020: 3b58 0c40 d60f 70bf 291e 1dc0 8e0a 4ebf
00000030: ff0a b7bf b95d f540 3dfb 0ec1 5ce3 10bf
00000040: f350 ffbf e1e5 43c1 de91 53c1 2a77 1c3f
00000050: fc98 c33f 3d6a 1b41 5dd1 1640 1b69 17c0
00000060: c9d5 a240 bd16 8e3f f4d5 05c0 a3d1 ba3e
00000070: ec08 e6be eedf c7bf 39d4 40c0 9aaa 633d
00000080: 2e24 0e3f 31d6 3741 23c1 7dc0 a9cb bfbf
00000090: a412 82be 56a9 37bf a853 b93e b5d4 e2c0
000000a0: 75f7 1fc1 a811 1bc0 1000 2940 528f ff3d
000000b0: b4e0 d140 f8be e83e a9bc 3a40 b60d 63c0
000000c0: f1b1 d5bf a64d 0f41 cff0 04c1 bf4b a1c0
000000d0: 52df 5540 706f 8a3b b6f4 43bd 7b6d 2c3f
000000e0: c571 9b3f eee7 56bd 69d3 efbd 952e 6941
000000f0: 48f4 01c1 0d6f 9c3f ff0c a53f 9554 653f
00000100: 0e74 c0be ec5e a5c0 61e3 09be ae89 57bf
00000110: 3b85 983f 2c9e eabe 3d79 dfbe 2669 853f
00000120: a76f debf 9aa3 36c0 db3c 2d3f 6609 143f
00000130: 602e d5be 4dac 46bf 9490 d63e 18e0 88bd
00000140: 1993 2abe b696 d2be 4dd5 22bf cba4 0ebd
00000150: 798e e4be 09d2 e83d eb96 143f 7511 3cbf
00000160: fc45 b3bf d00c 24be 33e6 7cbf 19a5 51bf
00000170: 490a 223f 28c1 35c0 8bac 8a3f 97c0 4ac0
00000180: 3d5a c7c0 9126 3940 1f92 b8bd 5053 b8bf
00000190: cf0e 5540 bff3 1c40 b517 f9bf e057 3340
000001a0: 354e 1f3d cbb8 8d3c a518 b5be d5b0 a1be
000001b0: bf40 4abf 2cad 3b3d fa3a 75bd 25c0 443c
000001c0: 3f77 323e 0be8 a5bf 2a3a ca3d 7206 e23d
000001d0: 4c4f 773c e27f 833f 8feb 1b40 e21f 6840
000001e0: 79ba 5440 5399 2dc1 315a 7b40 c1cc 353f
000001f0: 30e9 1641 f920 d140 fb9a 8d40 ad85 e2bf
00000200: 7793 f4be e2b2 033f 1094 6c3e 19d2 85bc
00000210: 86d4 85be 8779 debe 2b71 2c3f 689e 09be
00000220: 4540 d33d d878 993e fe8e 70bf 02e0 82bf
00000230: c9b4 d5be a389 1dbe a6a4 10bf d9d4 0d3f
00000240: 5e82 1d3f d464 903f ca61 063f 368c dd3f
00000250: 91a4 a040 531a e03f 50de 42bf 52b7 5bbf
00000260: 37b9 823e eccd b73e 7bce 14bf bccb 20bf
00000270: 3656 983e b156 9a40 9334 05bf f1e4 e33e
00000280: e6ea ac40 5f18 963e 8a0f cb3f 3543 9cbc
00000290: d9e5 38c0 f259 7c3f 350c 87bf fc73 a0be
000002a0: 2f0c 5d40 0e9b a640 2c47 bd3f dffb dd3f
000002b0: c701 e8be ab53 aebe f7b7 48c0 de82 b33d
000002c0: 65a7 d0bd 3d1c fa40 f3d9 8fc0 f32e 87c0
000002d0: b6b2 2b40 2fa1 3fc0 a6e3 2d3f c7fa 19bf
000002e0: 895f a9c0 4422 fcbf 2a8d 883e 4dfc f1bd
000002f0: 5cdb 2040 5a44 87c1 5190 23c1 d938 35bf
00000300: 708d 323f 7911 8c3f 96ba 7b3d 03e2 f5c0
00000310: 3a84 423f 46e1 f53e f5f8 acc0 ce0f cac0
00000320: c0e1 073f 457d b5bd 175a c4c1 8e95 333e
00000330: 2c06 afbf 284b 73c0 3dce fbbf 1b47 17c0
00000340: 4e5a d2c0 5b1f bcc1 230c 6cbf f67f c2bf
00000350: 7757 1b40 e125 0e41 1d29 08c1 c312 2140
00000360: 7ea5 a03f 32ca 4c3f 84a1 6640 4894 6fc0
00000370: d35d a6be 2ff1 f541 ecb1 30c0 ed96 9c3f
00000380: e0f4 0fbf 78a1 8140 a65c 2e3c 0758 abbf
00000390: 3479 8041 5410 a940 357a 0ac0 16de 463e
000003a0: f811 7840 cffa 0dc0 3ec8 c440 1f29 04c0
000003b0: 54b2 b3be 4a3e ae3d 48a4 3440 876f 74bf
000003c0: 39c9 d3bd b2b3 febf deea 6dc0 829f 5b3d
000003d0: 7e2b 633f 8270 d73f d407 1fc0 1ed1 eb3f
000003e0: ab03 5240 01bc d940 ab3c 7f3f b23b d53f
000003f0: 23e3 15bf aea4 3d3f a0f2 38c0 b2c5 8ec0
-1.694843 5.555486 0.07113588 0.7967292 -0.861182 -0.8476093 3.2233322 0.42331186
2.1928852 -0.93774164 -2.4549658 -0.80484855 -1.4300231 7.6676908 -8.936337 -0.5659692
-1.9946579 -12.243623 -13.223112 0.6111933 1.5281062 9.713437 2.3565285 -2.3657901
5.088597 1.1100689 -2.0911837 0.36488065 -0.44928682 -1.5615213 -3.012953 0.05558262
0.55523956 11.489793 -3.9649131 -1.4984027 -0.25404847 -0.7174276 0.36196637 -7.088465
-9.997914 -2.4229527 2.6406288 0.12478508 6.5586796 0.45458198 2.917765 -3.5477118
-1.6694928 8.956457 -8.308791 -5.0404963 3.3417554 0.00422471 -0.047840796 0.67354554
1.2144095 -0.05246728 -0.11710245 14.573873 -8.122139 1.222139 1.2894591 0.89582187
-0.37588543 -5.167837 -0.13465644 -0.8419446 1.1915659 -0.458238 -0.43647185 1.0422714
-1.7377824 -2.8537354 0.67670983 0.5782684 -0.41636944 -0.7760666 0.4190718 -0.066833675
-0.16657676 -0.41130608 -0.6360672 -0.034825128 -0.44639948 0.11368186 0.5804278 -0.7346414
-1.4005733 -0.16020513 -0.98788756 -0.81892544 0.63296944 -2.8399143 1.0833906 -3.1680048
-6.2297654 2.892979 -0.090122454 -1.4400425 3.3290288 2.452377 -1.946036 2.8022385
0.038892943 0.01730003 -0.35370365 -0.31580225 -0.79005045 0.045819446 -0.059870698 0.012008701
0.17428301 -1.2961439 0.09874375 0.110363856 0.015094589 1.0273402 2.4362524 3.626946
3.3238814 -10.849933 3.9273798 0.71015555 9.431931 6.535275 4.4251685 -1.7697045
-0.47768757 0.5144483 0.23103356 -0.016335534 -0.26138705 -0.43452093 0.6736018 -0.13439333
0.10314993 0.2997501 -0.9396819 -1.0224612 -0.4173949 -0.15384535 -0.56501234 0.55402905
0.6152705 1.128077 0.52492964 1.7308414 5.0200887 1.7508034 -0.7612047 -0.858266
0.25531933 0.35899293 -0.58127564 -0.62810874 0.29753274 4.8230824 -0.52033347 0.44510606
5.403674 0.2931547 1.5864117 -0.019075016 -2.8890288 0.98574746 -1.05506 -0.3133849
3.4538686 5.2064276 1.4787345 1.734249 -0.45313856 -0.3404821 -3.1362283 0.08765195
-0.10188178 7.815947 -4.495355 -4.224481 2.6827826 -2.9942129 0.6792549 -0.6014828
-5.292912 -1.9697957 0.266702 -0.11815701 2.5133886 -16.908375 -10.2227335 -0.7078987
0.69747066 1.0942832 0.06145724 -7.6838393 0.7598301 0.48023432 -5.4053903 -6.3144293
0.5307884 -0.08861784 -24.54399 0.1753752 -1.3673759 -3.8014622 -1.9672314 -2.363715
-6.5735235 -23.51531 -0.9220602 -1.51953 2.4272134 8.884248 -8.510037 2.5167701
1.2550504 0.79996026 3.6036081 -3.7434254 -0.32493457 30.742765 -2.7608595 1.2233559
-0.56233025 4.0509605 0.010642206 -1.3386239 16.059181 5.283243 -2.163709 0.19420657
3.8760967 -2.2184331 6.1494436 -2.0650098 -0.3509699 0.085079744 2.822527 -0.9548268
-0.103411146 -1.9898589 -3.7174602 0.053618915 0.8873824 1.683121 -2.4848528 1.8423193
3.2814739 6.8041997 0.99701947 1.6658843 -0.5854971 0.74079406 -2.8898087 -4.4616327

decoder.lstm.weight_hh_l1 f4 [52, 13]
00000000: 1a71 93bf e075 84be 1155 dc3f 3907 c73d
00000010: 1414 b63f 7bde 4a3f 5684 1bbf 20d0 7b3e
00000020: 6058 cb3d b0bf 1f3f 47d5 24be aa0d 8b3c
00000030: 66f7 2ebd 6f53 cfc0 0a00 6ebf 0999 37c0
00000040: 0ab5 bdbf ee76 4e3e 91a8 b03f a635 37c0
00000050: cfa3 99c0 dd52 e240 63de 05c0 aacd 4741
00000060: 724c c4c0 201d 5140 b198 b43e d4d1 a73e
00000070: a9ea 05bf 34db 45bd 6913 8b3e 43d8 933d
00000080: d72c 423d 22a6 943e 9dfe 41be c74f 18be
00000090: 2921 6abe d85f b83e 25a5 cd3d 1461 92c0
000000a0: acb1 bcc0 459e b8bf c324 0e40 0766 47c0
000000b0: c4e0 84bf ba5a 613f 097c dd3f 8285 14c0
000000c0: 96c3 5140 235e 06c1 d0c5 99c0 b724 f9bf
000000d0: 1b48 0dbf 8600 cbbb 1894 883f c64c 51b9
000000e0: 2faf 4d3f 5223 023f 469b 76bf 86f4 fcbd
000000f0: fb6c f1bd 6bf3 183e c39e d3bb 0e28 cabc
00000100: 7f5b 5f3b b9ed 35bf 44e0 eabf 1806 f73e
00000110: 18ef 9f3e 5f06 9f40 1170 183f 6b62 903f
00000120: 8d24 063e 6370 333f 0dd0 4fbf 839b e0bc
00000130: 837d 99be a0c0 4ebe 7d8b a2bd 5a60 063e
00000140: b723 453e e82b 033c fabf 9b3e 6da3 523d
00000150: eee9 fb3e ecb5 bd3d 10e5 07be e312 fcbd
00000160: 1a51 80bd 028b 44be 74ff 423d ac1a 953f
00000170: 62eb 56bf 7285 7a3f 369b 7c3e e00f 7d3f
00000180: 51b5 94bf 7723 bebf d404 bdbd af7e 3fbe
00000190: 8ba2 b3bf 156d 21c0 b043 a3be b683 87be
000001a0: d178 343b 2d92 bb3b 8ffd 7abd 8ede 87bc
000001b0: 270e 44bc 3f1b bf3d b58a b7be c9e9 503d
000001c0: bee1 0f3d a3e5 5b3d b588 42be 695c a5bd
000001d0: 007f d6bb 0ef9 17c0 4087 17bf 3500 06bf
000001e0: 3941 45c0 6d5e ecbf 7854 e2bf 38e2 8cc0
000001f0: be7b fdbf ccea 69c1 5eb2 66c0 6676 aec0
00000200: 971d e1bf 3bce 6cc0 347e 19be d576 0b3e
00000210: 78f6 dabd d82e bebc 4dc6 873c 02c2 333a
00000220: d07a 01be 8e3d 9f3d f9d5 c1bd 8b3e 2a3d
00000230: 74e2 cf3d 8c8d adbd 696b 22bd d533 1040
00000240: d18c e1bf bf43 eebe 8434 70bf 35b1 46bf
00000250: 4072 463e 25a3 6dbe f88e 07bb 0216 bd3f
00000260: 5f2c af3e 3c01 48bf 4195 85bf bd64 023f
00000270: cf60 5a41 8134 77c0 b1c1 a6c0 883c 1cc0
00000280: 153c 923f 3f23 c63e b4c5 2ac0 29b6 bfbe
00000290: 89d2 5140 c854 5bc0 909f e040 392a e640
000002a0: ef6f eec0 f8b5 07bf 87f6 2d3f c58e 823f
000002b0: bb1a 2438 623e 863f 77b5 aa3d ff1c 93bf
000002c0: 6011 7bbe c8b1 9a3f e912 943e 9842 0b40
000002d0: c6e2 2840 62c7 dd3d 959b 0440 c15d 84c1
000002e0: ca4e 5eba 5faf 56c0 7b3f 1940 0fe7 c73f
000002f0: 12f7 da40 4080 95bf e331 d340 97dc f040
00000300: 30dd 9940 1f66 2940 5a69 ff3f 29a7 333f
00000310: 52e3 6840 0f72 71c0 8d7a b6bc ef5b f0bf
00000320: 30a9 88bf 232d a040 4ddb b43f f0e4 05bf
00000330: 9784 83bb 407f 5e3f faba 1f3f 4ffc 37bf
00000340: 27b5 463f b50e d640 af5e 14c0 5c24 62c0
00000350: f3fb d13e 0938 4ec0 b8f0 d7be 2ebd c93e
00000360: 9334 103f 3dbd 9cbe 8e6f 903f bc10 3c40
00000370: 48a3 d73f 2867 e8be ba2e c2be 9f53 7540
00000380: f2f0 a5bb c75d 0340 3bf0 093f 7fdb 20c0
00000390: 17f7 0fbf 1753 5b3f 446e 2c3f b040 d83e
000003a0: 6447 653e bf92 cf3e aebf 45bf 5ae8 4040
000003b0: 7f27 0bbe 19d3 a23d b2e4 1b40 23f4 903f
000003c0: 7efb 87c0 ae09 7fbe 310e 773e d336 e93e
000003d0: cf01 e83d 19f1 513f ed27 193e 1c65 e53f
000003e0: 7ade 58c0 5070 49bf 94bb e3bd 5d52 a1bf
000003f0: 7130 cf3f 78d0 75bf 0f2d 803f cd44 18c1
-1.1518891 -0.2587118 1.721346 0.097181745 1.4224877 0.7924573 -0.60748804 0.24591112
0.099289656 0.62401867 -0.16096984 0.016974289 -0.042716406 -6.478935 -0.9296881 -2.8687155
-1.4820874 0.20162556 1.3801442 -2.8626494 -4.801246 7.072615 -2.0916984 12.487711
-6.1343317 3.2674026 0.35272744 0.32777274 -0.5231119 -0.04830475 0.27163246 0.07218983
0.047406044 0.29033 -0.18944784 -0.14874183 -0.22864212 0.36010623 0.100412644 -4.5743504
-5.8966885 -1.44233 2.2209938 -3.1156023 -1.0381093 0.8802906 1.7303478 -2.3206487
3.2775626 -8.397983 -4.805397 -1.946433 -0.5518815 -0.0061951308 1.0670195 -0.00019960394
0.80345434 0.50835145 -0.9633068 -0.12351327 -0.117883645 0.14936607 -0.006458135 -0.024677303
0.0034081636 -0.7106586 -1.834969 0.48246837 0.31237102 4.9695277 0.59546 1.1280035
0.1309988 0.70093364 -0.81176835 -0.027417904 -0.2997857 -0.20190668 -0.079367615 0.13122693
0.19251905 0.008006074 0.30419904 0.051425386 0.49201912 0.092632145 -0.13270974 -0.1230829
-0.06265469 -0.19193652 0.0476069 1.1648765 -0.83952916 0.9785987 0.24668583 0.9885235
-1.1617833 -1.4854573 -0.092294365 -0.1870067 -1.4033979 -2.5222828 -0.3188758 -0.26467675
0.0027537833 0.0057242126 -0.06127697 -0.016585615 -0.011966265 0.09331369 -0.35848013 0.051004205
0.035127394 0.053685796 -0.18997462 -0.080742665 -0.0065459013 -2.374576 -0.5919075 -0.52344066
-3.0821059 -1.8466316 -1.7682028 -4.4026146 -1.9803388 -14.619823 -3.6046367 -5.451953
-1.7587155 -3.7000873 -0.14989549 0.1361955 -0.106915414 -0.023215696 0.01657405 0.00068572175
-0.12644506 0.077754125 -0.0946464 0.041563552 0.101506144 -0.084742635 -0.039653216 2.2531636
-1.7621099 -0.4653606 -0.9383013 -0.77614146 0.1937952 -0.23206766 -0.0020684581 1.4772341
0.3421354 -0.78126884 -1.0436174 0.50934964 13.648635 -3.8625796 -5.211144 -2.4411945
1.1424586 0.38698766 -2.6683168 -0.37443665 3.278475 -3.4270496 7.019478 7.192654
-7.451164 -0.5301204 0.67954296 1.019982 3.912554e-05 1.0487788 0.08335393 -1.1493224
-0.24518347 1.2085505 0.28920677 2.1759396 2.6388412 0.10829045 2.071996 -16.545778
-0.00084803684 -3.3544538 2.3944995 1.5617388 6.84266 -1.1679764 6.5998397 7.5269275
4.8082504 2.646858 1.9954026 0.7017694 3.6388745 -3.7725866 -0.022275234 -1.8778056
-1.0676632 5.00551 1.4129425 -0.52302456 -0.0040136087 0.8691292 0.6239468 -0.7186937
0.77620167 6.6892953 -2.318279 -3.5334692 0.41012534 -3.22217 -0.4217584 0.39402145
0.5633022 -0.30613127 1.1284044 2.9385214 1.6846704 -0.45391202 -0.37926275 3.8332288
-0.0050641233 2.0525987 0.5388219 -2.513397 -0.56236404 0.8567366 0.6735575 0.42236853
0.22390515 0.40541646 -0.77245605 3.0141816 -0.13589285 0.0795042 2.4358335 1.1324505
-4.2494497 -0.24906036 0.24126507 0.4554964 0.1132847 0.8200851 0.14956637 1.7921481
-3.388579 -0.78687 -0.11119762 -1.260326 1.6186658 -0.96021223 1.0013751 -9.516797

decoder.lstm.bias_ih_l1 f4 [52]
00000000: 48d4 e93e 73a9 3bbf 0b0a 4cbd e08d 823f
00000010: c8b9 cd3e b1c1 953e 73c6 f4bd 701c 5240
00000020: aad5 b4bd 25d3 813f b4cd 953f d42b a93f
00000030: 61b9 113f 7fd4 77bf a56a 2ebe affd 6abf
00000040: 3e92 a53f a076 fbbf 97e8 b2be cf65 a7bf
00000050: b5ff 99bf 37dd a0bf f85c c1bf e519 f2be
00000060: 8988 c6bf 30a7 0ebf effe 343e ae15 ea3f
00000070: 776e f03f 62fc 793f 90c3 6c3f a6db 44bf
00000080: e084 46bd 8791 d33e 67b1 103d 3fa5 43bf
00000090: 3a3e bdbe d803 553f c0fb d7be 03d2 623c
000000a0: 611d f6bf 5d0c a73a 73a4 a73f 348b 413f
000000b0: 0d77 b33e fca2 0040 182b 5440 c50a 8a3f
000000c0: 4c55 a13c c97d 6a3f d028 c53e edfe 023f
0.4566977 -0.73305434 -0.049814265 1.0199547 0.40180802 0.29249337 -0.11951914 3.2829857
-0.08829816 1.0142561 1.1703401 1.32165 0.5692349 -0.9680862 -0.17032869 -0.9179334
1.2935255 -1.9645576 -0.34943077 -1.3077945 -1.203116 -1.256751 -1.5106497 -0.4728538
-1.5510417 -0.5572386 0.17675374 1.8287866 1.8783711 0.9765073 0.92485905 -0.76897657
-0.048466563 0.41321966 0.035325434 -0.7642402 -0.36961538 0.8320899 -0.42184258 0.013844016
-1.9227716 0.0012744773 1.3097061 0.7560303 0.35051766 2.0099478 3.3151302 1.0784537
0.019693993 0.9159818 0.385077 0.51170236

decoder.lstm.bias_hh_l1 f4 [52]
00000000: 0c7c cf3e a601 46bf ce3d 943c 1c02 a63f
00000010: 83ec ca3e 9852 b63e bda8 883d cd44 5340
00000020: 170f 36bd aa8f 923f a648 803f c11a d13f
00000030: e7a0 643f 8306 50bf ce01 863e e4e0 4cbf
00000040: a6cb a33f d6af 15c0 fb0f d83c f9be 93bf
00000050: baee 8fbf b9f2 8fbf 723d adbf d045 23bf
00000060: 235d a2bf 0c85 d6be c7fc e13d 54a4 db3f
00000070: 0eb7 ef3f fee4 813f a3d5 213f ada4 8bbf
00000080: 6087 513e 0b67 9d3e f029 d4bc 85e4 7bbf
00000090: 953c 95be 4d00 233f 1326 efbe c54e 683e
000000a0: dad8 e8bf 8494 0d3e d077 573f f463 3b3f
000000b0: 39ea a83e 9cd0 e83f 91b9 5240 4d95 833f
000000c0: 0d51 b43a 756c 943f 3da5 1c3f 444c 053e
0.40524328 -0.77346265 0.018095877 1.2969394 0.3963357 0.3560989 0.06672809 3.3010743
-0.044447985 1.1450093 1.002217 1.633629 0.8930802 -0.81259936 0.26173252 -0.80030656
1.2796524 -2.3388572 0.026374808 -1.1542655 -1.1244729 -1.1245948 -1.3534377 -0.637784
-1.2684673 -0.41898382 0.110345416 1.7159524 1.8727739 1.0148008 0.6321661 -1.090963
0.20461798 0.30742678 -0.025898904 -0.9839557 -0.29147783 0.63672334 -0.46708736 0.22686298
-1.8191178 0.13826185 0.84167194 0.7319939 0.32991198 1.8188663 3.292576 1.0279938
0.0013757065 1.1595598 0.61189634 0.13017374
