py/model/autoencoder/res/27-09-2021_124102/epoch_0.model (torch, 2703 bytes, 10 tensors)

encoder.lstm.weight_ih_l0 f4 [4, 2]
0	0x3f32834d	0.697316
1	0x3f5a1233	0.8518402
2	0x3f654aa8	0.8956704
3	0x3ea745a2	0.32670313
4	0x3f6e3f40	0.9306526
5	0xbef8433a	-0.4848879
6	0xbf795ca7	-0.97407
7	0xbe1402aa	-0.14454141

encoder.lstm.weight_hh_l0 f4 [4, 1]
0	0xbe5bc225	-0.21460779
1	0x3e80e1bd	0.25172225
2	0xbf4a773a	-0.79088175
3	0xbf11d9a5	-0.56972724

encoder.lstm.bias_ih_l0 f4 [4]
0	0xbf64a182	-0.8930894
1	0xbeda1b8e	-0.42599148
2	0xbf14ca9a	-0.58121645
3	0x3e937adf	0.2880468

encoder.lstm.bias_hh_l0 f4 [4]
0	0xbf1256c6	-0.57163656
1	0x3eb6730e	0.35634655
2	0x3e24460f	0.1604235
3	0x3d0a8c69	0.03382531

decoder.lstm.weight_ih_l0 f4 [8, 1]
0	0x3edd5179	0.4322622
1	0xbf10a037	-0.5649447
2	0x3f2eae12	0.6823436
3	0x3e986a6d	0.29768696
4	0x3ee1fcfb	0.4413832
5	0x3f090b77	0.5353312
6	0x3cc331df	0.023827491
7	0x3ee14ac3	0.4400235

decoder.lstm.weight_hh_l0 f4 [8, 2]
0	0x3d82804f	0.06372129
1	0x3f05e10d	0.52296525
2	0x3e15d1f3	0.1463087
3	0xbdb88905	-0.090105094
4	0x3f1ed670	0.62045956
5	0x3f24a663	0.64316386
6	0xbf3327f7	-0.69982857
7	0x3e7eaf54	0.2487157
8	0xbd09dd35	-0.033658225
9	0x3e7e074e	0.24807474
10	0x3f30d97b	0.6908185
11	0xbe5b5974	-0.21420842
12	0xbe0cf4a6	-0.13765201
13	0xbe8040db	-0.2504948
14	0x3e6c7872	0.23092821
15	0x3f262533	0.6490051

decoder.lstm.bias_ih_l0 f4 [8]
0	0x3e976a83	0.2957345
1	0xbf1637bd	-0.586788
2	0xbf0b01ca	-0.54299605
3	0x3ee209e6	0.44148177
4	0xbe5e4fd5	-0.21710141
5	0xbec7200f	-0.38891646
6	0xbe83eb96	-0.25765675
7	0xbe4c5efa	-0.19958106

decoder.lstm.bias_hh_l0 f4 [8]
0	0x3ea96bcb	0.33090052
1	0x3ea99787	0.3312342
2	0xbc445069	-0.011982062
3	0xbe19aa32	-0.1500633
4	0x3ef34b9e	0.4751863
5	0x3f46d0e0	0.7766247
6	0x3eb547bb	0.35406289
7	0xbedcf547	-0.43155882

decoder.fc.weight f4 [2, 2]
0	0xbec057e4	-0.37567055
1	0xbf18f752	-0.5975238
2	0xbef49aaf	-0.47774264
3	0xbcd1ef65	-0.025626848

decoder.fc.bias f4 [2]
0	0xbe2e2236	-0.17005238
1	0xbd89aaa7	-0.067220025
