py/model/autoencoder/res/27-09-2021_124102/epoch_35.model (torch, 2703 bytes, 10 tensors)

encoder.lstm.weight_ih_l0 f4 [4, 2]
00000000: 51f7 513f cc0b 693f 89ca 6f3f 9b08 ab3e
00000010: 3474 083f 545f 02bf b845 73bf f88b ebbd
0.82018 0.91033626 0.9366842 0.33405003 0.5330231 -0.5092671 -0.9502826 -0.11501306

encoder.lstm.weight_hh_l0 f4 [4, 1]
00000000: 7ae3 55be 9f26 7e3e ecd1 49bf f9cc 12bf
-0.20887557 0.2481942 -0.7883594 -0.57344013

encoder.lstm.bias_ih_l0 f4 [4]
00000000: c6f3 7fbf 8bdc e6be d3d8 6abf 0611 8f3e
-0.99981344 -0.45090136 -0.917371 0.27942675

encoder.lstm.bias_hh_l0 f4 [4]
00000000: d5a8 2dbf 11b2 a93e c2f9 33be 3f80 ce3c
-0.6783574 0.33143666 -0.17575744 0.025207637

decoder.lstm.weight_ih_l0 f4 [8, 1]
00000000: a642 d83e 2628 1dbf 5aae 2b3f 3bba 813e
00000010: b5f0 c03e 901f db3e 3707 7d3c 990b be3e
0.4223835 -0.61389387 0.67062914 0.25337395 0.37683645 0.42797518 0.015443615 0.37118223

decoder.lstm.weight_hh_l0 f4 [8, 2]
00000000: eeea 713d 262c 053f 75d4 023e 97a8 d2bd
00000010: 7e22 1c3f f1b9 223f 17fc 36bf 319c 743e
00000020: 7131 58bd 9260 763e aad4 2f3f 6d69 57be
00000030: 682d 19be 2645 84be fc1b 563e 1482 223f
0.059061937 0.5202049 0.12776358 -0.10286062 0.6099013 0.63564974 -0.7147841 0.23887707
-0.052781526 0.24060276 0.68683875 -0.2103631 -0.14958727 -0.25834006 0.20909113 0.63479733

decoder.lstm.bias_ih_l0 f4 [8]
00000000: a139 973e 850f 20bf 4475 11bf 8635 d53e
00000010: 1853 1abe 9ba9 92be 0752 8cbe 3b9c 6cbe
0.29536155 -0.6252368 -0.5681956 0.41642398 -0.1507076 -0.28645024 -0.27406332 -0.23106472

decoder.lstm.bias_hh_l0 f4 [8]
00000000: e93a a93e 22e7 953e d75c 18bd eb50 33be
00000010: a3a4 0a3f 2a0b 613f 4ae1 ac3e b613 edbe
0.33052757 0.29277903 -0.037197914 -0.17511337 0.54157466 0.8790766 0.33765632 -0.463041

decoder.fc.weight f4 [2, 2]
00000000: defb 2dbe 2dc0 fcbe cf21 09bf bf41 42bd
-0.16990611 -0.49365368 -0.5356721 -0.04742598

decoder.fc.bias f4 [2]
00000000: 7e3c c0be 80ab 19bc
-0.37546152 -0.009379268
