py/model/autoencoder/res/27-09-2021_124102/epoch_91.model (torch, 2703 bytes, 10 tensors)

encoder.lstm.weight_ih_l0 f4 [4, 2]
000000 2d d9 dc 3f ab f8 1b 3f 5a 4a 9e 3f 6d 6e 9c 3e
       1.7253777 0.6092631 1.236644 0.30552998
000010 1c ca 92 bd a5 6c c8 be 84 c7 08 3e df dc 37 be
       -0.071674556 -0.3914539 0.13357359 -0.1795535

encoder.lstm.weight_hh_l0 f4 [4, 1]
000000 bf d6 9c bc c9 e4 20 3f db ba 3a bf cd b3 45 bf
       -0.019145368 0.628491 -0.7294137 -0.7722748

encoder.lstm.bias_ih_l0 f4 [4]
000000 07 8f 8a be 8e aa 72 bf 77 54 ae bf a1 31 8a 3f
       -0.27062246 -0.94791496 -1.3619527 1.0796396

encoder.lstm.bias_hh_l0 f4 [4]
000000 8a 29 50 3d 6b 8e 29 be ba c6 1e bf 48 4f 53 3f
       0.050820865 -0.16558234 -0.6202198 0.8254285

decoder.lstm.weight_ih_l0 f4 [8, 1]
000000 67 73 6d 3e 28 91 22 bf 65 d6 4b 3f c5 b3 d6 3e
       0.23188554 -0.6350274 0.79624015 0.41934028
000010 98 d3 f2 3f 1e d7 a7 3f a6 04 22 be 31 f8 98 3e
       1.8970823 1.3112524 -0.15822086 0.29876855

decoder.lstm.weight_hh_l0 f4 [8, 2]
000000 b5 4b a7 3d 0b ed 10 3f cc d5 37 3e fd 29 51 bd
       0.08168737 0.566117 0.17952651 -0.051065434
000010 2b 9b 1c 3f 57 62 20 3f 14 34 2c bf 63 5b 84 3e
       0.6117427 0.62650055 -0.67266965 0.25850973
000020 85 47 22 bf 15 20 d9 be c2 f2 0a 3f a8 d6 e8 be
       -0.6339038 -0.4240729 0.5427667 -0.4547627
000030 c2 f4 a0 bd 1e 91 27 be 67 54 84 3e db df 30 3f
       -0.07859184 -0.16363952 0.25845644 0.69091576

decoder.lstm.bias_ih_l0 f4 [8]
000000 35 c5 5c 3f fd e2 5c be 8b da 2c bf c9 ad a7 3e
       0.86238414 -0.21570964 -0.6752097 0.32749775
000010 2e ef 39 3b 68 0e a7 be fc 5f 05 3f c6 8e b8 3e
       0.0028371322 -0.3262818 0.52099586 0.36046427

decoder.lstm.bias_hh_l0 f4 [8]
000000 8b c5 65 3f f6 c8 33 3f 03 ac 13 be 0e 2e 87 be
       0.8975455 0.7022852 -0.14421086 -0.26402324
000010 fa f2 31 3f 5f d7 56 3f 2c fb 90 3f 50 90 03 3e
       0.6951138 0.8392238 1.1326652 0.1284802

decoder.fc.weight f4 [2, 2]
000000 7b f2 18 c0 4f 3d be bf 9a 9e c2 be 89 69 7a 3e
       -2.3897998 -1.486246 -0.38011628 0.24454321

decoder.fc.bias f4 [2]
000000 ea 4a 13 be be e7 eb bd
       -0.14384046 -0.11518811
