py/model/autoencoder/res/28-09-2021_141106/epoch_49.model (torch, 3791 bytes, 18 tensors)

encoder.lstm.weight_ih_l0 f4 [4, 2]
-0.27350485 0.45918286 -0.36899173 0.36031187 -0.29039538 -0.2592311 0.9584197 -0.45515215
00000000: d408 8cbe 041a eb3e 7cec bcbe cc7a b83e
00000010: b4ae 94be f0b9 84be fe5a 753f b409 e9be

encoder.lstm.weight_hh_l0 f4 [4, 1]
-0.40794146 0.6917516 -0.13331032 0.70298326
00000000: b4dd d0be a216 313f 8082 08be b6f6 333f

encoder.lstm.bias_ih_l0 f4 [4]
-0.12559462 0.3178861 -0.18146244 -0.88721883
00000000: e09b 00be f8c1 a23e 4ad1 39be c620 63bf

encoder.lstm.bias_hh_l0 f4 [4]
0.6252177 -0.17590272 0.5715265 0.07274516
00000000: 440e 203f d81f 34be 904f 123f 6afb 943d

encoder.lstm.weight_ih_l1 f4 [4, 1]
-0.8038318 0.9366399 0.51050365 -0.73024166
00000000: ecc7 4dbf a2c7 6f3f 5eb0 023f 1ef1 3abf

encoder.lstm.weight_hh_l1 f4 [4, 1]
-0.27092302 0.6678009 -0.5325627 -0.9831284
00000000: 6cb6 8abe 00f5 2a3f 0756 08bf 4eae 7bbf

encoder.lstm.bias_ih_l1 f4 [4]
-0.20527095 -0.7460997 0.013375005 0.9512746
00000000: 8c32 52be 6400 3fbf d622 5b3c bb86 733f

encoder.lstm.bias_hh_l1 f4 [4]
0.9323605 -0.8805505 0.49682713 -0.29739738
00000000: 2daf 6e3f c26b 61bf 2060 fe3e 7844 98be

decoder.lstm.weight_ih_l0 f4 [8, 1]
0.30758473 0.15846016 -0.5080779 -0.53192353 0.24341899 0.32342008 0.074965134 -0.2381947
00000000: bf7b 9d3e 6143 223e 6511 02bf 242c 08bf
00000010: d442 793e 5197 a53e 5287 993d 50e9 73be

decoder.lstm.weight_hh_l0 f4 [8, 2]
0.1922212 0.62338763 -0.5875231 -0.17247283 0.7039953 -0.2087774 0.0053930115 -0.42605314
0.68508315 -0.33195695 -0.46299922 0.07108055 -0.25137904 0.31462693 -0.018585924 -0.42820495
00000000: a2d5 443e 5596 1f3f ea67 16bf b89c 30be
00000010: 0939 343f bec9 55be dcb7 b03b a323 dabe
00000020: 9c61 2f3f 43f6 a9be 3c0e edbe ae92 913d
00000030: c1b4 80be c816 a13e 8241 98bc ae3d dbbe

decoder.lstm.bias_ih_l0 f4 [8]
-0.08558464 0.48757967 0.49744543 -0.5627131 0.47415963 0.1296368 0.10497506 -0.6930384
00000000: 0047 afbd 0ba4 f93e 2bb1 fe3e f70d 10bf
00000010: 0dc5 f23e 82bf 043e 2afd d63d f76a 31bf

decoder.lstm.bias_hh_l0 f4 [8]
0.20684536 -0.27553093 -0.31988734 -0.3415569 0.0052035796 0.05029246 -0.4854417 0.6087616
00000000: 45cf 533e 6412 8dbe 46c8 a3be 8ce0 aebe
00000010: ca82 aa3b 77ff 4d3d d18b f8be cdd7 1b3f

decoder.lstm.weight_ih_l1 f4 [8, 2]
-0.65925324 0.6522243 0.69472677 -0.09783506 0.50064754 0.007952567 0.0958223 -0.5288912
0.20860167 0.6720872 0.38767195 -0.6278336 -0.047031995 0.67619735 -0.044193704 -0.5764572
00000000: d2c4 28bf 2cf8 263f 9dd9 313f bf5d c8bd
00000010: 702a 003f 7c4b 023c 7b3e c43d 6a65 07bf
00000020: ad9b 553e e80d 2c3f f07c c63e b4b9 20bf
00000030: 9fa4 40bd 451b 2d3f 7504 35bd b392 13bf

decoder.lstm.weight_hh_l1 f4 [8, 2]
-0.41764033 -0.16860558 -0.3906885 0.004302722 -0.29128677 -0.21271077 0.31229377 -0.6691099
0.31825402 -0.6981558 0.53578633 0.052364107 -0.5226103 0.07482836 -0.69696414 -0.43595353
00000000: f4d4 d5be f1a6 2cbe 5308 c8be d9fd 8c3b
00000010: 8a23 95be dad0 59be f8e4 9f3e c94a 2bbf
00000020: 31f2 a23e 57ba 32bf 4b29 093f bf7b 563d
00000030: cac9 05bf 9c3f 993d 3e6c 32bf 4d35 dfbe

decoder.lstm.bias_ih_l1 f4 [8]
0.08014902 -0.6266245 0.030701319 0.45124108 -0.63375026 0.36257988 -0.7533241 0.2082679
00000000: 2b25 a43d 776a 20bf 5581 fb3c 1209 e73e
00000010: 753d 22bf 12a4 b93e d9d9 40bf 2e44 553e

decoder.lstm.bias_hh_l1 f4 [8]
-0.22041808 -0.48813614 0.20767732 -0.21703635 -0.49852157 -0.37971276 -0.2770425 0.5327586
00000000: 47b5 61be fbec f9be 5da9 543e c73e 5ebe
00000010: 383e ffbe b669 c2be 84d8 8dbe de62 083f

decoder.fc.weight f4 [2, 2]
-0.23605357 -0.061697885 -0.16633528 -0.15180528
00000000: 07b8 71be ecb6 7cbd cc53 2abe d872 1bbe

decoder.fc.bias f4 [2]
-0.5427804 -0.15774666
00000000: a8f3 0abf 5788 21be
