py/model/autoencoder/res/28-09-2021_141106/epoch_97.model (torch, 3791 bytes, 18 tensors)

encoder.lstm.weight_ih_l0 f4 [4, 2]
00000000: d408 8cbe 041a eb3e 7cec bcbe cc7a b83e
00000010: b4ae 94be f0b9 84be fe5a 753f b409 e9be
-0.27350485 0.45918286 -0.36899173 0.36031187 -0.29039538 -0.2592311 0.9584197 -0.45515215

encoder.lstm.weight_hh_l0 f4 [4, 1]
00000000: b4dd d0be a216 313f 8082 08be b6f6 333f
-0.40794146 0.6917516 -0.13331032 0.70298326

encoder.lstm.bias_ih_l0 f4 [4]
00000000: e09b 00be f8c1 a23e 744d 38be c620 63bf
-0.12559462 0.3178861 -0.17998296 -0.88721883

encoder.lstm.bias_hh_l0 f4 [4]
00000000: 440e 203f d81f 34be 904f 123f 6afb 943d
0.6252177 -0.17590272 0.5715265 0.07274516

encoder.lstm.weight_ih_l1 f4 [4, 1]
00000000: ecc7 4dbf a2c7 6f3f 5eb0 023f 1ef1 3abf
-0.8038318 0.9366399 0.51050365 -0.73024166

encoder.lstm.weight_hh_l1 f4 [4, 1]
00000000: 6cb6 8abe 00f5 2a3f 0756 08bf 4eae 7bbf
-0.27092302 0.6678009 -0.5325627 -0.9831284

encoder.lstm.bias_ih_l1 f4 [4]
00000000: dc3f 52be 6400 3fbf f75e 663c bb86 733f
-0.20532173 -0.7460997 0.014060727 0.9512746

encoder.lstm.bias_hh_l1 f4 [4]
00000000: 2daf 6e3f c26b 61bf 5280 fe3e 7844 98be
0.9323605 -0.8805505 0.49707276 -0.29739738

decoder.lstm.weight_ih_l0 f4 [8, 1]
00000000: b586 9d3e 9432 223e ba15 02bf 242c 08bf
00000010: 6e7e 793e 8f27 a53e 5519 9a3d 4d01 74be
0.30766836 0.15839607 -0.508144 -0.53192353 0.24364635 0.32256743 0.07524363 -0.23828621

decoder.lstm.weight_hh_l0 f4 [8, 2]
00000000: 7fee 443e 5596 1f3f ea67 16bf b89c 30be
00000010: 5146 343f e6c9 55be 2d5d b03b a323 dabe
00000020: fc95 2f3f 43f6 a9be 8517 edbe d76b 913d
00000030: 229a 80be c816 a13e e4af 98bc ae3d dbbe
0.19231604 0.62338763 -0.5875231 -0.17247283 0.70419794 -0.208778 0.005382201 -0.42605314
0.68588233 -0.33195695 -0.46307006 0.07100647 -0.25117594 0.31462693 -0.018638559 -0.42820495

decoder.lstm.bias_ih_l0 f4 [8]
00000000: 8943 afbd 3d5f f93e 7ea3 fe3e aa0d 10bf
00000010: 41b3 f23e e9ed 043e 982c d73d 606d 31bf
-0.08557803 0.48705474 0.4973411 -0.5627085 0.47402385 0.1298138 0.105065525 -0.6930752

decoder.lstm.bias_hh_l0 f4 [8]
00000000: 35d7 533e 3257 8dbe f3d5 a3be f7e0 aebe
00000010: 0233 a73b 02bc 4e3d bc78 f8be 64d5 1b3f
0.20687564 -0.27605587 -0.31999168 -0.3415601 0.005102516 0.050472267 -0.48529613 0.60872483

decoder.lstm.weight_ih_l1 f4 [8, 2]
00000000: 51bd 28bf 9bec 263f 9dd9 313f bf5d c8bd
00000010: 6c16 003f b871 003c 8812 c43d 6a65 07bf
00000020: 02ac 553e 5a09 2c3f 4fa1 c63e c775 20bf
00000030: 84df 41bd 65db 2c3f eb3b 35bd b392 13bf
-0.65913874 0.6520478 0.69472677 -0.09783506 0.50034213 0.007839613 0.09573847 -0.5288912
0.20866397 0.6720177 0.38794944 -0.62679714 -0.0473323 0.6752227 -0.044246595 -0.5764572

decoder.lstm.weight_hh_l1 f4 [8, 2]
00000000: 24b0 d5be e072 2cbe f70a c8be 8f01 8d3b
00000010: 2505 95be 3caa 59be f8e4 9f3e c94a 2bbf
00000020: 82f8 a23e 57ba 32bf 5afb 083f 023d 563d
00000030: 0ea7 05bf e766 993d 3e6c 32bf 4d35 dfbe
-0.41735947 -0.16840696 -0.39070866 0.0043031643 -0.29105487 -0.21256346 0.31229377 -0.6691099
0.3183022 -0.6981558 0.5350853 0.052304275 -0.5220803 0.0749033 -0.69696414 -0.43595353

decoder.lstm.bias_ih_l1 f4 [8]
00000000: f4b8 a33d 49a8 20bf 0523 f73c 01dd e63e
00000010: d21f 22bf 76d4 b93e 7c01 41bf 240a 553e
0.079942614 -0.6275678 0.030168066 0.45090488 -0.63329804 0.36294907 -0.7539289 0.2080465

decoder.lstm.bias_hh_l1 f4 [8]
00000000: e0ea 61be 26f8 f9be aa1d 543e 9539 5ebe
00000010: 8d2b ffbe 5239 c2be 5728 8ebe 3966 083f
-0.22062254 -0.48822135 0.20714441 -0.21701653 -0.49837914 -0.37934357 -0.27765152 0.5328098

decoder.fc.weight f4 [2, 2]
00000000: 7b53 70be 4c7a 79bd 27c5 28be 1ac7 1abe
-0.23469345 -0.060907647 -0.16481458 -0.15115014

decoder.fc.bias f4 [2]
00000000: 7fd7 0abf 2807 21be
-0.5423507 -0.15725386
