py/model/autoencoder/res/28-09-2021_141106/epoch_30.model (torch, 3791 bytes, 18 tensors)

encoder.lstm.weight_ih_l0 f4 [4, 2]
0	0xbe8c08d4	-0.27350485
1	0x3eeb1a04	0.45918286
2	0xbebcec7c	-0.36899173
3	0x3eb87acc	0.36031187
4	0xbe94aeb4	-0.29039538
5	0xbe84b9f0	-0.2592311
6	0x3f755afe	0.9584197
7	0xbee909b4	-0.45515215

encoder.lstm.weight_hh_l0 f4 [4, 1]
0	0xbed0ddb4	-0.40794146
1	0x3f3116a2	0.6917516
2	0xbe088280	-0.13331032
3	0x3f33f6b6	0.70298326

encoder.lstm.bias_ih_l0 f4 [4]
0	0xbe009be0	-0.12559462
1	0x3ea2c1f8	0.3178861
2	0xbe3a7893	-0.18210058
3	0xbf6320c6	-0.88721883

encoder.lstm.bias_hh_l0 f4 [4]
0	0x3f200e44	0.6252177
1	0xbe341fd8	-0.17590272
2	0x3f124f90	0.5715265
3	0x3d94fb6a	0.07274516

encoder.lstm.weight_ih_l1 f4 [4, 1]
0	0xbf4dc7ec	-0.8038318
1	0x3f6fc7a2	0.9366399
2	0x3f02b05e	0.51050365
3	0xbf3af11e	-0.73024166

encoder.lstm.weight_hh_l1 f4 [4, 1]
0	0xbe8ab66c	-0.27092302
1	0x3f2af500	0.6678009
2	0xbf085607	-0.5325627
3	0xbf7bae4e	-0.9831284

encoder.lstm.bias_ih_l1 f4 [4]
0	0xbe522c7e	-0.20524785
1	0xbf3f0064	-0.7460997
2	0x3c568bb3	0.01309483
3	0x3f7386bb	0.9512746

encoder.lstm.bias_hh_l1 f4 [4]
0	0x3f6eaf2d	0.9323605
1	0xbf616bc2	-0.8805505
2	0x3efe5324	0.49672806
3	0xbe984478	-0.29739738

decoder.lstm.weight_ih_l0 f4 [8, 1]
0	0x3e9d7785	0.3075525
1	0x3e224ab8	0.15848815
2	0xbf020fb0	-0.5080519
3	0xbf082c24	-0.53192353
4	0x3e792ad1	0.2433274
5	0x3ea5c518	0.32376933
6	0x3d994be2	0.074851766
7	0xbe73dfd8	-0.23815858

decoder.lstm.weight_hh_l0 f4 [8, 2]
0	0x3e44cc94	0.19218665
1	0x3f1f9655	0.62338763
2	0xbf1667ea	-0.5875231
3	0xbe309cb8	-0.17247283
4	0x3f34339d	0.70391256
5	0xbe55c996	-0.2087768
6	0x3bb0de8a	0.0053976225
7	0xbeda23a3	-0.42605314
8	0x3f2f4c9c	0.6847627
9	0xbea9f643	-0.33195695
10	0xbeed0c97	-0.46298668
11	0x3d91a253	0.07111039
12	0xbe80bed7	-0.251456
13	0x3ea116c8	0.31462693
14	0xbc9814d8	-0.018564627
15	0xbedb3dae	-0.42820495

decoder.lstm.bias_ih_l0 f4 [8]
0	0xbdaf4863	-0.085587285
1	0x3ef9bf75	0.48778883
2	0x3efeb744	0.49749196
3	0xbf100e37	-0.5627169
4	0x3ef2ccae	0.47421783
5	0x3e04ab23	0.12955908
6	0x3dd6eaac	0.10493979
7	0xbf3169df	-0.6930217

decoder.lstm.bias_hh_l0 f4 [8]
0	0x3e53cc5e	0.20683429
1	0xbe8cf6fa	-0.27532178
2	0xbea3c22d	-0.31984082
3	0xbeaee049	-0.3415549
4	0x3babdb91	0.00524468
5	0x3d4db222	0.05021871
6	0xbef893de	-0.48550314
7	0x3f1bd8e5	0.6087783

decoder.lstm.weight_ih_l1 f4 [8, 2]
0	0xbf28c7f9	-0.65930134
1	0x3f26fd20	0.6522999
2	0x3f31d99d	0.69472677
3	0xbdc85dbf	-0.09783506
4	0x3f0033ab	0.5007884
5	0x3c030be7	0.007998443
6	0x3dc45079	0.095856614
7	0xbf07656a	-0.5288912
8	0x3e55932a	0.2085692
9	0x3f2c0fd8	0.67211676
10	0x3ec66d26	0.3875515
11	0xbf20d536	-0.62825334
12	0xbd4023aa	-0.046909012
13	0x3f2d3510	0.6765909
14	0xbd34efc9	-0.04417399
15	0xbf1392b3	-0.5764572

decoder.lstm.weight_hh_l1 f4 [8, 2]
0	0xbed5e283	-0.41774377
1	0xbe2cbbe5	-0.16868551
2	0xbec806b8	-0.39067626
3	0x3b8cf890	0.004302092
4	0xbe95329e	-0.2914018
5	0xbe59ddbe	-0.21275994
6	0x3e9fe4f8	0.31229377
7	0xbf2b4ac9	-0.6691099
8	0x3ea2efdf	0.31823632
9	0xbf32ba57	-0.6981558
10	0x3f0939bf	0.5360374
11	0x3d5697bd	0.052390803
12	0xbf05d686	-0.5228046
13	0x3d992ca3	0.07479217
14	0xbf326c3e	-0.69696414
15	0xbedf354d	-0.43595353

decoder.lstm.bias_ih_l1 f4 [8]
0	0x3da45495	0.08023945
1	0xbf205155	-0.626241
2	0x3cfd43f9	0.030916201
3	0x3ee71a88	0.4513743
4	0xbf2249b4	-0.6339371
5	0x3eb98bab	0.3623937
6	0xbf40c402	-0.75299084
7	0x3e555b59	0.20835628

decoder.lstm.bias_hh_l1 f4 [8]
0	0xbe61a210	-0.22034478
1	0xbef9e9ed	-0.48811284
2	0x3e54e4c1	0.20790388
3	0xbe5e44b4	-0.21705896
4	0xbeff4603	-0.49858102
5	0xbec2821d	-0.37989894
6	0xbe8db7f4	-0.27679408
7	0x3f08611c	0.5327318

decoder.fc.weight f4 [2, 2]
0	0xbe724699	-0.23659743
1	0xbd7e0b2d	-0.062022377
2	0xbe2af4c8	-0.16694939
3	0xbe1bbcbb	-0.15208714

decoder.fc.bias f4 [2]
0	0xbf0aff62	-0.54295933
1	0xbe21bf04	-0.15795523
