py/model/autoencoder/res/22-08-2021_222023/epoch_15.model (torch, 3791 bytes, 18 tensors)

encoder.lstm.weight_ih_l0 f4 [4, 2]
0	0x3f2f3b32	0.684497
1	0x40d06819	6.512707
2	0x4032644d	2.7873719
3	0x403e3dea	2.972529
4	0xbe247042	-0.16058448
5	0x40996e75	4.7947335
6	0xbf9cfefe	-1.2265317
7	0x3e9e2c6e	0.30893272

encoder.lstm.weight_hh_l0 f4 [4, 1]
0	0xbd398c1b	-0.04529963
1	0xbcc8206d	-0.024429524
2	0xbc820306	-0.015870582
3	0xbc0704f1	-0.008240924

encoder.lstm.bias_ih_l0 f4 [4]
0	0x404a6e3b	3.162978
1	0xc04841e3	-3.1290214
2	0x3ff6c38d	1.9278427
3	0xbf65a724	-0.8970816

encoder.lstm.bias_hh_l0 f4 [4]
0	0x40332a53	2.7994583
1	0xc06c6d36	-3.6941657
2	0x3ffbf824	1.9685102
3	0xc00a31cb	-2.1592891

encoder.lstm.weight_ih_l1 f4 [4, 1]
0	0x40824421	4.0708165
1	0x402bbc3f	2.6833646
2	0xc0cb0afe	-6.345092
3	0x40a4ebbb	5.1537757

encoder.lstm.weight_hh_l1 f4 [4, 1]
0	0xbf26e960	-0.6519985
1	0x3ee21df6	0.44163483
2	0xbadaca1f	-0.0016692317
3	0xbf3cbef8	-0.73728895

encoder.lstm.bias_ih_l1 f4 [4]
0	0x409ccf55	4.900309
1	0xc09b4ee5	-4.8533807
2	0xbe05b00a	-0.13055435
3	0x40b7210b	5.7227836

encoder.lstm.bias_hh_l1 f4 [4]
0	0x40b81e0e	5.753669
1	0xc0c1d8dc	-6.057722
2	0x3e1fb957	0.15598045
3	0x40ba6c96	5.825755

decoder.lstm.weight_ih_l0 f4 [8, 1]
0	0xc10c224d	-8.758374
1	0xc002bc51	-2.042744
2	0xc0147c7f	-2.3200986
3	0xbffbf089	-1.968278
4	0xc12a846b	-10.657329
5	0x3f942767	1.1574525
6	0xc011d789	-2.2787802
7	0xc0115592	-2.2708478

decoder.lstm.weight_hh_l0 f4 [8, 2]
0	0x400f03a8	2.2345982
1	0xc06bc400	-3.683838
2	0xbefa874a	-0.48931342
3	0x40571a56	3.3609824
4	0x3ea967ff	0.33087155
5	0x3fb2dbc4	1.3973317
6	0x3fbd7406	1.4801033
7	0xbf97369f	-1.1813544
8	0xbdad7318	-0.08469218
9	0x3b0aa692	0.0021156413
10	0xbc823c5b	-0.01589792
11	0xbe0f3bc5	-0.13987644
12	0x3f052d73	0.52022475
13	0xbfcf227e	-1.6182401
14	0xbe7c57a2	-0.24642804
15	0xc017eb0d	-2.3737214

decoder.lstm.bias_ih_l0 f4 [8]
0	0x401ff569	2.4993536
1	0x3f1e42d3	0.61820716
2	0xbff1df7d	-1.8896328
3	0xc0237c9b	-2.5544803
4	0x3e922af6	0.28548402
5	0x3e1f99dc	0.15586036
6	0x40dab25d	6.834273
7	0x3f2b1619	0.66830593

decoder.lstm.bias_hh_l0 f4 [8]
0	0x400e5bbc	2.224349
1	0x3f79f41c	0.97638106
2	0xbfec08d1	-1.844019
3	0xbfaa0546	-1.3282859
4	0xbec6f460	-0.38858318
5	0xbd2b496d	-0.04181807
6	0x40d26dad	6.575888
7	0x3f03e1c9	0.51516396

decoder.lstm.weight_ih_l1 f4 [8, 2]
0	0xc02cce37	-2.7000864
1	0x401f9230	2.4932976
2	0x408bef63	4.372972
3	0x3fed7574	1.8551469
4	0xc006e8fa	-2.1079698
5	0x40a34e0f	5.1032786
6	0xc06a7827	-3.6635835
7	0x40a1124c	5.0334835
8	0xc17da80c	-15.853527
9	0x41b289d7	22.317305
10	0xc09ce3c5	-4.902804
11	0xbeeaa27d	-0.45827094
12	0xbf2fb1c9	-0.68630654
13	0xc03abd78	-2.9178143
14	0xbfb5e6dd	-1.4211079
15	0x408ec2fe	4.4613028

decoder.lstm.weight_hh_l1 f4 [8, 2]
0	0x3fe65e28	1.7997484
1	0xbf55d829	-0.8353296
2	0xc083e373	-4.121515
3	0x3f98097c	1.1877894
4	0x407ad5a3	3.9192894
5	0x40775027	3.864267
6	0x3f481900	0.78163147
7	0xc05025c8	-3.252306
8	0x3dced194	0.100985676
9	0xbf0005b2	-0.5000869
10	0x3bfc5e80	0.007701695
11	0xbf7a6b56	-0.9782003
12	0xc00a57a0	-2.1615982
13	0x3fad7618	1.3551664
14	0xbc4e883a	-0.012605721
15	0x3c8ba33f	0.017045615

decoder.lstm.bias_ih_l1 f4 [8]
0	0xbf887e8b	-1.0663618
1	0x403f901c	2.9931707
2	0xbf7908df	-0.9727916
3	0xbffbb3d1	-1.9664251
4	0x3fbbd264	1.4673581
5	0xbff947b5	-1.9475008
6	0x3fcadf6e	1.5849435
7	0x3f392dd2	0.7233554

decoder.lstm.bias_hh_l1 f4 [8]
0	0xbd3bd990	-0.04586178
1	0x40221e2c	2.5330915
2	0xbf218e8a	-0.6310812
3	0xc0330169	-2.796961
4	0x3fc408a6	1.5315139
5	0xbfd465dc	-1.6593585
6	0x3e7b7860	0.24557638
7	0x3f22779f	0.6346378

decoder.fc.weight f4 [2, 2]
0	0xbf0a7d3e	-0.54097354
1	0xc094ee30	-4.6540756
2	0xbff7df79	-1.9365073
3	0x3ebc59a1	0.3678713

decoder.fc.bias f4 [2]
0	0xbfd9c172	-1.701216
1	0x3e1c0dc2	0.15239623
