py/model/autoencoder/res/22-08-2021_222023/epoch_37.model (torch, 3791 bytes, 18 tensors)

encoder.lstm.weight_ih_l0 f4 [4, 2]
000000 99 41 1e 3f 66 39 f8 40 d2 e2 66 40 52 c1 6f 40
       0.61818844 7.7570066 3.607594 3.7461743
000010 a5 4c 21 be 4b 38 b0 40 88 f9 96 bf 70 f1 8e 3e
       -0.15751894 5.5068717 -1.1794901 0.27918577

encoder.lstm.weight_hh_l0 f4 [4, 1]
000000 ea 46 d2 bc 04 73 22 3c f3 7b 7e bc 3b c9 20 bb
       -0.02566858 0.009915117 -0.0155324815 -0.0024534005

encoder.lstm.bias_ih_l0 f4 [4]
000000 95 f2 70 40 4e cf 7a c0 06 cf 0f 40 1b 74 6d bf
       3.764806 -3.9189029 2.2470107 -0.9275529

encoder.lstm.bias_hh_l0 f4 [4]
000000 98 ae 59 40 b6 7d 8f c0 59 69 12 40 ca 25 0c c0
       3.4012814 -4.4840956 2.28768 -2.1898065

encoder.lstm.weight_ih_l1 f4 [4, 1]
000000 5e 3d 85 40 c9 ee 10 40 bf ae cd c0 da 5a b4 40
       4.163741 2.2645743 -6.4275813 5.6360903

encoder.lstm.weight_hh_l1 f4 [4, 1]
000000 c8 c2 b0 3e 4d c0 bb 3e dd 4a 41 ba ef ef ae 3e
       0.34523606 0.3667015 -0.0007373521 0.3416743

encoder.lstm.bias_ih_l1 f4 [4]
000000 32 34 6f 40 e9 ef bc c0 70 f8 08 be 9b ee 96 40
       3.7375607 -5.904286 -0.13376021 4.7166266

encoder.lstm.bias_hh_l1 f4 [4]
000000 0d e9 92 40 e0 79 e3 c0 f1 70 1c 3e 26 3a 9a 40
       4.5909486 -7.1086273 0.15277459 4.819598

decoder.lstm.weight_ih_l0 f4 [8, 1]
000000 96 45 fc c0 48 aa 82 c0 4a d4 69 c0 2b 23 83 3f
       -7.8834944 -4.0832863 -3.653582 1.0245107
000010 c9 80 26 c1 8c 29 a4 3f 58 9e ef bf da a0 58 c0
       -10.406442 1.2825179 -1.8720198 -3.3848176

decoder.lstm.weight_hh_l0 f4 [8, 2]
000000 6e d7 56 40 41 4d b2 c0 c4 ef 2f bf 48 92 57 40
       3.3568988 -5.5719304 -0.6872523 3.3683033
000010 76 10 a1 3f bd 25 a9 3f 54 f1 c7 3f 48 1d 73 c0
       1.2583148 1.3214642 1.5620522 -3.7986622
000020 70 8b 43 bd 29 af 26 3d 33 8f 9c bc 41 f4 de bd
       -0.0477404 0.04069439 -0.019111251 -0.108864315
000030 26 ab d6 bd f7 09 d2 bf f0 bf 9b be 6f 2d 11 c0
       -0.10481863 -1.6409291 -0.30419874 -2.268398

decoder.lstm.bias_ih_l0 f4 [8]
000000 c6 3c 22 40 8a 39 3a 3f 71 f7 1c c0 35 48 40 c0
       2.5349593 0.7274405 -2.4526026 -3.0044072
000010 03 b3 75 3e 5b 59 1c 3e fa bc ee 40 32 14 91 3e
       0.23994069 0.15268461 7.4605684 0.2833572

decoder.lstm.bias_hh_l0 f4 [8]
000000 19 a3 10 40 71 f6 8a 3f 4f 0c 1a c0 22 9b e3 bf
       2.2599547 1.0856458 -2.4070013 -1.7781718
000010 41 45 de be fc 46 38 bd 4a 78 e6 40 e8 5a 05 3e
       -0.43412212 -0.04498957 7.2021837 0.13022959

decoder.lstm.weight_ih_l1 f4 [8, 2]
000000 fd 13 0d c0 2d 67 2a 40 cf b2 93 40 d2 cf 41 40
       -2.204345 2.6625473 4.615577 3.0283093
000010 75 d0 63 c0 f3 03 90 40 e1 27 aa c0 b7 a0 aa 40
       -3.5595982 4.500482 -5.317368 5.3321185
000020 e2 91 a6 c1 97 57 d9 41 37 01 9d c0 85 d0 83 3e
       -20.821232 27.167768 -4.9063983 0.25745025
000030 1b 85 0c bf 24 0a 96 c0 fb e2 c8 bf 96 0a 7b 40
       -0.548906 -4.688738 -1.5694269 3.922521

decoder.lstm.weight_hh_l1 f4 [8, 2]
000000 42 f6 db 3f 35 fc 1f bf 03 c1 c6 c0 1f 46 70 3f
       1.7184527 -0.6249421 -6.211061 0.93856996
000010 ff 90 e4 40 c8 bf d6 40 0e 76 b1 3f d5 e4 9c c0
       7.1426997 6.710911 1.3864152 -4.9029336
000020 01 58 15 3d b0 12 c8 be ec 8a 7e 3e b9 ce b3 bf
       0.03646088 -0.39076757 0.24857682 -1.4047462
000030 9d 9e 0c c0 d4 47 80 3f 35 b0 0d bd f9 96 01 3c
       -2.197181 1.002192 -0.034591872 0.00790953

decoder.lstm.bias_ih_l1 f4 [8]
000000 06 e3 92 bf 7d ef 49 40 31 5b 18 bf e4 4e 20 c0
       -1.1475532 3.1552422 -0.5951415 -2.504815
000010 5a dd 00 40 04 69 00 c0 a1 9c a9 3f ee b4 49 3f
       2.0135102 -2.0064096 1.3250924 0.787917

decoder.lstm.bias_hh_l1 f4 [8]
000000 aa 10 02 be 8d 7d 2c 40 2e c4 81 be 85 76 55 c0
       -0.1270167 2.695163 -0.25344986 -3.3353589
000010 13 f8 04 40 a3 ee db bf 81 ec 69 bc bb fe 32 3f
       2.0776412 -1.7182201 -0.014277578 0.6991994

decoder.fc.weight f4 [2, 2]
000000 95 44 25 bf 18 a2 97 c0 20 39 1c c0 8a 34 d7 3e
       -0.6455777 -4.738537 -2.4409866 0.42032272

decoder.fc.bias f4 [2]
000000 08 30 e4 bf 84 80 1c 3e
       -1.7827158 0.152834
