py/model/autoencoder/res/21-09-2021_130500/epoch_12.model (torch, 3791 bytes, 18 tensors)

encoder.lstm.weight_ih_l0 f4 [4, 2]
0.052276265 0.004482303 -0.23683693 0.98552346 -0.060509056 -0.0012264142 0.07649937 0.0054545617
00000000: a31f 563d 48e0 923b 6185 72be 444b 7c3f
00000010: 58d8 77bd a2bf a0ba b4ab 9c3d 2ebc b23b

encoder.lstm.weight_hh_l0 f4 [4, 1]
0.009785415 -0.08094368 0.000557182 -0.008980914
00000000: 0153 203c cdc5 a5bd da0f 123a af24 13bc

encoder.lstm.bias_ih_l0 f4 [4]
0.56642276 -4.55544 -0.18855515 2.308957
00000000: 1501 113f 2ac6 91c0 9a14 41be f4c5 1340

encoder.lstm.bias_hh_l0 f4 [4]
1.824047 -6.184619 -0.14409973 1.7150862
00000000: 5f7a e93f 66e8 c5c0 e18e 13be f287 db3f

encoder.lstm.weight_ih_l1 f4 [4, 1]
1.1183952 4.6760144 -1.9590545 1.472391
00000000: 9327 8f3f e9a1 9540 4cc2 fabf 4f77 bc3f

encoder.lstm.weight_hh_l1 f4 [4, 1]
-0.030270439 -0.01925242 -0.0010047151 0.0065332805
00000000: b6f9 f7bc 40b7 9dbc a5b0 83ba 2115 d63b

encoder.lstm.bias_ih_l1 f4 [4]
1.0732318 -4.89154 -0.8508303 -0.17324382
00000000: a95f 893f 7f87 9cc0 04d0 59bf d466 31be

encoder.lstm.bias_hh_l1 f4 [4]
0.9258206 -3.6344373 -0.700658 0.7208186
00000000: 9402 6d3f 9f9a 68c0 535e 33bf 9187 383f

decoder.lstm.weight_ih_l0 f4 [8, 1]
-0.9896553 -0.17010048 -0.36418936 -0.9511611 -2.121064 0.9902889 -0.8578006 -0.24795412
00000000: 0d5a 7dbf d22e 2ebe 0777 babe 4b7f 73bf
00000010: 83bf 07c0 9383 7d3f d298 5bbf afe7 7dbe

decoder.lstm.weight_hh_l0 f4 [8, 2]
-2.0154595 0.6820807 -0.7508418 -0.13159223 0.12657765 0.7828304 0.6949191 -0.06306133
-0.46515805 0.22605214 -0.78953797 -0.28736073 -1.6990061 0.014328467 0.27259365 -0.40768358
00000000: 4afd 00c0 d79c 2e3f 2b37 40bf 1dc0 06be
00000010: 929d 013e 9367 483f 38e6 313f 4c26 81bd
00000020: 3229 eebe 367a 673e 291f 4abf f220 93be
00000030: 0879 d9bf f2c1 6a3c 6591 8b3e e7bb d0be

decoder.lstm.bias_ih_l0 f4 [8]
2.046455 -0.075473584 -0.28603202 0.22357374 -0.0969573 0.1524783 1.8200932 -0.19987032
00000000: 1ef9 0240 e591 9abd ca72 92be 84f0 643e
00000010: 8d91 c6bd 4523 1c3e d0f8 e83f ceaa 4cbe

decoder.lstm.bias_hh_l0 f4 [8]
1.8498927 0.36914685 -0.48736152 -0.09977998 -0.46896884 0.045874167 1.9235123 0.34542602
00000000: 49c9 ec3f d100 bd3e 7387 f9be 7259 ccbd
00000010: af1c f0be 8de6 3b3d a735 f63f aedb b03e

decoder.lstm.weight_ih_l1 f4 [8, 2]
-1.8486192 2.0197203 -0.13849059 3.2373803 -2.6843545 4.9028993 0.17761935 0.3186558
-1.4856379 1.1281937 2.689771 -1.148795 -0.6458971 0.8296487 6.572756 2.0261784
00000000: 8e9f ecbf 1943 0140 7ad0 0dbe 3d31 4f40
00000010: 77cc 2bc0 8de4 9c40 d9e1 353e da26 a33e
00000020: 6229 bebf a768 903f 3525 2c40 b70b 93bf
00000030: 8359 25bf db63 543f 0454 d240 e8ac 0140

decoder.lstm.weight_hh_l1 f4 [8, 2]
3.0229344 0.20797594 -0.08250755 0.5934214 -5.102746 -6.733207 -0.36794883 0.13938586
-2.8417723 2.6709142 -0.0040122755 -0.76513463 0.3772136 0.022445465 1.6384354 -7.322631
00000000: c277 4140 a5f7 543e b8f9 a8bd 77ea 173f
00000010: b249 a3c0 6f76 d7c0 ca63 bcbe 2bbb 0e3e
00000020: 99df 35c0 42f0 2a40 6879 83bb dddf 43bf
00000030: 2422 c13e 8ddf b73c 40b8 d13f fe52 eac0

decoder.lstm.bias_ih_l1 f4 [8]
-0.7770374 1.5116396 -0.35685623 0.64868796 0.08869395 -0.5214561 0.030950744 2.9701192
00000000: eceb 46bf 687d c13f dcb5 b6be 6a10 263f
00000010: 2ca5 b53d 267e 05bf 6a8c fd3c 6f16 3e40

decoder.lstm.bias_hh_l1 f4 [8]
-0.07308891 1.8405465 -0.17115773 0.33751872 -0.16799472 0.27455577 0.0690336 2.8588169
00000000: a3af 95bd 0797 eb3f f943 2fbe 41cf ac3e
00000010: cf06 2cbe 9392 8c3e 7d61 8d3d dbf6 3640

decoder.fc.weight f4 [2, 2]
0.167944 -7.910711 -0.106553584 -0.18830422
00000000: 83f9 2b3e 8b24 fdc0 c438 dabd d2d2 40be

decoder.fc.bias f4 [2]
-0.09652844 -0.14383057
00000000: b4b0 c5bd 5248 13be
