py/model/autoencoder/res/21-09-2021_130500/epoch_70.model (torch, 3791 bytes, 18 tensors)

encoder.lstm.weight_ih_l0 f4 [4, 2]
0.19035482 -0.09130818 3.7394822 0.30447832 -0.17350137 -0.01002753 0.30898494 -0.30380324
00000000: 60ec 423e c8ff babd ad53 6f40 95e4 9b3e
00000010: 58aa 31be 824a 24bc 4633 9e3e 198c 9bbe

encoder.lstm.weight_hh_l0 f4 [4, 1]
0.008133935 -0.18056388 0.0027323796 0.10922225
00000000: 3244 053c bde5 38be b911 333b eaaf df3d

encoder.lstm.bias_ih_l0 f4 [4]
0.7545754 -4.485923 -0.26963404 2.4304717
00000000: da2b 413f ae8c 8fc0 790d 8abe d98c 1b40

encoder.lstm.bias_hh_l0 f4 [4]
2.0121427 -6.11511 -0.22518565 1.8366367
00000000: f2c6 0040 fbae c3c0 1197 66be e916 eb3f

encoder.lstm.weight_ih_l1 f4 [4, 1]
0.6818096 23.492035 -2.8539348 1.6696533
00000000: 138b 2e3f b0ef bb41 dea6 36c0 33b7 d53f

encoder.lstm.weight_hh_l1 f4 [4, 1]
-0.07693103 -0.18290894 -0.0062979343 0.0031452382
00000000: 048e 9dbd 7b4c 3bbe e75e cebb 5720 4e3b

encoder.lstm.bias_ih_l1 f4 [4]
1.2865616 0.04309622 -1.1594452 -0.48885852
00000000: 0dae a43f a985 303d b368 94bf aa4b fabe

encoder.lstm.bias_hh_l1 f4 [4]
1.1391699 1.3001629 -1.0092279 0.40520933
00000000: 52d0 913f bd6b a63f 612e 81bf 9977 cf3e

decoder.lstm.weight_ih_l0 f4 [8, 1]
0.33669147 0.9610002 -1.1858585 -1.2284734 -2.0293717 1.6759822 -0.40654626 1.2753763
00000000: d362 ac3e 1c04 763f 36ca 97bf 9e3e 9dbf
00000010: 3ae1 01c0 9686 d63f d526 d0be 883f a33f

decoder.lstm.weight_hh_l0 f4 [8, 2]
-0.16263716 0.27038282 -0.059259485 -0.5437387 -0.021974409 0.46260375 1.2148775 -0.4358142
-0.3349951 0.2352185 -0.25451064 0.058920637 2.8269858 -0.4697129 -0.21175982 -0.07548287
00000000: 5b8a 26be 9e6f 8a3e 13ba 72bd 7632 0bbf
00000010: ad03 b4bc 66da ec3e 1b81 9b3f 0a23 dfbe
00000020: 7a84 abbe 1edd 703e 384f 82be c456 713d
00000030: 56ed 3440 367e f0be 91d7 58be c396 9abd

decoder.lstm.bias_ih_l0 f4 [8]
1.9700093 -0.66540813 -0.39709952 0.2118401 -0.13693649 0.3536173 1.9913929 -0.04110566
00000000: 4429 fc3f 3058 2abf a150 cbbe 9cec 583e
00000010: 1439 0cbe 540d b53e f6e5 fe3f 695e 28bd

decoder.lstm.bias_hh_l0 f4 [8]
1.773452 -0.22078618 -0.5984446 -0.11150805 -0.5089456 0.24702479 2.0947704 0.5042082
00000000: 7a00 e33f c615 62be aa33 19bf 555e e4bd
00000010: 424a 02bf 11f4 7c3e b810 0640 ca13 013f

decoder.lstm.weight_ih_l1 f4 [8, 2]
-1.4844013 -5.198113 -2.3156195 0.08956928 -3.9901986 4.9487367 -0.82589936 0.18437125
0.7080763 -3.015003 2.1520958 -0.7713675 7.725245 -2.2552369 0.80151266 -0.5520024
00000000: dd00 bebf f156 a6c0 1c33 14c0 1970 b73d
00000010: 6a5f 7fc0 0d5c 9e40 246e 53bf d1cb 3c3e
00000020: 7d44 353f cff5 40c0 f0bb 0940 5778 45bf
00000030: 3535 f740 cd55 10c0 ef2f 4d3f 0750 0dbf

decoder.lstm.weight_hh_l1 f4 [8, 2]
1.1639729 2.384339 0.013726566 -1.01278 -6.865738 -15.2904005 -0.06080238 -0.91456425
5.465766 26.915552 -0.0012197946 -1.2044011 3.5425432 -5.358115 0.7408946 -25.794847
00000000: 10fd 943f 0399 1840 64e5 603c c6a2 81bf
00000010: 20b4 dbc0 7ba5 74c1 eb0b 79bd e220 6abf
00000020: 8ee7 ae40 0d53 d741 84e1 9fba d129 9abf
00000030: 07b9 6240 ae75 abc0 45ab 3d3f d95b cec1

decoder.lstm.bias_ih_l1 f4 [8]
-0.30182138 -0.428646 0.7118157 0.1433418 0.5754858 -0.16092119 -0.5375887 3.687035
00000000: 5588 9abe 7d77 dbbe 8e39 363f 31c8 123e
00000010: 0a53 133f 86c8 24be 6a9f 09bf 62f8 6b40

decoder.lstm.bias_hh_l1 f4 [8]
0.40213758 -0.09967802 0.8975083 -0.16785197 0.31879732 0.63508475 -0.49950528 3.575763
00000000: fae4 cd3e fd23 ccbd 1bc3 653f 63e1 2bbe
00000010: 6739 a33e ea94 223f 28bf ffbe 4dd9 6440

decoder.fc.weight f4 [2, 2]
-0.03925635 -10.5345955 -0.7887724 -0.10788373
00000000: 44cb 20bd b48d 28c1 fdec 49bf 25f2 dcbd

decoder.fc.bias f4 [2]
-0.35198957 -0.12825787
00000000: fa37 b4be 0856 03be
