py/model/autoencoder/res/21-09-2021_130500/epoch_71.model (torch, 3791 bytes, 18 tensors)

encoder.lstm.weight_ih_l0 f4 [4, 2]
000000 b7 fc bb 3d cd 52 12 bf ff c9 94 40 53 38 e1 3e
       0.09179061 -0.57157594 4.6496577 0.43988284
000010 7d 08 eb be 50 19 04 bf 1f 00 e1 3d 69 3b cb be
       -0.45904914 -0.51601124 0.10986351 -0.39693764

encoder.lstm.weight_hh_l0 f4 [4, 1]
000000 90 26 b3 bd f1 28 26 bf 7d 7f 7f 3a 47 75 81 3e
       -0.087475896 -0.6490622 0.0009746475 0.25284788

encoder.lstm.bias_ih_l0 f4 [4]
000000 ea d6 11 be c6 d3 64 c0 18 3a 03 bf 60 64 a2 3f
       -0.1424214 -3.5754256 -0.5126052 1.2686882

encoder.lstm.bias_hh_l0 f4 [4]
000000 e8 bc 8e 3f 45 8c a6 c0 5f b2 ef be 0b c2 2c 3f
       1.11514 -5.2046227 -0.46815774 0.67483586

encoder.lstm.weight_ih_l1 f4 [4, 1]
000000 08 21 d4 3f 4b 45 ab 41 ec 57 3f c0 6e df 3f 40
       1.657258 21.408834 -2.9897413 2.998012

encoder.lstm.weight_hh_l1 f4 [4, 1]
000000 5e f2 fe bc 01 85 27 bf 36 3e 90 bd 90 4c 75 be
       -0.031121429 -0.6543732 -0.07043116 -0.23954988

encoder.lstm.bias_ih_l1 f4 [4]
000000 40 5b 11 40 fc 90 b5 be e7 8a 49 bf a7 b4 d1 3d
       2.2711945 -0.35462177 -0.78727573 0.10239535

encoder.lstm.bias_hh_l1 f4 [4]
000000 59 ec 07 40 89 06 67 3f 14 16 23 bf 55 18 7f 3f
       2.1238005 0.90244347 -0.63705564 0.996465

decoder.lstm.weight_ih_l0 f4 [8, 1]
000000 ff 4d b2 3f 5d b6 e0 bf 4f 68 16 c0 f9 f5 fe be
       1.3930053 -1.7555653 -2.3501165 -0.49797037
000010 0f dd 3b c0 43 97 03 40 c3 48 f0 3f 65 e0 d6 bf
       -2.9353673 2.0561073 1.8772205 -1.678723

decoder.lstm.weight_hh_l0 f4 [8, 2]
000000 33 db 84 3f 71 6e d4 bf 8e ab 20 be 31 18 9c bc
       1.0379394 -1.6596204 -0.15690443 -0.019054504
000010 1b 4f d7 be 12 51 11 3f e7 7f 81 3e ee dc 5f 3f
       -0.4205254 0.5676433 0.25292894 0.87446487
000020 ec c0 e5 be dc d4 31 3e 10 51 78 be 2e b2 25 bf
       -0.4487375 0.17366356 -0.24249673 -0.64725006
000030 26 48 18 40 4d b2 4d bf c8 d9 3b bf 9e 51 7a 3e
       2.3794036 -0.8035019 -0.7337918 0.24445197

decoder.lstm.bias_ih_l0 f4 [8]
000000 2c 43 f4 3f 8a ea bf be d5 4f dd be 07 c7 15 bf
       1.9082999 -0.37483627 -0.4322497 -0.58506817
000010 76 6c 98 bd 1f ef ad 3e c5 c2 00 40 d8 05 9f 3e
       -0.07442562 0.33971497 2.0118878 0.31059146

decoder.lstm.bias_hh_l0 f4 [8]
000000 91 1a db 3f e7 eb 8e 3d 49 33 22 bf 42 8e 68 bf
       1.7117482 0.069785886 -0.63359505 -0.9084207
000010 f0 92 e4 be 07 b8 6e 3e 9f 60 07 40 a4 1c 5b 3f
       -0.44643354 0.23312388 2.1152723 0.8559058

decoder.lstm.weight_ih_l1 f4 [8, 2]
000000 32 96 b2 3e b2 dd bd c0 58 7b 7a bf f6 f1 a1 bf
       0.34880215 -5.9333124 -0.9784446 -1.2651966
000010 b4 95 8d c0 51 94 7d 40 d0 79 53 3f 56 89 42 bf
       -4.4245243 3.9621775 0.82607746 -0.7599081
000020 0d 9a cf be 09 51 fd bf cb f0 e3 3f ff c2 92 bf
       -0.4054722 -1.9790355 1.7807859 -1.1465758
000030 97 84 2c 41 cf 9d b6 be 49 c4 47 3e 01 9e 55 bf
       10.782371 -0.35667273 0.1950847 -0.8344422

decoder.lstm.weight_hh_l1 f4 [8, 2]
000000 5b b4 3c bf 08 73 47 40 4b b4 f4 bd 36 61 e0 bf
       -0.737127 3.116396 -0.11948451 -1.7529666
000010 f0 fb 02 c1 73 c7 6d c1 6b b4 ce 3d 2c c9 c6 bf
       -8.186508 -14.861194 0.10093006 -1.5530143
000020 ca 96 bb 40 1b 98 cb 41 4c 8f 8b 3e b7 6f af bf
       5.862157 25.44927 0.27257764 -1.3705968
000030 74 b0 d0 be aa bd f6 c0 83 e3 2b 3f f7 af d1 c1
       -0.40759623 -7.7106524 0.6714403 -26.21092

decoder.lstm.bias_ih_l1 f4 [8]
000000 b7 42 37 be a5 7e 49 bf 65 a0 90 be 84 a0 a8 be
       -0.17896543 -0.7870887 -0.2824737 -0.32934964
000010 cb 34 ef 3f 08 a8 7c bd 3d f9 9a bf fa 6a 4c 40
       1.8687986 -0.061683685 -1.2107311 3.1940293

decoder.lstm.bias_hh_l1 f4 [8]
000000 08 66 06 3f 25 8f ea be be 35 c6 bd 9b fa 23 bf
       0.5249944 -0.45812336 -0.09678219 -0.6405427
000010 b0 59 ce 3f 78 fc 3b 3f 55 19 96 bf e5 4b 45 40
       1.612112 0.7343211 -1.1726481 3.0827572

decoder.fc.weight f4 [2, 2]
000000 a1 4a 0d 3e eb 85 12 c1 01 f5 b2 bf 91 fc 2d 40
       0.13798 -9.157695 -1.3981019 2.7185404

decoder.fc.bias f4 [2]
000000 1a 7e 22 3e 93 e0 fb 3d
       0.15868416 0.122986935
