py/model/autoencoder/res/21-09-2021_130500/epoch_52.model (torch, 3791 bytes, 18 tensors)

encoder.lstm.weight_ih_l0 f4 [4, 2]
0	0x3dbb2c21	0.09139276
1	0x3c38299e	0.011240391
2	0x406e8fc4	3.7275248
3	0x3e71f71e	0.23629424
4	0xbe1ba129	-0.15198196
5	0xbb42fd02	-0.0029752855
6	0x3e233039	0.15936364
7	0xbe38116c	-0.17975396

encoder.lstm.weight_hh_l0 f4 [4, 1]
0	0xbbff141d	-0.00778438
1	0xbe568773	-0.20950107
2	0xb97a4767	-0.00023868457
3	0x3c887fcf	0.016662506

encoder.lstm.bias_ih_l0 f4 [4]
0	0x3f332e83	0.69992846
1	0xc097f51f	-4.748672
2	0xbe8a389a	-0.2699631
3	0x401c8c90	2.4460793

encoder.lstm.bias_hh_l0 f4 [4]
0	0x3ffa9127	1.9575547
1	0xc0cc176c	-6.377859
2	0xbe66eb01	-0.22550584
3	0x3fed1712	1.8522666

encoder.lstm.weight_ih_l1 f4 [4, 1]
0	0x3f539054	0.826421
1	0x419f56ec	19.917442
2	0xc01ef849	-2.4839041
3	0x3fc05347	1.5025414

encoder.lstm.weight_hh_l1 f4 [4, 1]
0	0xbd42f5b6	-0.04759761
1	0xbe84640e	-0.25857586
2	0xbbf9b377	-0.007620271
3	0x3b9c635d	0.004772587

encoder.lstm.bias_ih_l1 f4 [4]
0	0x3fa2da64	1.2722898
1	0xbf692de3	-0.9108564
2	0xbf970b30	-1.1800289
3	0xbe8a8915	-0.2705771

encoder.lstm.bias_hh_l1 f4 [4]
0	0x3f8ffca9	1.1248981
1	0x3eb1440b	0.34622225
2	0xbf83d1ca	-1.0298398
3	0x3f1f9cb1	0.6234847

decoder.lstm.weight_ih_l0 f4 [8, 1]
0	0xbe718a85	-0.23587997
1	0x3ee18765	0.4404861
2	0xbe961450	-0.29312372
3	0xbf3d52ca	-0.7395445
4	0xc00a85e6	-2.1644225
5	0x3fa2642a	1.2686818
6	0xbf8a088d	-1.078386
7	0x3f9eecd3	1.2416023

decoder.lstm.weight_hh_l0 f4 [8, 2]
0	0xc02df475	-2.7180455
1	0x3f9b4fc8	1.2133722
2	0xbec16b4a	-0.37777168
3	0x3c551a73	0.013006794
4	0xbd99dc29	-0.07512695
5	0x3f66d097	0.9016203
6	0x3f5d2e6e	0.8639897
7	0xbe760431	-0.24025036
8	0xbeb8c97c	-0.3609122
9	0x3e768c96	0.24077067
10	0xbed360c6	-0.4128477
11	0xbea22a14	-0.31672728
12	0xbf6eb228	-0.93240595
13	0x3fac3947	1.345498
14	0xbe6ae00a	-0.22937027
15	0x3e3ed1bc	0.18634695

decoder.lstm.bias_ih_l0 f4 [8]
0	0x3f8d072d	1.1017815
1	0xbe9d3eb9	-0.30711916
2	0xbea74563	-0.32670125
3	0x3e71f687	0.23629199
4	0x3c7dc40b	0.015488635
5	0x3ed85e34	0.4225937
6	0x3fcef7aa	1.6169331
7	0xbdd8ece1	-0.10592056

decoder.lstm.bias_hh_l0 f4 [8]
0	0x3f67bcbb	0.90522355
1	0x3e0ccf1f	0.13750885
2	0xbf072e58	-0.5280509
3	0xbdb24d14	-0.08706108
4	0xbeb68a00	-0.3565216
5	0x3ea1ca1a	0.31599504
6	0x3fdc349d	1.7203556
7	0x3ee0f736	0.43938607

decoder.lstm.weight_ih_l1 f4 [8, 2]
0	0xc0156015	-2.3339894
1	0xc0184a27	-2.379526
2	0xbf04c981	-0.5186997
3	0x3fda635e	1.7061574
4	0xc013d8d3	-2.310109
5	0x40ce8c0b	6.454595
6	0x3db4e409	0.08832557
7	0x3f0c3724	0.5477164
8	0xbf21a804	-0.63146996
9	0xbff6bca3	-1.9276317
10	0x400cfc86	2.2029128
11	0xbf8ab713	-1.083712
12	0x3fc7acb5	1.5599581
13	0xc0672847	-3.6118333
14	0x40fb68ba	7.856534
15	0x403e903c	2.9775534

decoder.lstm.weight_hh_l1 f4 [8, 2]
0	0x406aaf52	3.6669507
1	0x4018b15a	2.3858247
2	0x3e82ad8c	0.2552303
3	0x3ec9fdd9	0.39451483
4	0xc0c92562	-6.2858133
5	0xc152a630	-13.165573
6	0xbca6fd84	-0.020384558
7	0x3df8ddf0	0.12151706
8	0x3f7e5a1b	0.9935624
9	0x41a5f1c9	20.74306
10	0x3b897548	0.004194889
11	0xbf923331	-1.1421872
12	0x408bbcc6	4.3667936
13	0xc071787a	-3.7729783
14	0x400b793c	2.1792746
15	0xc1bceea7	-23.61653

decoder.lstm.bias_ih_l1 f4 [8]
0	0xbeabd63c	-0.33561885
1	0x3dbb682a	0.09150727
2	0x3f9d4cad	1.2289025
3	0x3f0bebcb	0.54656667
4	0x3ec1e469	0.37869576
5	0xbf1ae454	-0.6050465
6	0xbf93de32	-1.1552184
7	0x40324b61	2.7858508

decoder.lstm.bias_hh_l1 f4 [8]
0	0x3ebc96df	0.36833856
1	0x3ed74874	0.42047465
2	0x3fb511cb	1.4146055
3	0x3e7107ef	0.23538183
4	0x3df9dd95	0.122004665
5	0x3e438c8f	0.19096588
6	0xbf8efe4e	-1.1171358
7	0x402b2bfd	2.6745598

decoder.fc.weight f4 [2, 2]
0	0x3d828071	0.063721545
1	0xc123c938	-10.236626
2	0xbf449523	-0.76790065
3	0xbe09788e	-0.13424894

decoder.fc.bias f4 [2]
0	0xbe12f971	-0.14352967
1	0xbe04adde	-0.1295695
