py/model/autoencoder/res/21-09-2021_130500/epoch_92.model (torch, 3791 bytes, 18 tensors)

encoder.lstm.weight_ih_l0 f4 [4, 2]
0	0x3f114551	0.56746393
1	0xbf028f05	-0.5099948
2	0x407da60a	3.9632592
3	0xbf18de07	-0.59713787
4	0xc0a26dec	-5.075918
5	0xc0761693	-3.8451278
6	0x3ee0ac97	0.43881676
7	0xbdee13ed	-0.11624894

encoder.lstm.weight_hh_l0 f4 [4, 1]
0	0xbef76a05	-0.48323074
1	0xbe9c8a9e	-0.30574507
2	0xbd81618f	-0.06317436
3	0xbc0d3503	-0.008618596

encoder.lstm.bias_ih_l0 f4 [4]
0	0x3fac83a4	1.3477674
1	0xc06d8821	-3.7114336
2	0xc0783c56	-3.8786826
3	0x3ef1c248	0.47218537

encoder.lstm.bias_hh_l0 f4 [4]
0	0x4026bdda	2.6053376
1	0xc0aae5ff	-5.3405757
2	0xc07563d7	-3.8342187
3	0xbdf931d3	-0.12167706

encoder.lstm.weight_ih_l1 f4 [4, 1]
0	0x3fbd4cc2	1.478905
1	0x41aac5dd	21.346613
2	0xc04082ce	-3.0079837
3	0x40082f5a	2.12789

encoder.lstm.weight_hh_l1 f4 [4, 1]
0	0xbbe77c47	-0.0070643756
1	0xbe5c883e	-0.21536347
2	0xbbb081f7	-0.0053865868
3	0x3ce9b09e	0.0285266

encoder.lstm.bias_ih_l1 f4 [4]
0	0x401d0367	2.4533327
1	0xc0841906	-4.1280546
2	0xbf276549	-0.65388924
3	0x3e0bf90f	0.13669227

encoder.lstm.bias_hh_l1 f4 [4]
0	0x40139480	2.3059387
1	0xc037be75	-2.8709996
2	0xbf00f053	-0.50366706
3	0x3f83efc7	1.0307549

decoder.lstm.weight_ih_l0 f4 [8, 1]
0	0x3f258403	0.6465456
1	0xc015aa90	-2.3385353
2	0x3faf009f	1.3672065
3	0xbf9b5eb6	-1.2138278
4	0xc0a14b9b	-5.040479
5	0x41155a68	9.334572
6	0x40f082a2	7.5159464
7	0x3bc80f75	0.0061053582

decoder.lstm.weight_hh_l0 f4 [8, 2]
0	0x3fbe48d1	1.4865972
1	0xc09c92c6	-4.8929167
2	0x3daefebf	0.08544683
3	0xbd88d783	-0.066817306
4	0xbf76271d	-0.9615343
5	0x3fa5b153	1.294474
6	0x3e699428	0.22810423
7	0x3f9b874c	1.2150664
8	0xbe0dd3d8	-0.13850343
9	0xbdacc0f0	-0.084352374
10	0x3db79684	0.089642555
11	0xbeb05316	-0.3443839
12	0xbdec7042	-0.11544849
13	0xbfd7ee4a	-1.6869595
14	0xc0050195	-2.0782216
15	0xbea3faba	-0.32027227

decoder.lstm.bias_ih_l0 f4 [8]
0	0x3f8b37b5	1.0876375
1	0xbf467a40	-0.7753029
2	0xbfd9553f	-1.697914
3	0xbf7876b9	-0.97056156
4	0xbe9685e9	-0.2939904
5	0xbf861b13	-1.0477012
6	0x400f3730	2.2377434
7	0x3feb5893	1.8386406

decoder.lstm.bias_hh_l0 f4 [8]
0	0x3f641e40	0.8910866
1	0xbea94ea5	-0.33067814
2	0xbff31b06	-1.8992622
3	0xbfa59e41	-1.293892
4	0xbf2a7ec5	-0.66599685
5	0xbf93c018	-1.1542997
6	0x4015d54e	2.341144
7	0x40189297	2.3839471

decoder.lstm.weight_ih_l1 f4 [8, 2]
0	0xbed51f9e	-0.41625684
1	0xc0ffe379	-7.9965177
2	0xbf1d879e	-0.6153506
3	0x3d49b94f	0.04924899
4	0xc0df208e	-6.972724
5	0x4097d0ea	4.744252
6	0xbc9ffb0b	-0.019528886
7	0xbfdbaf9e	-1.7162969
8	0x3fd84d00	1.6898499
9	0xbfafc9fa	-1.3733513
10	0x3f02bbe0	0.51067924
11	0xc00d445c	-2.2072973
12	0x427d5976	63.337364
13	0xc0bd85db	-5.92259
14	0x40083fa1	2.1288836
15	0xbe43ab16	-0.19108233

decoder.lstm.weight_hh_l1 f4 [8, 2]
0	0x3f3e0604	0.7422793
1	0xc0185ad9	-2.380545
2	0xbd0867d7	-0.033302154
3	0xbf9b4c25	-1.2132612
4	0xc17955c1	-15.583436
5	0xc104bca4	-8.296055
6	0x3de66a93	0.11250796
7	0xc0133949	-2.3003714
8	0x40a7ccf9	5.243771
9	0x41c4ac33	24.584082
10	0x3b523e9d	0.0032080777
11	0xbeebf054	-0.46081793
12	0xbfd0551f	-1.6275977
13	0xc027e7ac	-2.6235151
14	0x3f78fa60	0.9725704
15	0xc1d4cc0d	-26.599634

decoder.lstm.bias_ih_l1 f4 [8]
0	0xbfdbca54	-1.7171121
1	0xbf280b1f	-0.6564197
2	0xbf0db483	-0.55353564
3	0xbf5abee3	-0.8544752
4	0x4002c6a1	2.0433733
5	0xbed16b42	-0.40902144
6	0xbf948b1f	-1.1604956
7	0x4072a57c	3.7913504

decoder.lstm.bias_hh_l1 f4 [8]
0	0xbf81af56	-1.0131633
1	0xbea7a8c7	-0.32745954
2	0xbebc5502	-0.36783606
3	0xbf9534de	-1.1656759
4	0x3fe4b103	1.786652
5	0x3ec62201	0.38697818
6	0xbf8faad8	-1.1224012
7	0x406b8698	3.68009

decoder.fc.weight f4 [2, 2]
0	0x3f26dc7f	0.651802
1	0xc12e1e0e	-10.882338
2	0xbf96698d	-1.1750962
3	0x400ce362	2.2013783

decoder.fc.bias f4 [2]
0	0x3e417e64	0.1889587
1	0x3c998388	0.018739477
