py/model/autoencoder/res/21-09-2021_130500/epoch_32.model (torch, 3791 bytes, 18 tensors)

encoder.lstm.weight_ih_l0 f4 [4, 2]
000000 3f 1a 84 3c 6d 4a b5 3c d5 bd 62 40 a1 49 12 3e
       0.016125796 0.022130216 3.5428364 0.142859
000010 49 9b db bd df ee d5 b9 ad b1 80 3d d8 c3 f4 bc
       -0.10722978 -0.000408045 0.06283889 -0.029878542

encoder.lstm.weight_hh_l0 f4 [4, 1]
000000 d2 16 41 3c d5 57 86 be 44 a4 8c b9 68 cb 23 3c
       0.011785226 -0.26238886 -0.00026825268 0.009997226

encoder.lstm.bias_ih_l0 f4 [4]
000000 8e ce f0 3e 6a ff 95 c0 8d fb 55 be 35 42 0e 40
       0.4703259 -4.6874285 -0.2089674 2.222791

encoder.lstm.bias_hh_l0 f4 [4]
000000 0a 2e dd 3f b7 21 ca c0 d4 75 28 be 41 7f d0 3f
       1.7279675 -6.3166156 -0.16451198 1.6288835

encoder.lstm.weight_ih_l1 f4 [4, 1]
000000 7b 3d 57 3f 1d a0 44 41 df a0 0d c0 93 63 b5 3f
       0.84078187 12.28909 -2.2129438 1.4171013

encoder.lstm.weight_hh_l1 f4 [4, 1]
000000 08 fd 1e bd 23 3f b3 be 02 e1 15 3b 2f 2d c8 3b
       -0.03881553 -0.35009107 0.002286971 0.006108902

encoder.lstm.bias_ih_l1 f4 [4]
000000 ca 41 9d 3f 92 6f 3a c0 9e 70 8b bf 55 79 53 be
       1.2285702 -2.9130597 -1.0893743 -0.20651753

encoder.lstm.bias_hh_l1 f4 [4]
000000 0f 64 8a 3f 04 f7 d3 bf 03 6f 70 bf 4a 03 30 3f
       1.0811785 -1.6559758 -0.9391939 0.6875502

decoder.lstm.weight_ih_l0 f4 [8, 1]
000000 71 de dd be b9 1e 0e 3e e9 2c e8 be 8f f7 4c bf
       -0.43333772 0.13878907 -0.45346764 -0.80065244
000010 48 df 08 c0 ea 59 75 3f b6 52 4a bf e6 52 de 3e
       -2.138628 0.9584032 -0.79032457 0.4342262

decoder.lstm.weight_hh_l0 f4 [8, 2]
000000 93 81 0b c0 b5 36 5c 3f ef 35 2a be b0 7d f8 3d
       -2.1797836 0.86020976 -0.16622137 0.12133348
000010 32 18 05 3d 52 8f 5d 3f 24 22 62 3f f6 bf 8d 3d
       0.032493778 0.86546814 0.88333344 0.06921379
000020 b0 63 eb be 37 e0 9b 3e ea 68 11 bf 78 ff d8 be
       -0.45974493 0.304445 -0.5680071 -0.42382407
000030 1f 01 50 bf 37 e0 57 3f 22 b0 18 be 63 c0 ec be
       -0.8125171 0.843265 -0.1491094 -0.4624053

decoder.lstm.bias_ih_l0 f4 [8]
000000 ce 7d b2 3f 65 ec 70 be 8e 3c 9e be 81 d8 e3 3d
       1.3944643 -0.23527677 -0.30905575 0.11125279
000010 d9 03 df bc 13 58 bc 3e 68 c6 c5 3f be 52 b3 be
       -0.027223514 0.36785945 1.5451174 -0.35024065

decoder.lstm.bias_hh_l0 f4 [8]
000000 cf 54 99 3f a8 5f 56 3e 1d a8 02 bf 4b 30 59 be
       1.1979007 0.20934927 -0.5103777 -0.21209829
000010 61 68 cc be 55 c3 85 3e 5b 03 d3 3f 46 bd 47 3e
       -0.39923385 0.2612559 1.6485399 0.19505796

decoder.lstm.weight_ih_l1 f4 [8, 2]
000000 8b 4a 83 c0 08 3b ad bf 0c a1 54 3f 93 3d b4 40
       -4.1028495 -1.353364 0.8305824 5.6325164
000010 6f 3c 0e c0 3d 0a e8 40 8b 88 1f be 16 42 94 3e
       -2.2224386 7.25125 -0.15579431 0.2895667
000020 68 e8 8f 3e 6a ce b4 3e fd 87 08 40 45 08 99 bf
       0.28107 0.3531373 2.1333 -1.1955649
000030 8a ea 6d 3c c1 b8 0b c0 1c 05 c3 40 78 e6 65 40
       0.0145212505 -2.1831515 6.0943737 3.5921917

decoder.lstm.weight_hh_l1 f4 [8, 2]
000000 d1 1f b6 40 eb fb a9 3f e3 18 8a bf 73 9f 8e 3e
       5.691384 1.3280004 -1.0788845 0.27856025
000010 8f 07 a5 c0 11 03 48 c1 69 ee b6 3d 02 b8 9c bd
       -5.1571727 -12.500749 0.08932192 -0.07652284
000020 a7 77 b3 bf 68 3a 26 41 0c 42 6b bc 16 4d 4f bf
       -1.402089 10.389259 -0.0143590085 -0.80977
000030 10 09 af 3f f5 95 e3 bf 29 93 12 40 da 53 88 c1
       1.3674641 -1.7780138 2.290232 -17.040943

decoder.lstm.bias_ih_l1 f4 [8]
000000 78 9f cc bf c9 04 03 40 2c e1 a2 3f 84 59 4e 3f
       -1.5986166 2.047167 1.2724967 0.8060534
000010 d5 84 8c 3e 0c ba 25 bf 5c d1 e4 3c 3a 71 4d 40
       0.27445093 -0.6473701 0.027931862 3.2100358

decoder.lstm.bias_hh_l1 f4 [8]
000000 a7 08 65 bf ed 11 18 40 4a a6 ba 3f 89 61 fd 3e
       -0.8946633 2.376094 1.4581997 0.49488476
000010 0d 86 91 3c 76 32 18 3e eb 32 87 3d d6 51 46 40
       0.017764116 0.14863 0.06601509 3.0987449

decoder.fc.weight f4 [2, 2]
000000 c6 a8 5a be 71 6c 11 c1 60 04 52 bf 04 b3 c6 bd
       -0.21353444 -9.088975 -0.82037926 -0.09702113

decoder.fc.bias f4 [2]
000000 6d 29 c4 be 8b 54 18 be
       -0.38312855 -0.14876
