py/model/autoencoder/res/27-09-2021_174828/epoch_93.model (torch, 2703 bytes, 10 tensors)

encoder.lstm.weight_ih_l0 f4 [4, 2]
00000000: d154 a4be b802 3abf c68d ae3d 6f76 943e
00000010: 22cf 3ebf 0510 183c 9496 0c3e 2e0a 12bf
-0.3209596 -0.726604 0.08523135 0.28996608 -0.7453481 0.009281163 0.13729316 -0.5704678

encoder.lstm.weight_hh_l0 f4 [4, 1]
00000000: 45b7 debe f1c2 bbbe da41 1cbf b515 523f
-0.434992 -0.36672166 -0.6103798 0.8206437

encoder.lstm.bias_ih_l0 f4 [4]
00000000: 744c 973f fa91 3fbf fa06 0ebf 4624 2a3f
1.1820207 -0.7483212 -0.55479395 0.664616

encoder.lstm.bias_hh_l0 f4 [4]
00000000: 40b4 463f e52d 23bf f036 143f e154 bc3f
0.7761879 -0.63741904 0.5789633 1.4713403

decoder.lstm.weight_ih_l0 f4 [8, 1]
00000000: b5b8 893e 40ef 16bf ff82 c03e fa4c e4bc
00000010: 629b 183e 2611 7abf 1cb1 3240 0f54 d7be
0.26898733 -0.58958817 0.37599942 -0.027868737 0.14903024 -0.97682416 2.79206 -0.4205632

decoder.lstm.weight_hh_l0 f4 [8, 2]
00000000: 9a0f fbbe bae6 403e e165 56bd 4c0f b23d
00000010: 56ba 70be c71b 1fbf 8564 ccbe 909d 6c3e
00000020: d6ba 463f c38c 983d b48e 25be 4269 0ebf
00000030: f50d c53d 02c6 23bf 7485 24bf 26b1 2f3f
-0.4903534 0.18838015 -0.052343253 0.08694324 -0.23508582 -0.6215176 -0.3992044 0.2310698
0.7762884 0.07448723 -0.16167718 -0.5562936 0.09621803 -0.6397401 -0.64266133 0.6862968

decoder.lstm.bias_ih_l0 f4 [8]
00000000: d62c ba3e 4e18 1c3f f8df 3b3f 142b f0bd
00000010: d348 f5be 07c4 0c3f fdc3 cd3e 54c5 593e
0.36362332 0.60974586 0.73388624 -0.117269665 -0.47907123 0.54986614 0.4018859 0.21266681

decoder.lstm.bias_hh_l0 f4 [8]
00000000: a57b dd3e 4f6e bbbe 50ad 3a3e f1ef b63d
00000010: 20e8 96bf 5a69 fbbb d7a4 b6be 5f95 a3bd
0.43258396 -0.36607596 0.18230176 0.08932484 -1.1789589 -0.007672471 -0.35672638 -0.07987475

decoder.fc.weight f4 [2, 2]
00000000: 06e8 3f40 0611 c93f 38ae 29be d622 cb3e
2.9985366 1.570832 -0.16570365 0.39675015

decoder.fc.bias f4 [2]
00000000: c7b9 653f d351 9dbe
0.897366 -0.3072649
