py/model/autoencoder/res/27-09-2021_174828/epoch_78.model (torch, 2703 bytes, 10 tensors)

encoder.lstm.weight_ih_l0 f4 [4, 2]
-0.33593002 -0.75278735 0.06800748 0.28143486 -0.8468709 0.019050905 0.14723429 -0.5989318
00000000: 05ff abbe acb6 40bf 8147 8b3d 3b18 903e
00000010: 88cc 58bf a510 9c3c 96c4 163e 9853 19bf

encoder.lstm.weight_hh_l0 f4 [4, 1]
-0.4281308 -0.3623533 -0.63568014 0.82480204
00000000: f633 dbbe 5f86 b9be efbb 22bf 3a26 533f

encoder.lstm.bias_ih_l0 f4 [4]
1.164987 -0.760841 -0.5572202 0.6319988
00000000: 4b1e 953f 7ac6 42bf fca5 0ebf acca 213f

encoder.lstm.bias_hh_l0 f4 [4]
0.7593379 -0.6499389 0.576537 1.4387666
00000000: f863 423f 6562 26bf ee97 133f 8129 b83f

decoder.lstm.weight_ih_l0 f4 [8, 1]
0.25995597 -0.58798265 0.3740299 -0.012915285 0.15409148 -0.9268062 2.761993 -0.4009124
00000000: f318 853e 0886 16bf d980 bf3e a29a 53bc
00000010: 28ca 1d3e 2c43 6dbf 7ec4 3040 6444 cdbe

decoder.lstm.weight_hh_l0 f4 [8, 2]
-0.48859608 0.18699126 -0.035412613 0.08055372 -0.23301864 -0.62331 -0.40073764 0.23192346
0.7762884 0.07499459 -0.13983914 -0.55102783 0.11686407 -0.6306764 -0.63461274 0.67308205
00000000: 4429 fabe a37a 3f3e d10c 11bd 59f9 a43d
00000010: 709c 6ebe 3f91 1fbf 7c2d cdbe 587d 6d3e
00000020: d6ba 463f c396 993d fe31 0fbe 2910 0dbf
00000030: 6e56 ef3d 0274 21bf fb75 22bf 1b4f 2c3f

decoder.lstm.bias_ih_l0 f4 [8]
0.3401861 0.58024883 0.7269894 -0.116363406 -0.46655288 0.55352104 0.38828626 0.17812985
00000000: df2c ae3e 308b 143f fa1b 3a3f f04f eebd
00000010: 05e0 eebe 8eb3 0d3f 75cd c63e ac67 363e

decoder.lstm.bias_hh_l0 f4 [8]
0.40914673 -0.3955871 0.17542028 0.0902311 -1.1648468 -0.0040058787 -0.370326 -0.11440723
00000000: ae7b d13e 648a cabe 60a1 333e 15cb b83d
00000010: b319 95bf bf43 83bb 5f9b bdbe 564e eabd

decoder.fc.weight f4 [2, 2]
2.9359388 1.5117644 -0.16144024 0.39971387
00000000: 6ce6 3b40 7f81 c13f 9750 25be 4ca7 cc3e

decoder.fc.bias f4 [2]
0.8857833 -0.3004084
00000000: b2c2 623f 21cf 99be
