py/model/autoencoder/res/27-09-2021_174828/epoch_4.model (torch, 2703 bytes, 10 tensors)

encoder.lstm.weight_ih_l0 f4 [4, 2]
0	0xbf14a3b8	-0.58062315
1	0xbf5941dd	-0.84866124
2	0xbcf11728	-0.029429987
3	0x3e4d3938	0.20041358
4	0xbf7cd913	-0.9876873
5	0x3e9c8a21	0.30574134
6	0x3f0f7cac	0.5604961
7	0xbf3145b1	-0.69246966

encoder.lstm.weight_hh_l0 f4 [4, 1]
0	0xbebea812	-0.37237602
1	0xbe7ffea9	-0.24999489
2	0x3f5c4662	0.86044896
3	0x3f4efcbd	0.808544

encoder.lstm.bias_ih_l0 f4 [4]
0	0x3f591321	0.84794813
1	0xbeaca8d2	-0.3372255
2	0xbec3d370	-0.38247252
3	0xbed96157	-0.42457077

encoder.lstm.bias_hh_l0 f4 [4]
0	0x3ee290d9	0.44251135
1	0xbe67bc79	-0.2263049
2	0x3f40522d	0.7512539
3	0x3ec3ab31	0.38216546

decoder.lstm.weight_ih_l0 f4 [8, 1]
0	0xbe535673	-0.20638447
1	0xbee4c9b3	-0.44685134
2	0xbe108122	-0.1411176
3	0x3e4e0207	0.20117961
4	0x3ec69fa0	0.3879366
5	0x3e3534fa	0.1769599
6	0x3f5f9980	0.873436
7	0xbcd82d32	-0.026388738

decoder.lstm.weight_hh_l0 f4 [8, 2]
0	0xbe971b71	-0.29513124
1	0x3e1d2b8e	0.15348646
2	0x3deacdb6	0.114650175
3	0x3d2f694c	0.04282503
4	0x3d0256de	0.031821124
5	0xbf2d43d8	-0.67681646
6	0xbedbfd77	-0.42966816
7	0x3e79d27c	0.243967
8	0x3f2d2f1a	0.67649996
9	0x3dc3b1c3	0.0955539
10	0x3cb6ec08	0.022329345
11	0xbf00776a	-0.5018221
12	0x3e9ac18a	0.30225784
13	0xbf253a91	-0.6454249
14	0xbf04e813	-0.5191662
15	0x3f181d0d	0.5941933

decoder.lstm.bias_ih_l0 f4 [8]
0	0xbe000f28	-0.12505782
1	0x3e85e4ea	0.2615121
2	0x3e5c9b4b	0.21543615
3	0xbdbe49e9	-0.09291441
4	0xbe2d40aa	-0.16919199
5	0x3ebc91c6	0.36829966
6	0x3e68756d	0.22701044
7	0xbe66d3a4	-0.22541672

decoder.lstm.bias_hh_l0 f4 [8]
0	0xbd65ca59	-0.056101177
1	0xbf36d997	-0.71425766
2	0xbeac0e5f	-0.33604714
3	0x3de8d11d	0.1136801
4	0xbf5e90ea	-0.8693987
5	0xbe41bfef	-0.18920873
6	0xbf0817da	-0.53161395
7	0xbf049a71	-0.5179816

decoder.fc.weight f4 [2, 2]
0	0x3f460ca5	0.77363044
1	0x3eee8fab	0.46593985
2	0x3e61cb9d	0.22050329
3	0x3f34173e	0.70347965

decoder.fc.bias f4 [2]
0	0xbea66bec	-0.32504213
1	0xbdc7773a	-0.097395375
